models/SKY_Pretrained/cora_gcn4_model.pth (torch, 96216 bytes, 6 tensors)

conv1.bias f4 [16]
00000000: bdd4 083e 750e 433e 0d5b 383e 0583 a73d
00000010: 0bf4 063e f69b fe3d 25a2 313e e318 f63d
00000020: 81d9 693e 8f5f 453e 9138 053e 3d69 843d
00000030: 6980 0d3e 5683 463e b756 ce3d e6d2 203e
0.13362403 0.19048484 0.18003483 0.08179287 0.13179033 0.12432091 0.1734701 0.120164655
0.22836877 0.19274734 0.1300986 0.06465385 0.13818516 0.19386038 0.10075133 0.15705451

conv1.lin.weight f4 [16, 1433]
00000000: 9fbe eabd 5099 003e ccde 89bd f8ab c1bd
00000010: af02 bf3e 0fb2 8b3d 5c65 83bd a445 a03c
00000020: 9262 7cbc f6cd 93bd 1af4 13bd 52b7 bf3c
00000030: 1b4f c73d b00c 48bd c20b 8a3d b1f6 6d3e
00000040: 82f6 81bd d8c8 14bd 238a 45ba 46c9 4bbe
00000050: 81f1 60bc 0431 91bd 8f72 d8bc aae0 e9bc
00000060: 7a0a c93c 72b8 523e 2e2b 843e a1b0 90bb
00000070: 74a6 b13d ffd6 d9bc 7c32 afbc 610f 763d
00000080: d9b2 5dbd 0c8a f93a 3cd6 283d 9ebd 86bd
00000090: a0f1 843c 69b2 c5bc 12b4 3bbe 70a7 2dbe
000000a0: 7d5f a93e 3c7c 96bc 1384 82bd ada4 9d3c
000000b0: c8ab 08be 0264 ccbd d923 3dbd 509a 4abe
000000c0: 7267 bd3d febb 633c 339d 2fbd a9a3 55be
000000d0: 136f 20bd ee51 2bbd 386a bb3e 3e6b 55bc
000000e0: 2b7c a5bd 4556 a63d 9d52 c0bd 83a6 473d
000000f0: 658f 5b3e 915e 82bd a92f abbb 6e67 fc3d
00000100: 0b95 d93e 9fbf 113e 6991 94bd 132a 0dbe
00000110: 5d8e 083b e95c 8dbd 8ec2 26bc d79e ab3c
00000120: 6729 9b3c de52 0fbe b28c 41be 07d1 11bc
00000130: 2007 7cbc 4254 b33d 1590 733e d23d 81ba
00000140: 6f99 333b 5c5d 35be 1f92 d23d f19b 113b
00000150: 1742 0e3d d29b 333c fb7f 1f3d 18a5 b8bd
00000160: 8e65 793c c05b 1f3e fdef 00bc c724 2d3d
00000170: c90f d8bc 728e 3d3e dac5 183c 8bb8 e3bb
00000180: 9d8a 9a3d ffed 883d 7a45 dfbd ac4b 1bbe
00000190: cc72 8bbc 8ef8 3a3b db58 10bd 2ed0 23bb
000001a0: fcf8 f0bd 36d3 15bc a6d3 94bc 59d4 b4bd
000001b0: d1f8 f6bd 9b3c 003d 2bc2 133d 4f98 73bc
000001c0: 05ee 5d3e 49a2 90bc c2ef b53c e44b 0bbd
000001d0: a618 133c b19a 8dbc 82b3 423d 2f61 123e
000001e0: e41f 8cbd 91cb e03b a574 a63d cb53 943b
000001f0: aa0e 7fbc d558 163d 2fe7 cdbd 6965 84bc
00000200: ac8e f83c bb34 39bc 538d 9d3d 1cec 1fbe
00000210: 3c8e 40bd 722b a03c 496d a13c fcc6 32be
00000220: 8591 263d 05b5 d0bd 2491 a7bd a032 74bd
00000230: 3b64 08be ae68 16be 46fc a9bc 7f3d 553d
00000240: 0a86 86bd c291 eebb 41ec 0dbd 1b72 373e
00000250: 7a61 dbbc c60d 573d 8411 873d e2b0 923d
00000260: e8bc 6a3d 35d8 12be 7ac3 6bbc 38bc b5bd
00000270: 0c3b 033e 1c55 71bd 528c 383c daf7 3a3c
00000280: 5e58 05bc 4534 9d3d e583 df3c 8f18 31bc
00000290: da0b 123d ee4d b93d 13fd 7f3d f2ea df3c
000002a0: b4ca 45be c282 85bd 2405 853d c14f ef3c
000002b0: c950 e6bd e676 a1bc 92ee e5bc 7448 a2bc
000002c0: a2b1 5bbd 3058 023d 63e4 bbbd 491e b1bc
000002d0: 828c c43c 34fe c1ba ddfd babc 6623 083d
000002e0: 1645 b63d a1fc 653d 94ba 883c b66c 443e
000002f0: bf86 723c 19ce 9e3d b9ac 06bd b839 ac3d
00000300: 2d2a 5b39 6167 72be 968c 40bd f0aa 5cbb
00000310: 64f1 043d a991 b0bc e829 583c c73a 093c
00000320: 9d37 36bc 2e55 37bb 68e0 9bbc 95a7 33bc
00000330: 2bf1 953b 847b 893d fbd9 56bd a8e5 56bd
00000340: e02a 113c 4948 13bc a16f 833d 006f d73d
00000350: 8390 083d 7f46 983c 52d2 f3bc d5dd c7bd
00000360: 5bb8 c93b 7e3e 053d 8220 d5bd 3321 32bd
00000370: 813b a5bd 4f60 bfbd 1352 e83d 0cd3 063c
00000380: 1940 e83c 88f6 41bd 84da da3d 3c0a d6bd
00000390: d940 0abe 5420 44bd fadb a6bc 2853 c7bd
000003a0: 5461 11bd bb49 bb3c 9023 7d3e 0a1f 003c
000003b0: da45 e53d a2f9 15bd 57a5 41bd a362 6d3d
000003c0: 7c35 febd a7e3 71bd 0cb9 293d c192 2e3d
000003d0: 2705 8d3d b6b3 4a3d d297 b7bd 1899 3a3e
000003e0: fe03 643c 3993 cb3c 5f0d 213d fd37 393b
000003f0: 8c79 493d 53f2 9bbd b869 223d 7032 963d
-0.11462139 0.12558484 -0.06731948 -0.094566286 0.37306735 0.06821071 -0.06415817 0.019564457
-0.01540436 -0.07217018 -0.036121465 0.023402844 0.09731885 -0.048840225 0.06740524 0.23238637
-0.06345846 -0.036324352 -0.00075355376 -0.19900998 -0.013729454 -0.07089427 -0.026421813 -0.028549511
0.024541128 0.20578173 0.25814193 -0.004415587 0.086743265 -0.026591776 -0.021386378 0.06007326
-0.05412564 0.0019038334 0.041219935 -0.06579135 0.016228497 -0.024132924 -0.1833041 -0.16958404
0.33080664 -0.018369786 -0.063728474 0.019243563 -0.1334678 -0.099800125 -0.046176765 -0.19785428
0.09248246 0.013899801 -0.042874526 -0.20863213 -0.03916843 -0.04182618 0.36604476 -0.013026057
-0.08080324 0.08121923 -0.09390757 0.048742782 0.2144142 -0.06365693 -0.0052241874 0.12324415
0.42496523 0.14233254 -0.07254297 -0.13785581 0.0020836808 -0.06902487 -0.010178221 0.020949764
0.01894064 -0.13996455 -0.18901327 -0.008899934 -0.015382558 0.08756305 0.23785432 -0.0009860343
0.0027404686 -0.17711395 0.10281777 0.0022218192 0.034730997 0.010962443 0.03894041 -0.09015864
0.015221966 0.15562344 -0.007869718 0.0422714 -0.026374714 0.1851137 0.009324515 -0.0069494895
0.0754597 0.06686019 -0.109019235 -0.15165585 -0.017022513 0.0028529498 -0.03524099 -0.002499591
-0.1176624 -0.009144595 -0.018167328 -0.088295646 -0.12059177 0.031307798 0.036073845 -0.014867856
0.21672828 -0.017655509 0.022209052 -0.03400792 0.008978045 -0.017285677 0.047534473 0.14294885
-0.0684202 0.0068602045 0.08127717 0.0045265905 -0.015567461 0.03670581 -0.100538604 -0.016161637
0.030341469 -0.011304076 0.07692971 -0.15617412 -0.047010645 0.019551966 0.019705432 -0.17458719
0.040666122 -0.10190777 -0.0818198 -0.059618592 -0.13319485 -0.1468837 -0.020750176 0.0520606
-0.06568535 -0.0072805593 -0.034649137 0.17914622 -0.026779879 0.05250337 0.06595138 0.07162644
0.05730906 -0.14340289 -0.014389867 -0.088737905 0.12815493 -0.058919057 0.011263924 0.0114116315
-0.008138744 0.07675985 0.027284572 -0.010809078 0.035655834 0.09048067 0.06249721 0.02733371
-0.19315606 -0.06519081 0.06495121 0.029212834 -0.11245877 -0.019710016 -0.02806786 -0.019809939
-0.0536362 0.031822383 -0.09174421 -0.021620886 0.02399278 -0.001480049 -0.02282613 0.033236884
0.08899896 0.05614913 0.01669053 0.19182095 0.014802634 0.07754154 -0.032879565 0.084094465
0.00020901179 -0.23672248 -0.047009073 -0.0033671223 0.03245677 -0.021553831 0.013193585 0.00837583
-0.011121658 -0.0027974355 -0.019027904 -0.010965248 0.0045758686 0.06713012 -0.052453976 -0.05246511
0.00886032 -0.008989402 0.06417776 0.105192184 0.033340942 0.018588303 -0.029763374 -0.09759108
0.00615601 0.0325303 -0.10406591 -0.043488692 -0.0806799 -0.09344541 0.113437794 0.008229028
0.028350877 -0.04735425 0.1068621 -0.10451171 -0.135013 -0.047882393 -0.020368565 -0.09732658
-0.03549321 0.022862306 0.24720597 0.0078199 0.11194964 -0.03661502 -0.04727682 0.057955395
-0.12412545 -0.059054997 0.04143624 0.042620424 0.06885748 0.049487792 -0.08964504 0.18222463
0.013916967 0.024850475 0.039319392 0.0028262131 0.04918818 -0.07614579 0.039651603 0.07333839

conv2.bias f4 [16]
00000000: 6a51 7a3d 87a5 183e 9a89 f03d 2164 413e
00000010: c421 273e a3b7 173e 4931 883e 7c7f 77bd
00000020: 035c c63d 740c 14bd 0f23 fa3c 779b 833e
00000030: b86d 123e 82a7 8a3d 06d7 a33e 37fb 113e
0.0611128 0.14906894 0.117449954 0.18885852 0.16321474 0.14816146 0.26600102 -0.060424313
0.096855186 -0.03614469 0.030534295 0.25704548 0.14299667 0.06770231 0.31999987 0.14255987

conv2.lin.weight f4 [16, 16]
00000000: adba dfbe a41d f13d 8cf6 053f 4363 5e3e
00000010: d16f e5be f0c1 823a 148e 07bf d80f 2e3c
00000020: 2677 38bf 10ee 973e bee0 4dbf 3c56 143f
00000030: 8076 823f 32ee 263e 5758 893e f34a 0a3f
00000040: 89ed 12be 2905 03bc 22c4 9a3d c053 7d3f
00000050: 25fc 1bbe e1db bfbd e1b0 d3bd 9572 113f
00000060: 3552 58bf 383a c43d b7ac 64be 495e 783f
00000070: a009 253e 8342 8fbe 835e 363f 24fd 91bd
00000080: 2064 3f3f 907a 2abf 9588 2b3f 8533 253f
00000090: da36 483f 39a6 893e 29bf 83bd e4ee 2e3f
000000a0: 7ddb 20be d9d9 0b3a 86a3 543c 8786 8c3e
000000b0: 1a0b 27bf a398 85bd 4313 903f b762 1fbf
000000c0: 4657 013e f903 1d3f dd7c e63e 6e0f 07be
000000d0: a991 f23d f6ba 40bc 66c3 6ebf a564 ce3e
000000e0: a5ed 8e3d f7b3 62bf ec11 40bf 0bb0 cfbd
000000f0: 5768 be3d e2f6 323f 5eea 0ebf 33c0 583f
00000100: 3f6f ca3e 49fc e23e a243 3bbf 7d36 42be
00000110: 25bd 1cbf bbb3 c0be 4b40 2f3f a36c db3e
00000120: a283 663e ceb4 723f 15a8 643e f99f 3e3f
00000130: d31a 193f 0998 38bf a808 cfbe 5e66 ddbd
00000140: debf 1b3f fd2d c03e 30ba 89bd 6bf6 a8be
00000150: faa8 553e bd75 a5be 2e77 2cbe 621e f63e
00000160: 02b1 683f bb51 1bbf 6209 5b3b 460c 9cbe
00000170: 9b82 2bbf d707 14bc 3748 13bf 341c 0f3f
00000180: b4fb 18bf c6e9 db3e a02a 15bf 07f2 083f
00000190: 38e2 af3c b254 fb3d b7f5 f13e c201 d9be
000001a0: c7ae 093f 2098 783e a303 5c3f 8f8d e9be
000001b0: 646f c4be c279 8dbe 5085 253f 4f38 50be
000001c0: 0241 5d3f 9758 08bf 3c3e 2dbc d4b8 333e
000001d0: b980 913f f9ff 243f c6f8 0e3d a3c9 353f
000001e0: f2bd dbbe 0b9d 1a3e 7714 bf3e 3031 393e
000001f0: 895b bebe caa5 aebe a400 e03e 6a91 4bbf
00000200: ba6e 463f cb60 28be 39c1 843e 1196 31bf
00000210: c593 35be 3ff8 343c 07f2 4e3f c187 3d3e
00000220: c828 903f 390f 483f 82f5 ac3b e767 22be
00000230: 3f8d 61bc 6337 eabd 3282 07bf 9e5b 08be
00000240: fa8e d83e 17d4 a7bd 0d6a 9b3e 18c2 5bbf
00000250: b16b 4a3f fe38 813f b1f9 26be 7ac2 3dbe
00000260: b668 92be 7ca5 c03d 1d41 40bf 3106 ae3d
00000270: aa1a 483f 61c8 3a3e aeac bebe 3973 a33d
00000280: 781f 413f 8921 77be d8b9 2d3f 806c 6cbf
00000290: 813a 243f 254d 3a3f 7d59 6bbe cfb6 153d
000002a0: 84b7 bebd c610 ae3e ab9b 60bf 4de1 66be
000002b0: c689 cc3e 651c ef3e 6a90 bcbe d79f 66bd
000002c0: 2120 65be d55c 3f3f f4a3 fabe 1242 a73e
000002d0: 608f f93e 4965 543f 79b2 243f b9a8 84be
000002e0: 35c8 2bbd 28c1 dd3e 8bc9 2e3f f036 033f
000002f0: b2cb 563f e64f 5cbf 3a56 72bd c620 4ebe
00000300: 2f6f 1b3f 3565 14bf 97e0 563f a48c 61be
00000310: fde9 10bf 5797 ecbe 2d61 a13e a501 3b3e
00000320: 193d 563f 9512 933f 42f4 35be e16f 58bd
00000330: ee81 c6bd 5f5d 3f3f 999b f83e 2a02 94be
00000340: 1892 db3e 2bf8 4c3c 33ce 633e f95f 013f
00000350: 6304 27bf bce8 72bf ac35 34bf ee34 643f
00000360: 4fc5 e43e 8fbb 23bf 2f87 10bf e672 0f3f
00000370: 061f 1fbf a63a 053f ec31 043e a797 4c3f
00000380: c83f 0ebe f911 883f edc6 51be 9d2a adbe
00000390: d83a d63e 1c9b b73e f8d4 583e 58ca e5be
000003a0: 834b 553f 9572 f4be a2de 863f 8d99 60bf
000003b0: aaaa 9ebd 080d cd3e 1231 71be 488d 093f
000003c0: 512a 1dbf f797 d3bd 68a9 b63e 9638 1f3f
000003d0: 05d5 fa3e 727a 0e3f 3c81 00bf 4252 abbe
000003e0: 7543 2dbf d06a fbbe 8f21 db3e bed7 e0be
000003f0: a9a6 3abe f4ef 613f 8436 4e3f 4492 0c3d
-0.4369711 0.117732316 0.52329326 0.21717553 -0.44811872 0.0009976011 -0.5295117 0.010623895
-0.72056806 0.29673815 -0.80421054 0.57944083 1.0192413 0.16301802 0.2682521 0.54020613
-0.14348425 -0.007996836 0.075569406 0.9895592 -0.15232904 -0.093681104 -0.10336471 0.56815463
-0.8450044 0.09581417 -0.2233151 0.9701887 0.16116953 -0.27980432 0.71237963 -0.07128361
0.74762154 -0.66593266 0.6700528 0.6453174 0.78208697 0.2688463 -0.06432945 0.6833327
-0.15708728 0.0005334891 0.01297844 0.27446386 -0.65251315 -0.06523254 1.1255878 -0.6226
0.12630948 0.61334187 0.45017138 -0.1318948 0.11844189 -0.011763325 -0.93266904 0.4031116
0.06978921 -0.88555855 -0.75027347 -0.101409994 0.09297245 0.69907963 -0.55826366 0.8466827
0.39538 0.44333103 -0.73150074 -0.18966098 -0.6122611 -0.37637123 0.6845748 0.4285632
0.22511151 0.94807136 0.22329743 0.7446285 0.59806556 -0.7210699 -0.40436292 -0.108105406
0.6083964 0.37535086 -0.067249656 -0.33000502 0.2086524 -0.3231639 -0.16842338 0.48070055
0.9089509 -0.60671586 0.003342234 -0.30478114 -0.66996163 -0.009035072 -0.57532066 0.5590241
-0.5975907 0.42951792 -0.58268166 0.53494304 0.021470174 0.12272014 0.47257778 -0.42384154
0.53782314 0.24276781 0.8594305 -0.45615813 -0.38366234 -0.27631956 0.64656544 -0.2033398
0.8642732 -0.5326018 -0.01057392 0.17550975 1.1367408 0.64453083 0.034905218 0.710108
-0.42918354 0.1509897 0.373203 0.1808517 -0.3717921 -0.34110862 0.4375049 -0.7951876
0.77512705 -0.16443174 0.25928667 -0.6936961 -0.17732151 0.011045515 0.80838054 0.18508817
1.1262445 0.7814823 0.0052782902 -0.15859948 -0.013766586 -0.114363454 -0.5293304 -0.13316199
0.42296582 -0.0819475 0.30354348 -0.8584304 0.79070574 1.0095518 -0.16306187 -0.18531218
-0.28595513 0.09406564 -0.75099355 0.08497275 0.78165686 0.18240501 -0.3724112 0.07980961
0.7543864 -0.24133886 0.678617 -0.9235306 0.6415177 0.72773963 -0.22983356 0.036551293
-0.093123466 0.33997172 -0.8773753 -0.22546883 0.39948863 0.4670135 -0.3682893 -0.05630478
-0.22375537 0.74751025 -0.4895321 0.32667595 0.487422 0.8296705 0.6433483 -0.25909975
-0.04193898 0.4331143 0.6827628 0.512557 0.83904564 -0.86059415 -0.059164263 -0.2012969
0.6071653 -0.5796693 0.83936447 -0.22026306 -0.5660704 -0.46209213 0.31519452 0.18262346
0.8368698 1.1490046 -0.17768958 -0.05284107 -0.09692751 0.7475185 0.48556212 -0.289079
0.42884898 0.01251034 0.22246628 0.5053707 -0.6524107 -0.94886374 -0.70394397 0.89143264
0.44681785 -0.63958067 -0.56456274 0.56034696 -0.62156713 0.52042615 0.12909669 0.79918903
-0.13891518 1.0630485 -0.2048604 -0.33821574 0.4184177 0.35860527 0.21174991 -0.4488094
0.83318347 -0.4774367 1.0536692 -0.877343 -0.07747395 0.40049005 -0.23553875 0.53731203
-0.61392695 -0.10331719 0.35676122 0.6219572 0.48990646 0.55655587 -0.50197196 -0.33461195
-0.67681056 -0.4910493 0.4279904 -0.43914598 -0.18227638 0.88256764 0.80551934 0.034319177

conv3.bias f4 [7]
00000000: 0365 ccbe 5041 aa3e dc91 203e 561f 333f
00000010: e7dc 25be d983 a0be e0f7 35be
-0.39920816 0.33252954 0.15680641 0.6996969 -0.16197549 -0.31350592 -0.17770338

conv3.lin.weight f4 [7, 16]
00000000: 2d88 813e 3699 013f bbec 0e3f 6ea5 3fbf
00000010: 59f7 0d3f 55ac 58bf 2007 0dbf ec12 cc3e
00000020: 1280 313f 822f f63e 8690 123f 933a e53e
00000030: 6c1d ed3e 0177 74be 9324 9dbf a3a3 f9be
00000040: d762 0e3f 6e5c 3b3f 4414 35bf 0a4c 243f
00000050: 3deb 203f c3f6 a33e 20b3 1abe ffdc 8fbf
00000060: 8452 20bf 4d7d c7be d26b 82bf bb02 d03e
00000070: 2711 9dbf a227 563f 0b62 3dbd 2957 86bf
00000080: 7610 e03e a7aa 99bf 277f 48bf eb5f 333f
00000090: 1407 76bf 0891 20be 055a 08bf b3a9 89bf
000000a0: 1349 cabe 1cbc 333f 0069 423f cffb 453e
000000b0: 8b5f eabe 4096 58be d5bd a33e 21eb 293f
000000c0: e3eb 6bbf 789c 7bbf c96e 47bf 9b40 4cbf
000000d0: a068 3f3f a8ce 083e fe2e 603f ce62 3abf
000000e0: d81a 7f3f c2da 7ebf 892b 42bf fec5 0a3f
000000f0: 3a6c d13e dafa 03bf b63c b33e 7ce2 02bf
00000100: d11f 4ebf 1a07 c93e 8052 343f 099f 42bf
00000110: 4876 b4be a2ca 1bbf 4d08 643f 488e 123f
00000120: 9db4 5abf af4d afbe a0ab fabe 99e9 203f
00000130: bc58 89bf 3653 07bf 527c 403e 2750 5a3f
00000140: 9e49 44bf c30a 1bbf aa37 fa3e dcb7 113f
00000150: dc0a c6be 5c7a 833f 8fdb 44bf c6ff b23d
00000160: 4569 493f 2ff5 fa3c bed7 033f 6fdf 79bf
00000170: 03b7 f43e 82c7 4e3f 31e2 32bd 4ba8 89be
00000180: c80e f63e f481 243f 4091 343f 6bfa 323e
00000190: ad1b 79bf c326 26bf 2ef0 91bd f671 5abe
000001a0: d42c adbe 13d9 5fbf 3c32 8bbd 80ce 80bf
000001b0: 440d 383f 39f2 5d3f a0ae 98bf ed79 433f
0.25299206 0.50624406 0.5582997 -0.748618 0.5545555 -0.8463796 -0.55088997 0.39858186
0.69336045 0.4808312 0.57251775 0.4477125 0.4631151 -0.23873521 -1.2276787 -0.48757657
0.5561957 0.7318791 -0.7073405 0.64178526 0.62858945 0.32024202 -0.15107393 -1.1239318
-0.6262591 -0.38962784 -1.0189154 0.40627083 -1.227086 0.83654225 -0.04623608 -1.0495349
0.4376256 -1.2005204 -0.7831902 0.70068234 -0.9610455 -0.15680325 -0.5326236 -1.0754913
-0.39508876 0.7020891 0.7594147 0.19334339 -0.45776019 -0.21151066 0.31980768 0.66374403
-0.9215681 -0.9828563 -0.7790342 -0.7978608 0.7476902 0.13360083 0.87571704 -0.72807014
0.99650335 -0.9955255 -0.7584768 0.5420836 0.40902883 -0.51554644 0.35007256 -0.5112684
-0.805173 0.3926323 0.70438385 -0.7602392 -0.3524649 -0.6085607 0.89075166 0.57248354
-0.85431844 -0.34238955 -0.48959064 0.6285644 -1.0730205 -0.52861345 0.18797424 0.8527855
-0.7667483 -0.60563296 0.48870593 0.5692117 -0.3868016 1.0271716 -0.7689752 0.08740191
0.78676254 0.03063449 0.5150107 -0.9760656 0.47795877 0.80773175 -0.043672744 -0.2688621
0.48058152 0.6426079 0.70534134 0.1747834 -0.97307855 -0.64902896 -0.07125889 -0.21332535
-0.33823264 -0.87440604 -0.06796691 -1.0063019 0.7189524 0.8669773 -1.1928291 0.7635792
