models/SKY_Pretrained/cora_gcn_model.pth (torch, 96206 bytes, 6 tensors)

conv1.bias f4 [16]
0.14249377 0.12270917 0.18222554 0.07657912 0.12986097 0.12508097 0.15391004 0.115352154
0.20052919 0.14703965 0.13139336 0.06816646 0.13053429 0.15821114 0.108768396 0.1359153
00000000: e3e9 113e f24e fb3d 5599 3a3e 83d5 9c3d
00000010: 46fa 043e 3a15 003e 989a 1d3e c03d ec3d
00000020: 8657 4d3e 9091 163e fb8b 063e db9a 8b3d
00000030: c8aa 053e 1a02 223e f7c1 de3d 612d 0b3e

conv1.lin.weight f4 [16, 1433]
-0.046456788 0.11882189 -0.029920898 -0.10811985 0.3586556 0.084903434 -0.03469526 0.012784815
-0.006125458 -0.062242713 -0.01639711 0.034668013 0.10575846 -0.0066431374 0.11007754 0.1868809
-0.1226912 -0.042799514 -0.006754517 -0.19047968 -0.022068845 -0.15112247 -0.017055575 -0.04139957
-0.023572363 0.20415798 0.3639771 -0.030300252 0.1461597 -0.005731258 -0.01693546 0.020647304
-0.0493121 0.00035200175 0.027347744 -0.10347515 0.0011960039 -0.03582158 -0.15607643 -0.12319022
0.34039927 -0.005630698 -0.016611503 -0.026001215 -0.02816759 -0.12661399 -0.03823839 -0.19560374
0.047557168 0.028755106 -0.023488088 -0.26100442 -0.040659733 -0.073355734 0.401765 0.0033512209
-0.095300235 0.05724625 -0.14320964 0.03233144 0.17063145 -0.058386452 0.0043536536 0.096308485
0.3738648 0.20780051 -0.041729033 -0.10627363 -0.0076600737 -0.05842633 0.016806494 0.021297852
0.028477337 -0.10783309 -0.17536734 0.0075034867 -0.05959891 -0.038367085 0.2499187 0.05773185
0.023122031 -0.22706783 0.120115295 -0.043562114 0.035274018 -0.04128963 0.06815571 -0.052432954
-0.0431514 0.15929714 -0.03724537 0.036246035 -0.1085886 0.25321054 -0.02730804 -0.0066853925
-0.034242686 0.18472464 -0.13911124 -0.15271822 -0.015711518 0.0016926406 -0.010405125 -0.06344412
-0.1529633 -0.04931218 -0.068996 -0.09040522 -0.062279563 0.0079316115 -0.03356663 0.15728447
0.18033898 -0.057493936 -0.034196626 -0.03760118 -0.031428672 -0.028124915 0.08016256 0.1507013
-0.15590018 0.0032732387 0.12581713 0.023091286 -0.057170793 0.019773215 -0.07638652 0.008537259
0.031125583 0.037972845 0.07875911 -0.16577353 -0.113005206 0.0036583352 -0.006822452 -0.23581345
0.036524884 -0.1191428 -0.031187702 -0.032625105 -0.17654979 -0.092849925 -0.026327267 0.008599771
-0.046990413 0.013186017 -0.042144876 0.08349901 -0.035367735 0.065692954 0.060379837 0.14060463
0.08044798 -0.109118186 -0.002588559 -0.16911347 0.16794355 -0.06992552 -0.021114465 -0.021321172
-0.02044799 0.04646504 -0.01782408 -0.008917819 0.06547634 0.03277878 0.029197302 0.06332307
-0.16415305 -0.035016626 0.05818391 0.023772972 -0.07893226 0.018038481 -0.009142289 -0.007698832
-0.054097112 0.114627495 0.023423173 -0.080614544 0.09057852 -0.025692627 -0.012250155 0.016344676
0.074964955 0.052110888 0.022000743 0.1937861 -0.032790773 0.08056203 -0.030231087 0.055486225
-0.032443 -0.18753241 -0.058386873 0.017213771 0.031543046 0.028585782 0.020792913 0.020165041
-0.008872536 0.024233315 0.029991727 -0.05451327 0.016961155 0.023032958 -0.0524544 -0.14472327
0.04038008 0.0015131794 0.050128344 0.17863964 0.046263654 -0.054693077 -0.028431479 -0.06320899
-0.012440559 0.03950685 -0.09254175 -0.073793516 -0.11205694 -0.08270158 0.058951396 -0.0002524143
-0.020757942 -0.00015072699 0.18095234 -0.06093538 -0.077375785 -0.0038836158 -0.026903745 -0.05985642
-0.032336485 0.045723755 0.31115776 -0.08495435 0.10985661 -0.09432862 -0.11714767 0.044340223
-0.14484991 -0.07277317 0.0011808212 0.044034667 0.073405564 0.04122649 -0.08185519 0.18337494
0.02741326 -0.043727025 -0.006303598 0.046402384 0.036481682 -0.060293645 0.011928358 -0.0013214392
00000000: 7949 3ebd e458 f33d ac1c f5bc f16d ddbd
00000010: b5a1 b73e dae1 ad3d 9e1c 0ebd 6777 513c
00000020: 11b8 c8bb 37f2 7ebd 3b53 86bc 0c00 0e3d
00000030: e497 d83d adae d9bb 5570 e13d b55d 3f3e
00000040: 8645 fbbd 8b4e 2fbd ff54 ddbb 1b0d 43be
00000050: b9c9 b4bc d9bf 1abe 22b8 8bbc 9892 29bd
00000060: d41a c1bc ca0e 513e 355b ba3e 3c38 f8bc
00000070: e3aa 153e 47cd bbbb 3cbc 8abc 8924 a93c
00000080: 7cfb 49bd e08c b839 6008 e03c c8ea d3bd
00000090: 3bc3 9c3a a6b9 12bd 80d2 1fbe 274b fcbd
000000a0: d048 ae3e b881 b8bb d914 88bc 8000 d5bc
000000b0: b8bf e6bc 19a7 01be dc9f 1cbd 594c 48be
000000c0: 4ecb 423d d48f eb3c 176a c0bc 5fa2 85be
000000d0: d28a 26bd 883b 96bd 24b4 cd3e 28a0 5b3b
000000e0: c52c c3bd 0b7b 6a3d 8ca5 12be f96d 043d
000000f0: 03ba 2e3e a226 6fbd 18a9 8e3b 623d c53d
00000100: 356b bf3e a8c9 543e 10ec 2abd fda5 d9bd
00000110: 5b01 fbbb 7350 6fbd c6ad 893c d578 ae3c
00000120: 4e49 e93c 98d7 dcbd 7f93 33be cfdf f53b
00000130: fd1d 74bd ce26 1dbd b0ea 7f3e 3b78 6c3d
00000140: 6a6a bd3c 7884 68be 02ff f53d 306e 32bd
00000150: 7d7b 103d 511f 29bd 3995 8b3d f0c3 56bd
00000160: 86bf 30bd ca1e 233e 9a8e 18bd b976 143d
00000170: b363 debd d0a4 813e 1cb5 dfbc 2311 dbbb
00000180: 0f42 0cbd 7528 3d3e 2d73 0ebe 2a62 1cbe
00000190: 71b5 80bc 98db dd3a 427a 2abc feee 81bd
000001a0: 69a2 1cbe 92fb 49bd c64d 8dbd 5f26 b9bd
000001b0: db18 7fbd 97f3 013c 2a7d 09bd 2e0f 213e
000001c0: c8aa 383e c37e 6bbd c311 0cbd b203 1abd
000001d0: 5abb 00bd 3966 e6bc 452c a43d 7151 1a3e
000001e0: 4ca4 1fbe d583 563b 35d6 003e f029 bd3c
000001f0: ec2b 6abd 70fb a13c 8970 9cbd dcdf 0b3c
00000200: 14fb fe3c 6a89 1b3d 754c a13d 89c0 29be
00000210: 466f e7bd aec0 6f3b e08e dfbb 1579 71be
00000220: 1e9b 153d 2401 f4bd 5a7d ffbc e7a1 05bd
00000230: 78c9 34be 1a28 bebd 48ac d7bc 0ee6 0c3c
00000240: 0579 40bd 2a0a 583c 1ba0 2cbd 8701 ab3d
00000250: c2dd 10bd 078a 863d d950 773d a9fa 0f3e
00000260: e9c1 a43d 5b79 dfbd d0a4 29bb 152c 2dbe
00000270: 65f9 2b3e 1c35 8fbd 3ef8 acbc bda9 aebc
00000280: 8b82 a7bc 2052 3e3d ce03 92bc 0b1c 12bc
00000290: 7618 863d 0b43 063d 2e2f ef3c 87af 813d
000002a0: bd17 28be 986d 0fbd 4052 6e3d 89bf c23c
000002b0: 3da7 a1bd 70c5 933c 8ac9 15bc 7c46 fcbb
000002c0: ef94 5dbd d2c1 ea3d f4e1 bf3c 3d19 a5bd
000002d0: 3b81 b93d 5879 d2bc e0b4 48bc 45e5 853c
000002e0: 3a87 993d 3a72 553d e73a b43c dd6f 463e
000002f0: 9e4f 06bd b5fd a43d 2fa7 f7bc 8645 633d
00000300: f3e2 04bd 7f08 40be 1327 6fbd e503 8d3c
00000310: 4833 013d bb2c ea3c e655 aa3c 2831 a53c
00000320: 1d5e 11bc f284 c63c 36b1 f53c 4e49 5fbd
00000330: 1ff2 8a3c 9daf bc3c 6dda 56bd 5632 14be
00000340: 9565 253d e055 c63a 6153 4d3d 4fed 363e
00000350: f57e 3d3d d905 60bd 22e9 e8bc b773 81bd
00000360: 7dd3 4bbc efd1 213d 8786 bdbd 0e21 97bd
00000370: 1c7e e5bd 725f a9bd 0577 713d 7956 84b9
00000380: 8f0c aabc 780c 1eb9 924b 393e 6197 79bd
00000390: 3277 9ebd 4384 7ebb 3e65 dcbc 012c 75bd
000003a0: 4373 04bd d548 3b3d 1250 9f3e 8cfc adbd
000003b0: 81fc e03d 5d2f c1bd 1eeb efbd 189e 353d
000003c0: 8953 14be 1a0a 95bd c9c5 9a3a b25d 343d
000003d0: a855 963d 1cdd 283d b2a3 a7bd a4c6 3b3e
000003e0: c691 e03c 1c1b 33bd 6a8e cebb 6d10 3e3d
000003f0: d16d 153d 78f6 76bd 296f 433c 2434 adba

conv2.bias f4 [16]
0.10121485 0.17514324 0.0788453 0.18177359 0.16700985 0.12956394 0.32588568 -0.015198501
0.06208268 0.023165004 0.05071774 0.28017843 0.18594413 0.08446401 0.30219355 0.13334513
00000000: bb49 cf3d c058 333e a579 a13d db22 3a3e
00000010: a104 2b3e 69ac 043e 7dda a63e 2203 79bc
00000020: 694a 7e3d 89c4 bd3c 68bd 4f3d 8c73 8f3e
00000030: 2368 3e3e 78fb ac3d 1db9 9a3e a08b 083e

conv2.lin.weight f4 [16, 16]
-0.4080989 0.04626863 0.510234 0.23310487 -0.51054907 0.03904749 -0.46932656 -0.015965331
-0.7236148 0.15651064 -0.7604139 0.78237265 1.2484441 0.1652976 0.28555638 0.479306
-0.10120802 0.16242892 0.08546242 0.9178971 -0.055082634 -0.03200815 -0.24509208 0.51105154
-0.86295897 -0.035216533 -0.16060434 0.9510129 0.031715795 -0.2501038 0.6999199 -0.21163288
0.8063325 -0.48147815 0.6612719 0.59949535 1.0119305 0.2877376 -0.11575135 0.681484
-0.09431551 0.0007531779 -0.032853525 0.12967925 -0.58562297 -0.12544347 1.0651467 -0.7843204
0.087684266 0.45678723 0.47101596 0.077244006 -0.080261506 -0.059381958 -0.85314316 0.34947604
0.13855377 -0.9080316 -0.72200775 -0.09916002 0.052892067 0.8213938 -0.48940146 0.95260763
0.4555621 0.5770322 -0.6508951 -0.19990346 -0.48467764 -0.2720784 0.674679 0.37648183
0.19396187 0.97569215 0.13523053 0.72657603 0.52288526 -0.71314526 -0.3677835 -0.061576564
0.5836858 0.5085304 -0.11343745 -0.23240954 0.21639091 -0.30712414 -0.20481004 0.4437033
0.8714284 -0.6150077 -0.32444593 -0.10583116 -0.5597862 -0.05486119 -0.6256603 0.8958611
-0.58316296 0.70510745 -0.731786 0.47455287 0.128967 0.19532709 0.48430404 -0.43853927
0.5665434 0.285762 0.81463754 -0.44438288 -0.43058455 -0.5328353 0.4798533 -0.14295234
0.8417572 -0.36882105 0.19764543 0.2934612 1.2343085 0.5128271 -0.20231138 0.7796671
-0.31419843 0.2654002 0.28154168 0.08561519 -0.46784383 -0.13007826 0.7246824 -0.74235064
0.7469184 -0.22461015 0.24103884 -0.7265628 -0.14706682 0.034988448 0.96255726 0.15949766
1.1032362 0.74966174 0.0755786 -0.098694436 0.0060785757 -0.15833835 -0.46519715 -0.09367671
0.36556837 -0.3521437 0.17184308 -0.6764173 0.8212094 1.02237 -0.21407065 -0.13052095
-0.24372162 0.103427455 -0.624656 0.15271492 0.81786203 0.045262374 -0.21704973 0.30290884
0.6961134 -0.47479072 0.5511513 -0.94478536 0.630971 0.6873106 -0.21549657 -0.0017404163
-0.09594282 0.3204922 -0.7936882 -0.07850935 0.6134334 0.22941905 -0.3289146 0.096731536
-0.2641392 0.7893821 -0.46277612 0.317898 0.4585795 0.85674995 0.5774906 -0.33239332
-0.21594965 0.51041675 0.6865901 0.5936489 0.8314618 -0.8198327 -0.04809494 0.05764441
0.50538665 -0.58068955 0.89674455 -0.23889327 -0.51218045 -0.32435796 0.3715601 0.109845296
0.58334756 1.0326914 -0.19019547 -0.14603832 0.03813841 0.828148 0.5163388 -0.34418255
0.5865 0.18352763 0.17960356 0.5506366 -0.5403262 -0.93257654 -0.5191671 0.87185764
0.5718211 -0.8219325 -0.6369858 0.56091714 -0.80542517 0.5155818 0.058490474 0.4544407
-0.25243407 0.7937264 -0.08636594 -0.41687584 0.43172288 0.42569894 0.2444773 -0.58043915
0.86119735 -0.31486252 1.2004354 -1.0340699 -0.051558867 0.49210465 -0.24146655 0.659825
-0.64865386 -0.15143368 0.29209352 0.5854349 0.33540207 0.5655365 -0.55751145 -0.38970578
-0.6333308 -0.5832576 0.503891 -0.53438187 -0.050610937 0.85422534 0.670055 0.0120348055
00000000: 57f2 d0be 2d84 3d3d b29e 023f 0bb3 6e3e
00000010: 58b3 02bf 43f0 1f3d 924b f0be bac9 82bc
00000020: d23e 39bf 5344 203e 7caa 42bf 9349 483f
00000030: 04cd 9f3f c643 293e 7234 923e 9967 f53e
00000040: 2646 cfbd c453 263e ec06 af3d 4efb 6a3f
00000050: 549e 61bd fa1a 03bd 6bf9 7abe 46d4 023f
00000060: e1ea 5cbf 363f 10bd 7775 24be 9575 733f
00000070: 6ce8 013d 9b0d 80be f32d 333f 4ab6 58be
00000080: cf6b 4e3f 4e84 f6be 1e49 293f 8778 193f
00000090: f086 813f 5852 933e 0b0f edbd bc75 2e3f
000000a0: 7d28 c1bd ea70 453a 6b91 06bd a3ca 043e
000000b0: 63eb 15bf 4174 00be ba56 883f 39c9 48bf
000000c0: cf93 b33d 04e0 e93e 0129 f13e 1b32 9e3d
000000d0: 2560 a4bd 7f3a 73bd 9767 5abf 86ee b23e
000000e0: 0ae1 0d3e c274 68bf 80d5 38bf 6914 cbbd
000000f0: 5aa5 583d dd46 523f d492 fabe 18de 733f
00000100: 703f e93e 62b8 133f 10a1 26bf 7eb3 4cbe
00000110: ab27 f8be dc4d 8bbe c3b7 2c3f 3ac2 c03e
00000120: f19d 463e f6c6 793f df79 0a3e e300 3a3f
00000130: cfdb 053f b090 36bf 1e4e bcbe b537 7cbd
00000140: 6f6c 153f 0c2f 023f e551 e8bd c4fc 6dbe
00000150: 9495 5d3e 603f 9dbe b9b9 51be 142d e33e
00000160: ee15 5f3f 2571 1dbf c71d a6be 02be d8bd
00000170: 264e 0fbf 21b6 60bd 462b 20bf 2757 653f
00000180: 2b4a 15bf ec81 343f 5456 3bbf 98f8 f23e
00000190: ed0f 043e d303 483e b3f6 f73e 3888 e0be
000001a0: fd08 113f 664f 923e 168c 503f 2786 e3be
000001b0: 9475 dcbe e567 08bf 55af f53e 1962 12be
000001c0: 667d 573f 1dd6 bcbe 9063 4a3e 8c40 963e
000001d0: d2fd 9d3f a348 033f b72a 4fbe 4398 473f
000001e0: 9ede a0be 89e2 873e 3b26 903e 0457 af3d
000001f0: 3a89 efbe 3c33 05be c984 393f b10a 3ebf
00000200: 0b36 3f3f 3400 66be e3d2 763e 0500 3abf
00000210: af98 16be 0c50 0f3d 276a 763f 5b53 233e
00000220: d836 8d3f d5e9 3f3f f4c8 9a3d 4f20 cabd
00000230: ca2e c73b 7323 22be 522e eebe 93d9 bfbd
00000240: c72b bb3e 2e4c b4be a2f7 2f3e af29 2dbf
00000250: c73a 523f 05dd 823f 5635 5bbe 49a7 05be
00000260: 2992 79be c6d1 d33d 75e9 1fbf 4d61 1c3e
00000270: 685f 513f 0a65 393d 4942 5ebe de16 9b3e
00000280: 7d34 323f c517 f3be 4018 0d3f 74dd 71bf
00000290: 5187 213f 96f3 2f3f 22ab 5cbe ae1e e4ba
000002a0: ab7d c4bd 8e17 a43e 262f 4bbf 83c9 a0bd
000002b0: f909 1d3f d4ec 6a3e 7f67 a8be 2f1b c63d
000002c0: 413d 87be f214 4a3f fef0 ecbe 87c3 a23e
000002d0: efca ea3e f753 5b3f 6dd6 133f 752f aabe
000002e0: e821 5dbe acaa 023f 5ec4 2f3f 60f9 173f
000002f0: aeda 543f 8ee0 51bf 33ff 44bd 8b1c 6c3d
00000300: 0561 013f 12a8 14bf 0d91 653f 70a0 74be
00000310: 421e 03bf 3f12 a6be 203d be3e 92f6 e03d
00000320: 4456 153f 3b2f 843f 9ac2 42be 128b 15be
00000330: 0537 1c3d 8201 543f c82e 043f b238 b0be
00000340: dd24 163f abee 3b3e ffe9 373e 85f6 0c3f
00000350: d152 0abf 56bd 6ebf 23e8 04bf 1032 5f3f
00000360: de62 123f 2b6a 52bf 8011 23bf 4498 0f3f
00000370: 5830 4ebf 2bfd 033f b593 6f3d 74ac e83e
00000380: 0a3f 81be a731 4b3f a0e0 b0bd c070 d5be
00000390: c80a dd3e 36f5 d93e 4258 7a3e a997 14bf
000003a0: 6e77 5c3f a935 a1be dea7 993f 675c 84bf
000003b0: 642f 53bd 24f5 fb3e 0243 77be 4bea 283f
000003c0: 2e0e 26bf 6e11 1bbe 488d 953e 10df 153f
000003d0: d2b9 ab3e 00c7 103f 12b9 0ebf 8487 c7be
000003e0: f821 22bf 5f50 15bf 00ff 003f 40cd 08bf
000003f0: 6a4d 4fbd 83ae 5a3f b988 2b3f a22d 453c

conv3.bias f4 [7]
-0.39440295 0.3357331 0.18316811 0.72246855 -0.25488788 -0.29804936 -0.1686991
00000000: 2fef c9be 35e5 ab3e 6c90 3b3e b3f3 383f
00000010: aa80 82be ed99 98be 75bf 2cbe

conv3.lin.weight f4 [7, 16]
0.35462964 0.5388549 0.6003564 -0.8348821 0.58819765 -0.9822001 -0.4889476 0.29494166
0.64671105 0.4765293 0.63279516 0.4511156 0.4207501 -0.25495872 -1.2171035 -0.51259154
0.5557261 0.70066017 -0.6374477 0.67195666 0.64928174 0.6522485 -0.0005766996 -1.1642346
-0.5476126 -0.3379755 -0.9178992 0.41061673 -1.2687724 0.8314452 -0.23279792 -0.8846586
0.537872 -1.135653 -0.77820396 0.6894242 -1.0006624 0.02248513 -0.87424344 -1.0518377
-0.23706597 0.6369652 0.7380634 0.16432215 -0.056287337 -0.26428592 0.3348697 0.76293784
-0.9156599 -1.0553373 -0.7810413 -0.8133425 0.7987541 -0.10839567 0.8918339 -0.8107912
1.0069788 -0.9397458 -0.5952553 0.5603986 0.34268057 -0.50415283 0.45086908 -0.4122547
-0.868788 0.45080978 0.7092177 -0.7722842 -0.39427742 -0.7176024 0.89467764 0.4772545
-0.8957017 -0.12833689 -0.49072438 0.63749456 -1.026825 -0.49638057 0.3221653 0.8259861
-0.8853607 -0.5766857 0.56100106 0.5301077 -0.28079352 0.9343129 -0.7866935 0.13068925
0.8535635 0.0694209 0.5061967 -0.96189857 0.47377208 0.83159715 -0.058133055 -0.343592
0.45061266 0.67909104 0.7072496 0.26436248 -0.949871 -0.7866361 -0.37525547 0.13959378
-0.31676647 -0.99411815 -0.2768576 -1.0233349 0.7044772 0.8246749 -1.0680575 0.697238
00000000: 0492 b53e 65f2 093f f5b0 193f d5ba 55bf
00000010: 1f94 163f 7771 7bbf 5757 fabe 9802 973e
00000020: db8e 253f a6fb f33e ddfe 213f a0f8 e63e
00000030: 8f6c d73e f389 82be 0cca 9bbf 3339 03bf
00000040: 1144 0e3f 775e 333f c62f 23bf 5a05 2c3f
00000050: 5437 263f c2f9 263f a82d 17ba a405 95bf
00000060: 5730 0cbf 200b adbe 71fb 6abf 5b3c d23e
00000070: 2267 a2bf 98d9 543f 9462 6ebe fc78 62bf
00000080: fbb1 093f 145d 91bf 6038 47bf 1b7e 303f
00000090: b515 80bf bc32 b83c 6bce 5fbf 9ea2 86bf
000000a0: 6cc1 72be 2710 233f b9f1 3c3f 1144 283e
000000b0: 8d8d 66bd 7c50 87be 0b74 ab3e e54f 433f
000000c0: b068 6abf 4b15 87bf 53f2 47bf 3737 50bf
000000d0: 267b 4c3f 8dfe ddbd 3a4f 643f 0390 4fbf
000000e0: aee4 803f 2e93 70bf a762 18bf 4876 0f3f
000000f0: d473 af3e 2910 01bf 50d8 e63e 0c13 d3be
00000100: e468 5ebf 8ad0 e63e 4b8f 353f 6bb4 45bf
00000110: bbde c9be cab4 37bf 9809 653f b45a f43e
00000120: b54c 65bf bf6a 03be 3a40 fbbe d832 233f
00000130: 006f 83bf 9825 febe daf2 a43e d373 533f
00000140: 00a7 62bf ada1 13bf c49d 0f3f 23b5 073f
00000150: 2bc4 8fbe 212f 6f3f bf64 49bf 67d3 053e
00000160: 2383 5a3f 8b2c 8e3d 1b96 013f fc3e 76bf
00000170: 4192 f23e 8de3 543f ed1c 6ebd 4aeb afbe
00000180: b4b6 e63e e9d8 2d3f 4f0e 353f 855a 873e
00000190: bf2a 73bf fc60 49bf 7c21 c0be acf1 0e3e
000001a0: 372f a2be 877e 7ebf 48c0 8dbe a3fc 82bf
000001b0: 9e58 343f e51d 533f 1cb6 88bf 317e 323f
