models/SKY_Pretrained/cora_gin_model.pth (torch, 108978 bytes, 26 tensors)

conv1.nn.0.weight f4 [16, 1433]
0	0xbd378629	-0.04480568
1	0x3d557ebb	0.052122813
2	0xbcd509e8	-0.0260057
3	0x3e1db04c	0.15399283
4	0xbd1d6516	-0.03842648
5	0xbc5ad343	-0.013356033
6	0x3dc062ab	0.093938194
7	0xbc7567e7	-0.0149783855
8	0xbc9af3ee	-0.018915143
9	0xbbccf3bc	-0.0062546413
10	0x3c4681ff	0.012115954
11	0x38f56e2b	0.00011703031
12	0x3dc83d19	0.097772785
13	0x3c6bf900	0.014402628
14	0xbcaf28b3	-0.021381712
15	0x3cafa5b7	0.021441324
16	0xbc9c7a52	-0.019101296
17	0xbcb62091	-0.022232326
18	0x3d1f678a	0.038917102
19	0xbdad1898	-0.084519565
20	0xbb2e4cde	-0.002659611
21	0x3d926e97	0.071499996
22	0x3e033328	0.12812483
23	0x3d96dd3b	0.07366415
24	0xbc2735c4	-0.01020569
25	0xbd9788d0	-0.07399142
26	0x3ca87773	0.02056477
27	0x3e028c6e	0.12748882
28	0xbd9881da	-0.07446642
29	0x3c6319e9	0.013861158
30	0x3d64b1f9	0.05583379
31	0x3db4c6b9	0.08826966
32	0x3d86dad1	0.06584705
33	0xbd724782	-0.059150226
34	0x3d5602b6	0.05224868
35	0x3d15f3b0	0.03660935
36	0xbc5b5791	-0.013387577
37	0xbd78d264	-0.06074752
38	0xbca00fc4	-0.019538768
39	0xbc25ccc6	-0.010119623
40	0xbd43df7c	-0.047820553
41	0x3dcdcac1	0.10048438
42	0x3c941233	0.018075084
43	0xbc6a97d1	-0.014318422
44	0xbca166f6	-0.019702416
45	0xbcb690d5	-0.022285858
46	0x3da049b2	0.07826556
47	0xba682bd7	-0.00088566303
48	0x3d95bacc	0.07311019
49	0x3cd533fd	0.026025767
50	0x3d7ed883	0.0622182
51	0xbd5a4ab4	-0.0532939
52	0x3e2619d6	0.16220793
53	0x3c1fe9c0	0.00976032
54	0xbdab5203	-0.08365252
55	0x3d7cfdde	0.061765544
56	0xbdc9046e	-0.09815298
57	0xbd907a9e	-0.07054637
58	0xbd457194	-0.04820402
59	0xbd937d17	-0.07201593
60	0x3c57d033	0.013172197
61	0xbd9197f5	-0.07109062
62	0xbcdcb9fb	-0.026944151
63	0x3de90830	0.11378515
64	0xbe4856b3	-0.19564323
65	0x3dfd73bb	0.123755895
66	0x3d8fc6a5	0.0702031
67	0x3cbc86f3	0.023013568
68	0x3bdf2ad1	0.006810524
69	0xbd0da8fa	-0.034584977
70	0xbd38107a	-0.04493759
71	0xbc31b3b3	-0.010846066
72	0x3ca9265c	0.020648174
73	0xbd6aaade	-0.057291858
74	0x3d3b6569	0.04575101
75	0xbd73faa3	-0.059565198
76	0x3db039e2	0.0860479
77	0x3c3e7972	0.0116256345
78	0x3d0eb2c2	0.034838445
79	0x3c89d7e9	0.016826587
80	0x39ebfb8a	0.00045010104
81	0xbc830e42	-0.01599801
82	0x3c98db6c	0.018659316
83	0x3dba6210	0.09100735
84	0x3dc40f7f	0.09573268
85	0xbd820594	-0.0634872
86	0x3bf47f3a	0.0074614557
87	0xbd6ac8e7	-0.0573205
88	0x3ccc4fb4	0.02494035
89	0xbc7b85fa	-0.015351767
90	0x3d80152e	0.0625404
91	0x3d5ddeee	0.05416768
92	0x3eb6c79f	0.35699174
93	0x3d259270	0.040422857
94	0xbd8c83ef	-0.06861102
95	0x3c1d078d	0.00958432
96	0x3ad47ac0	0.0016210899
97	0xbd5623e0	-0.052280307
98	0xbce83539	-0.028345691
99	0xba4e0607	-0.00078591745
100	0x3c0b5861	0.008504958
101	0x3bde8653	0.006790915
102	0xbcddfd8b	-0.027098438
103	0xbd8cd949	-0.06877381
104	0x3d3b364d	0.045706082
105	0x3cdc0c28	0.026861265
106	0xbe283723	-0.16427283
107	0x3c0f396d	0.008741719
108	0x3db21ee3	0.086972974
109	0x3bfc6cf1	0.0077034165
110	0x3e31e097	0.1737083
111	0xbc9d2d3b	-0.019186607
112	0x3d10e2d2	0.035372563
113	0x3ca47e11	0.020079644
114	0xbd8bca47	-0.06825691
115	0x3d228dc4	0.03968598
116	0x3dd682e1	0.10474182
117	0x3c54f546	0.012997931
118	0x3da2779c	0.0793297
119	0xbcac6a37	-0.021046741
120	0xbd3ceff9	-0.046127293
121	0xbb86153f	-0.004091888
122	0x3d76dc9e	0.06026899
123	0xbc995c4e	-0.018720772
124	0xbda86d4c	-0.08223972
125	0xbd8d0e37	-0.06887477
126	0x3dcbb190	0.09945977
127	0xbe133ca5	-0.14378603
128	0xbd2f0ad8	-0.04273495
129	0xbd933c96	-0.0718929
130	0xbe132406	-0.1436921
131	0x3e6ee9e9	0.23331417
132	0xbdd6137c	-0.10452935
133	0xbd803a21	-0.06261087
134	0x3d4d5945	0.050133962
135	0xbdae8813	-0.08522048
136	0xbdd18395	-0.102301754
137	0x3df01ee2	0.117246404
138	0x3d7cf106	0.061753295
139	0x3d568656	0.052374206
140	0x3da85e04	0.08221057
141	0xbd147da0	-0.036252618
142	0x3d8267b4	0.06367436
143	0x3cb22c48	0.02174963
144	0xbd48371b	-0.048880678
145	0xbd4feec3	-0.05076481
146	0x3d86635f	0.06561922
147	0x3d9ebaaa	0.07750447
148	0x3d0b3d55	0.033994038
149	0xbb5519aa	-0.0032516518
150	0xba395bb6	-0.0007070856
151	0xbd98b41e	-0.074562296
152	0xbdf4fed0	-0.11962664
153	0xbd91cbfb	-0.07118984
154	0xbd2ace98	-0.04170093
155	0xbd9e3e98	-0.077267826
156	0xbddee3e1	-0.10883308
157	0x3d79b83f	0.060966726
158	0xbd756992	-0.059915133
159	0xbd5f6ba3	-0.05454601
160	0xbd0ba714	-0.034094885
161	0x3be34837	0.006936099
162	0x3cf2b811	0.029628785
163	0xbd310a24	-0.04322256
164	0xbcefc1e4	-0.029267259
165	0xbdfa4252	-0.12219681
166	0xbd177fde	-0.036987178
167	0x3c90a80f	0.017658262
168	0xbde24fe3	-0.110503934
169	0x3d26bd36	0.04070779
170	0x3c5910ed	0.013248664
171	0xbd116655	-0.035497982
172	0xbc147b8a	-0.009062657
173	0xbd8ac46b	-0.06775745
174	0x3d612e22	0.054975636
175	0xbc1be0ee	-0.009514077
176	0xbc970a94	-0.018437661
177	0xbe5d9bd5	-0.21641476
178	0xbd018eb7	-0.031630244
179	0xbd3a6da3	-0.045514714
180	0x3d1bd68c	0.038046405
181	0x3cf9bbad	0.030484999
182	0xbd2bdbf8	-0.041957825
183	0x3c09022a	0.008362332
184	0x3d604887	0.054756667
185	0xbd157583	-0.03648902
186	0xbdb6742a	-0.08908875
187	0xbe15e7a1	-0.1463914
188	0x3bea936b	0.007158687
189	0xbd2f7d04	-0.042843834
190	0x3d270169	0.04077283
191	0x3b89e3cb	0.0042080632
192	0x3daa477b	0.08314415
193	0x3d03f281	0.03221369
194	0xbcceb38a	-0.025232095
195	0x3ce6d4e1	0.02817768
196	0xbdec5158	-0.115389526
197	0x3dbc73d3	0.09201779
198	0x3d4f5fd8	0.050628513
199	0x3d62af68	0.05534306
200	0x3d852a1c	0.06502172
201	0x3bff41dd	0.007789834
202	0xbd9d01be	-0.07666348
203	0x3cdbbae5	0.026822517
204	0xbc8e0338	-0.01733552
205	0x3dc4fc12	0.09618391
206	0xbbbcb598	-0.0057589523
207	0xbcf92d6d	-0.030417169
208	0xbe365368	-0.17805254
209	0x3c0de15e	0.008659689
210	0xbdadc049	-0.08483941
211	0xbdabf1d2	-0.08395733
212	0x3d06e508	0.032933265
213	0x3dac644f	0.0841757
214	0x3e5e42fd	0.21705242
215	0xbd96369c	-0.07334635
216	0x3c172f07	0.009227521
217	0x3cbec792	0.023288522
218	0x3d1b3b9d	0.03789865
219	0xbd4a2243	-0.04934908
220	0xbd983c23	-0.07433345
221	0x3e0eae0a	0.13933578
222	0xbd2efc7c	-0.042721257
223	0xbc4bd395	-0.012440582
224	0x3dab4d00	0.08364296
225	0x3dddaddd	0.108241774
226	0xbd15de21	-0.03658879
227	0x3e47a7c4	0.19497591
228	0xbd3c4c00	-0.045970917
229	0x3c61a526	0.013772285
230	0xbdb3dd2e	-0.08782421
231	0x3e23c76a	0.15994039
232	0x3e009d1e	0.12559935
233	0xbc39358e	-0.011304272
234	0xbdbc4480	-0.09192753
235	0xbd028ba8	-0.031871468
236	0xbcbd2cb7	-0.02309261
237	0x3e00778d	0.12545605
238	0xbcd6590e	-0.026165511
239	0x3cc6b0e2	0.024254266
240	0xbd3c9436	-0.046039782
241	0xbc4598b8	-0.012060337
242	0xbbc55f53	-0.0060233264
243	0xbe0dd48c	-0.13850611
244	0xbd8e73f6	-0.069557115
245	0x3dca1768	0.09867746
246	0x3bd01428	0.006350059
247	0x3d7ba0d9	0.061432693
248	0xbc6ad62b	-0.014333288
249	0xbcd469a9	-0.025929289
250	0xbc9875e5	-0.018610904
251	0x3de894ae	0.113564834
252	0x3de24995	0.11049191
253	0x3d8661de	0.065616354
254	0x3dc46109	0.095888205
255	0xbcca97b2	-0.024730537

conv1.nn.0.bias f4 [16]
0	0x3daf065b	0.08546134
1	0xbb54bbcc	-0.0032460568
2	0x3cbecaf2	0.023290131
3	0x3d83fba6	0.064444825
4	0x3e09173e	0.13387772
5	0x3defa300	0.11701012
6	0xbc9a128d	-0.018807674
7	0x3dba6261	0.091007955
8	0xbd3a2d94	-0.045453623
9	0x3d63eac1	0.0556438
10	0xbdff6ba7	-0.12471705
11	0x3e9b3afc	0.3031844
12	0xbda13e43	-0.078732036
13	0x3cf84a62	0.030308906
14	0x3e22a300	0.15882492
15	0xbd9bf6de	-0.076154456

conv1.nn.2.weight f4 [16, 16]
0	0x3c6dba41	0.014509738
1	0x3e2372cb	0.15961759
2	0x3dbdbf82	0.09265043
3	0xbe233c91	-0.15941073
4	0xbe8221dd	-0.2541646
5	0xbd76e60c	-0.060277984
6	0xbe9beaa3	-0.3045245
7	0x3dce3651	0.10068954
8	0x390a47ac	0.00013187405
9	0xbdda7be4	-0.106681615
10	0xbdfb5808	-0.1227265
11	0xbd77124e	-0.06032019
12	0xbc3cead6	-0.011530599
13	0x3dfb78da	0.1227891
14	0xbe069e5e	-0.1314635
15	0x3d1e427e	0.03863763
16	0x3e02abb6	0.12760815
17	0x3e989fd3	0.29809436
18	0xbec488fe	-0.38385767
19	0x3d8d9cb1	0.06914652
20	0x3cd509c8	0.02600564
21	0x3ae4b500	0.0017448962
22	0x3ded85b6	0.11597769
23	0x3db9b945	0.090685405
24	0xbd71d3d0	-0.05903989
25	0x3e8537ad	0.2601904
26	0xbda59bfc	-0.08086392
27	0x3d114c7d	0.035473336
28	0x3dd49925	0.103807725
29	0x3c8f7b4d	0.01751485
30	0xbce47bc8	-0.027891055
31	0xbe0e0e01	-0.1387253
32	0x3e0fec54	0.14054996
33	0xbd820443	-0.06348469
34	0xbdd76c30	-0.10518682
35	0xbcc6bbf9	-0.024259554
36	0xbcad6e8c	-0.021170877
37	0xbdb5097d	-0.088397
38	0x3c7005cc	0.01464982
39	0x3daffb97	0.08592909
40	0x3e2623e8	0.16224635
41	0xbd188ada	-0.037241794
42	0xbe8283ad	-0.25491086
43	0xbde3b3e1	-0.111182936
44	0xbdf25fec	-0.11834702
45	0xbe626c67	-0.22111665
46	0xbe4982e6	-0.1967884
47	0x3ca47dee	0.02007958
48	0xbd0490c9	-0.03236464
49	0x3e76f6e3	0.24117617
50	0xbe113164	-0.14178997
51	0xbd6dd8b3	-0.05806799
52	0xbd814485	-0.06311897
53	0x3cb28de7	0.02179618
54	0xbcd3e966	-0.025868129
55	0xbdf27b24	-0.118398935
56	0x3dfcdc8a	0.12346752
57	0x3e59fbc7	0.21287452
58	0xbd389d07	-0.045071628
59	0xbe489764	-0.19589001
60	0xbe23cd52	-0.15996292
61	0xbc0dda2b	-0.008657972
62	0x3e59c386	0.21265993
63	0x3ca3e16b	0.020004949
64	0x3de85f9f	0.11346363
65	0x3de23fcc	0.110473245
66	0x3e41bb09	0.18919004
67	0xbe584d2e	-0.21123192
68	0x3e54a78e	0.20767042
69	0x3d225e5e	0.039640777
70	0xbcb47eeb	-0.022033175
71	0x3eb979df	0.36225793
72	0x3cf4c40d	0.02987864
73	0x3d7f0cbf	0.062268015
74	0x3eb9c3cf	0.36282203
75	0xbe67a8d4	-0.22622997
76	0xbdca8779	-0.098891206
77	0x3e3c313c	0.18378156
78	0xbd630d4d	-0.055432606
79	0xbdb9bd92	-0.09069361
80	0xbc92555b	-0.017862966
81	0xbe54aaa7	-0.20768224
82	0x3df69bad	0.120414115
83	0xbafb6ff6	-0.0019183147
84	0xbe5721e8	-0.21009028
85	0x3d0fea6f	0.035135683
86	0x3e0d315d	0.13788362
87	0xbcb19b66	-0.021680545
88	0x3d21aa45	0.039469022
89	0xbd33b2f3	-0.04387183
90	0xbe559d1f	-0.20860718
91	0x3c959c41	0.018262984
92	0xbe003f22	-0.12524083
93	0xbd836344	-0.06415418
94	0xbd58af12	-0.052901335
95	0xbce5af1f	-0.028037606
96	0xbe1ea157	-0.15491234
97	0xbd3aa3f7	-0.045566525
98	0xbd74776f	-0.059684213
99	0xbea0f33a	-0.31435567
100	0x3d45d52f	0.04829901
101	0x3ec86b9d	0.39144602
102	0xbd5ab5dd	-0.053396095
103	0xbe27c33d	-0.16383071
104	0x3ab46a08	0.001376451
105	0x3e07b60d	0.1325304
106	0xbe177060	-0.14788961
107	0x3db92f78	0.09042257
108	0x38fe4f9c	0.00012126492
109	0x3dfa6c85	0.1222773
110	0x3d4eeb65	0.05051746
111	0x3d580395	0.05273779
112	0x3e9e3601	0.30900577
113	0xbe37cc6a	-0.17949072
114	0x3cccd060	0.025001705
115	0xbd731f9f	-0.059356328
116	0x3e1ade27	0.15123807
117	0x3e0bdc70	0.13658309
118	0xbe83c763	-0.25738057
119	0xbcefe141	-0.029282214
120	0xbb860a6e	-0.004090599
121	0x3e1670f4	0.14691526
122	0xbe86fdc8	-0.26365495
123	0x3dae35c6	0.0850635
124	0x3dd7044b	0.10498866
125	0x3c7ab331	0.015301512
126	0x3dccbaaa	0.09996541
127	0x3d805f4c	0.062681764
128	0x3e6c63b3	0.23084907
129	0x3c751aa4	0.014959965
130	0xbe33d370	-0.17561126
131	0x3e67fe3f	0.22655581
132	0x3d96743e	0.0734639
133	0x3e089416	0.1333774
134	0xbceb74e8	-0.028742269
135	0x3de2449d	0.11048243
136	0x3dd041eb	0.10168823
137	0xbdf1c0f7	-0.11804383
138	0xbdbddc4e	-0.092705354
139	0x3e800bab	0.25008902
140	0x3d291695	0.0412813
141	0xbe927769	-0.28606728
142	0x3d3d1c50	0.04616958
143	0x3df97171	0.1217984
144	0x3e64c4a6	0.2234064
145	0xbe1323a2	-0.14369062
146	0x3e337238	0.1752404
147	0xbdbf6a52	-0.09346451
148	0xbe9257bf	-0.2858257
149	0xbe1a9bc8	-0.15098488
150	0xbd7e45ee	-0.06207841
151	0x3dae5df3	0.08514013
152	0x3d6a50ad	0.057205845
153	0x3e1495e1	0.145103
154	0x3ca32b55	0.019918123
155	0xbe5ee903	-0.21768574
156	0x3bec5a0d	0.0072128833
157	0x3ea034da	0.31290323
158	0x3e148fc8	0.14507973
159	0xbde51f57	-0.11187618
160	0x3ebc729e	0.36806196
161	0xbce399af	-0.027783243
162	0x3dc33cee	0.09533106
163	0x3e51eefb	0.2050132
164	0xbd4b6fdc	-0.049667224
165	0xbc940e62	-0.018073265
166	0xbda21f17	-0.07916086
167	0x3e50e407	0.20399486
168	0x36420ef4	2.8916957e-06
169	0xbe7f04eb	-0.2490422
170	0xbe1161a0	-0.14197397
171	0x3e22c12c	0.15894002
172	0xbda3fc20	-0.080070734
173	0x3e5fdbec	0.21861237
174	0x3dfeefed	0.12448106
175	0x3e82a2a3	0.25514707
176	0xbd264d6a	-0.04060117
177	0x3dece092	0.11566271
178	0xbd9b5946	-0.07585387
179	0x3d95d968	0.073168576
180	0x3db4e2d5	0.08832327
181	0x3d17d785	0.03707077
182	0x3d9a6a21	0.07539774
183	0xbde62b88	-0.11238772
184	0xbcdfba02	-0.027310375
185	0xbe127a7d	-0.14304538
186	0x3e5e519a	0.21710816
187	0xbedd3b3a	-0.4320925
188	0xbd82626d	-0.063664295
189	0x3e295496	0.16536173
190	0x3e87b4c3	0.26505098
191	0x3c6ce668	0.01445923
192	0xbd63b956	-0.055596672
193	0xbdf71439	-0.12064404
194	0xbb3a5f93	-0.0028438314
195	0x3e3217f5	0.17391951
196	0x3e8df53e	0.27726167
197	0x3e2f09ca	0.17093578
198	0x3beb585a	0.007182163
199	0xbd4edb11	-0.050501887
200	0x37ee3d59	2.8400378e-05
201	0xbd015150	-0.031571686
202	0x3e681e12	0.22667721
203	0xbe40145b	-0.18757765
204	0x3d8c1efc	0.06841847
205	0x3e9bef8d	0.304562
206	0x3e8294a4	0.2550403
207	0xbd740f88	-0.059585124
208	0x3d46c4e8	0.04852763
209	0xbe403a7c	-0.1877231
210	0xbdcb4d6d	-0.09926877
211	0x3e580d0f	0.21098731
212	0x3d2fa7c0	0.04288459
213	0xbe8d2852	-0.27569824
214	0x3e632b9b	0.22184603
215	0xbdd9498f	-0.10609733
216	0xbd640133	-0.055665206
217	0xbe1ff06f	-0.15619062
218	0xbc837671	-0.016047688
219	0x3d799515	0.06093319
220	0xbd0c4bb6	-0.03425189
221	0xbd3ed3e9	-0.046588812
222	0x3eb9efc5	0.36315742
223	0x3c1e6e86	0.0096699055
224	0x3e04c40e	0.12965414
225	0x3db5a66c	0.08869633
226	0xbdd5663c	-0.1041989
227	0x3d737315	0.059435923
228	0x3dff16fe	0.12455557
229	0x3e968ea7	0.2940571
230	0xbd83bbac	-0.0643228
231	0x3e90b5b7	0.28263637
232	0xbcf8e5a9	-0.030382948
233	0xbe8ae8b5	-0.27130666
234	0xbe47c0a2	-0.19507077
235	0xbe50fbf1	-0.20408608
236	0xbe0f5d4f	-0.14000438
237	0x3e74a401	0.23890688
238	0xbdc09ab6	-0.09404509
239	0xbd2a8ce3	-0.041638266
240	0xbe8a6d37	-0.2703645
241	0x3dc62d47	0.09676605
242	0xbe70f361	-0.23530342
243	0xbe11c978	-0.1423701
244	0xbbf1d34f	-0.0073799263
245	0xbe838658	-0.25688434
246	0x3cf1a621	0.029498162
247	0x3e81fff4	0.2539059
248	0x3d969fc3	0.07354691
249	0x3e543dfd	0.20726772
250	0xbdf66fe5	-0.12033061
251	0x3d8a9fe3	0.06768777
252	0xbc32b8e5	-0.01090834
253	0xbe19d58e	-0.15022871
254	0xbe1179cf	-0.14206623
255	0xbabb1fa2	-0.0014276395

conv1.nn.2.bias f4 [16]
0	0x3ec91f2f	0.39281604
1	0xbdf16bb4	-0.11788121
2	0xbdf7afe7	-0.120940976
3	0x3bc0e898	0.0058871023
4	0xbd8beb82	-0.06832029
5	0xbe3a2a7e	-0.18180272
6	0x3e71acf6	0.23601136
7	0xbe3a6d39	-0.18205728
8	0x3ed8a68c	0.42314565
9	0x3be549e7	0.0069973352
10	0xbe06087b	-0.13089173
11	0xbd5c88ef	-0.053841528
12	0x3c366ddd	0.011134592
13	0x3d4a35db	0.049367767
14	0x3d9cc42e	0.07654606
15	0x3e48b65a	0.19600812

conv1.nn.4.weight f4 [16]
0	0x3f6dca57	0.9288687
1	0x3f7b5f49	0.9819227
2	0x3eec4d10	0.46152544
3	0x3f8b7bd8	1.0897169
4	0x3f80c2f4	1.0059495
5	0x3e5f2c64	0.21794277
6	0x3f8721d1	1.0557195
7	0x3f24def5	0.64402705
8	0x3f68a602	0.9087831
9	0x3f5e816e	0.86916244
10	0x3f4fd142	0.8117868
11	0x3f54cb23	0.8312246
12	0x3f6912c4	0.9104426
13	0x3f6c35d5	0.9226964
14	0x3f5f9124	0.8733084
15	0x3f515164	0.8176482

conv1.nn.4.bias f4 [16]
0	0x3e46bf33	0.19408874
1	0x3daef5d1	0.085429795
2	0x3d84d440	0.06485796
3	0x3e0e1938	0.13876808
4	0x3cf3c1be	0.02975547
5	0xbba14509	-0.0049215597
6	0x3e144a03	0.14481358
7	0xbd366f4a	-0.044539727
8	0x3dee6bee	0.1164168
9	0xbccdc11d	-0.025116498
10	0x3daa231a	0.08307476
11	0xbce04cf5	-0.027380446
12	0x3c1267c3	0.0089358715
13	0x3d919ca7	0.07109957
14	0x3e8f053f	0.2793369
15	0x3c8acbd5	0.016942898

conv1.nn.4.running_mean f4 [16]
0	0x3e526f02	0.20550159
1	0x3e630449	0.22169603
2	0x2fc15c4b	3.5172074e-10
3	0x3e850c56	0.25985974
4	0x401b474d	2.4262269
5	0x398a4cbd	0.00026378586
6	0x3ea21f7e	0.31664652
7	0x3e10e56a	0.14150015
8	0x3efd0a3f	0.4942188
9	0x3f1c272b	0.60997266
10	0x3f32ca6e	0.69840133
11	0x3fa55088	1.2915201
12	0x4006930a	2.1027246
13	0x3f03be4b	0.5146224
14	0x3ec84d42	0.39121443
15	0x3c81abbc	0.01582896

conv1.nn.4.running_var f4 [16]
0	0x3e27f987	0.16403781
1	0x3eef7ca4	0.4677478
2	0x3042cba7	7.0866196e-10
3	0x3ea7437d	0.32668677
4	0x40e16a28	7.0442085
5	0x38ae8413	8.321567e-05
6	0x3ed8cb70	0.4234271
7	0x3e309f1d	0.17248197
8	0x3f1dab16	0.6158918
9	0x3f5ef61b	0.8709428
10	0x3f5339d4	0.82510114
11	0x402bb862	2.6831288
12	0x408c38b3	4.3819213
13	0x3f514fa2	0.81762135
14	0x3ee66841	0.45001414
15	0x3c440ee1	0.011966438

conv2.nn.0.weight f4 [16, 16]
0	0xbe8be244	-0.27321064
1	0x3e1c98a5	0.15292604
2	0xbd2eb858	-0.042656273
3	0x3e6f95b1	0.23396946
4	0x3dc73daa	0.09728558
5	0x3d0e0039	0.03466818
6	0xbe5003af	-0.20313905
7	0x3e78b9f0	0.2428968
8	0x3e99a91e	0.3001184
9	0x3bca96d4	0.006182531
10	0xbe7e9cfa	-0.2486457
11	0xbd4b0d57	-0.04957327
12	0xbd056744	-0.032569185
13	0xbe59cc0f	-0.21269248
14	0x3c9c56b1	0.019084306
15	0x3ce53635	0.02797995
16	0xbe0fb803	-0.14035039
17	0x3e199de3	0.15001635
18	0x3d08026e	0.033205442
19	0xbe0cd362	-0.13752511
20	0x3e72129f	0.23639916
21	0x3de9f3b5	0.114234366
22	0x3e064bf1	0.13114907
23	0xbcdb258a	-0.026751298
24	0xbe2b95e4	-0.16756397
25	0x3bfb3a74	0.0076668803
26	0x3cd90ca2	0.026495282
27	0xbda678a5	-0.0812848
28	0x3e017340	0.1264162
29	0x3b4212d5	0.0029613276
30	0xbc996bfd	-0.01872825
31	0x3e9464f2	0.28983265
32	0xbe019069	-0.12652744
33	0xbe432971	-0.19058777
34	0xbdc7ba71	-0.09752358
35	0xbec57428	-0.38565183
36	0x3d910d73	0.07082643
37	0x3d7025f7	0.058629956
38	0xbd14fa7e	-0.0363717
39	0x3e3f386e	0.1867387
40	0x3d22b196	0.03972014
41	0xbe308ab3	-0.1724041
42	0xbe7c731a	-0.24653283
43	0x3e88c160	0.26710033
44	0xbd33320a	-0.043748893
45	0x3dd2280b	0.10261544
46	0xbead4e6c	-0.33848894
47	0xbd768458	-0.060184807
48	0x3e1f88d3	0.15579538
49	0xbe0a37fb	-0.13497917
50	0xbd9789e2	-0.07399346
51	0xbcc47b0b	-0.023984453
52	0x3da62889	0.081132
53	0xbd56a296	-0.052401148
54	0xbdcf73a2	-0.10129477
55	0x3d14cde6	0.036329173
56	0xbe29b743	-0.16573815
57	0x3d8aeae7	0.06783085
58	0xbdf76edf	-0.12081694
59	0xbd9b21bc	-0.07574794
60	0xbceafc27	-0.028684689
61	0xbe628dc5	-0.22124393
62	0xbf0934c0	-0.53596115
63	0x3dd50cdd	0.10402844
64	0x3e28d093	0.16485815
65	0x3e5acc4b	0.21366994
66	0xbd5a7f84	-0.053344265
67	0x3d694c8a	0.05695776
68	0x3da38baf	0.07985627
69	0xbd2c1305	-0.042010326
70	0x3e4fe793	0.20303182
71	0x3e59c20c	0.2126543
72	0x3d42298e	0.04740291
73	0x3e7e1334	0.24812013
74	0xbd45c641	-0.048284773
75	0x3e09eaad	0.13468428
76	0xbc92c3fc	-0.017915718
77	0x3c35334a	0.011059592
78	0xbd8462d8	-0.064641654
79	0x3e25ac27	0.16178952
80	0xbe619a76	-0.22031578
81	0xbe66ede2	-0.22551683
82	0x3bd62938	0.0065356754
83	0xbdf95a73	-0.12175455
84	0xbe9b99a7	-0.30390665
85	0xbcbe08f6	-0.023197632
86	0x3d1feed5	0.039046127
87	0xbeb70a34	-0.35749972
88	0x3d950bfb	0.07277676
89	0xbce4cf40	-0.027930856
90	0xbc4dd407	-0.012562758
91	0x3d9f80e3	0.07788255
92	0xbd478acc	-0.04871635
93	0x3e9af275	0.30263105
94	0xbd735bca	-0.05941371
95	0x3e86e3bc	0.26345623
96	0x3db9aeef	0.09066569
97	0x3e7dc987	0.24783908
98	0x3dbab7c7	0.09117084
99	0xbe9164bd	-0.2839717
100	0x3e76e5d9	0.24111117
101	0xbcad6c71	-0.021169873
102	0xbe05548d	-0.13020535
103	0x3d308834	0.043098643
104	0xbe2f699e	-0.17130134
105	0x3d567839	0.052360747
106	0xbd9d2da5	-0.07674722
107	0x3c3ccf13	0.01152398
108	0x3e5549c8	0.20828927
109	0x3e1092fc	0.1411857
110	0xbbb68217	-0.005569707
111	0xbd793ca8	-0.060848862
112	0xbe224d6b	-0.15849845
113	0x3c39448c	0.011307847
114	0x3e045004	0.12921149
115	0xbe2b9cac	-0.16758984
116	0x3c2f2612	0.010690229
117	0x3a059887	0.00050962757
118	0xbe5c233a	-0.21497813
119	0x3db40301	0.087896354
120	0xbd8679f1	-0.06566227
121	0x3d9c9bc8	0.076469004
122	0xbe022eef	-0.12713216
123	0x3bc7ad51	0.006093659
124	0xbe2e2760	-0.17007208
125	0xbdca1f9a	-0.09869309
126	0x3e11ec10	0.14250207
127	0xbdcb8d40	-0.09939051
128	0x3e5ad4f5	0.21370299
129	0x3dccebb7	0.100058965
130	0xbe0de37c	-0.1385631
131	0xbe2df3db	-0.16987555
132	0xbe69f946	-0.22848997
133	0xbd2802b3	-0.0410182
134	0xbda7ec22	-0.08199336
135	0x3d99f8dd	0.0751817
136	0x3c397edb	0.011321749
137	0x3e0f6156	0.14001974
138	0x3ea9d30c	0.33168828
139	0xbe898825	-0.26861683
140	0xbe4cb685	-0.199915
141	0x3e126ab8	0.14298522
142	0xbd3d01c6	-0.04614427
143	0xbdb403d6	-0.08789794
144	0xbe2885a6	-0.16457233
145	0xbdcb0020	-0.09912133
146	0xbe3ba1f3	-0.18323497
147	0x3dfd560a	0.12369926
148	0x3e6555d3	0.2239602
149	0x3de0ffce	0.10986291
150	0x3d8a86dc	0.06764004
151	0x3e39299f	0.18082283
152	0xbd119afc	-0.035548195
153	0x3e419ab3	0.1890667
154	0x3e5103f3	0.20411663
155	0x3df2aae2	0.118489996
156	0x3e8a75e4	0.27043068
157	0x3e9f675e	0.3113355
158	0x3e2ffe50	0.17186856
159	0xbc8b861f	-0.017031727
160	0x3e67c0c1	0.22632124
161	0xbd31a21a	-0.043367483
162	0xbcda1ef5	-0.02662609
163	0x3bc42eb5	0.005987013
164	0x3c370892	0.011171477
165	0x3d54c5b0	0.051946342
166	0x3eb5b417	0.3548896
167	0xbe08dfb6	-0.13366589
168	0xbdbad86e	-0.09123312
169	0xbd19306b	-0.03739969
170	0x3d82c233	0.06384697
171	0xbd963068	-0.073334515
172	0x3c3e7c79	0.011626356
173	0x3e2f56b5	0.1712292
174	0x3db61644	0.088909656
175	0xbe5893b0	-0.21150088
176	0x3d9178d2	0.07103123
177	0xbceaf049	-0.02867903
178	0x3e28f332	0.16499022
179	0xbd0f1fe0	-0.034942508
180	0x3e151593	0.14559011
181	0x3d9df913	0.07713523
182	0xbe1a0cf4	-0.15044004
183	0x3d1bdf9f	0.03805506
184	0x3d24022f	0.040041145
185	0x3e03a97d	0.12857623
186	0xbe57bc46	-0.21067914
187	0xbea596a1	-0.32341483
188	0x3d095df6	0.033536874
189	0x3e3515bc	0.17684072
190	0xbe8e05c3	-0.2773877
191	0xbd10d313	-0.035357546
192	0x3e282804	0.16421515
193	0x3eb80616	0.35942143
194	0x3d9dcd09	0.07705123
195	0x3e896386	0.26833743
196	0x3e9294d3	0.2862917
197	0xbdf470ea	-0.11935599
198	0xbe1ee906	-0.15518579
199	0xbe3431e5	-0.17597158
200	0xbe708c1b	-0.23490946
201	0x3d95a660	0.07307124
202	0x3d05ab5f	0.032634135
203	0xbd4ad03d	-0.049514998
204	0xbda68cd8	-0.081323326
205	0xbe2a3fde	-0.16625926
206	0x3caf1b6a	0.021375377
207	0x3d1a8b61	0.03773058
208	0x3e641748	0.22274506
209	0xbeb2a288	-0.34889627
210	0xbd38bc3b	-0.045101386
211	0xbe0c2780	-0.13686943
212	0xbdfbc7ea	-0.1229399
213	0x3cf8c042	0.030365113
214	0x3d01ba1e	0.031671636
215	0x3df24fe9	0.11831648
216	0x3e3a7b4c	0.18211097
217	0xbe07b111	-0.13251139
218	0xbdaaae7e	-0.08334063
219	0x3d006b90	0.03135258
220	0xbe8686fc	-0.2627486
221	0x3e451f37	0.19250189
222	0xbe7a0f0f	-0.24419807
223	0x3d94bab3	0.072621725
224	0xbe047749	-0.12936129
225	0x3dcd406f	0.10022055
226	0x3e41790a	0.18893829
227	0xbda85af8	-0.08220476
228	0xbcf144ec	-0.02945181
229	0x3c93e25a	0.018052269
230	0xbe97b60f	-0.29631087
231	0x3e3e471c	0.18581814
232	0xbed7ab4e	-0.42122883
233	0xbe1c3d76	-0.1525782
234	0x3e11d705	0.1424218
235	0x3cea0121	0.028564991
236	0xbdd1e96c	-0.102496
237	0x3e0415bc	0.12898916
238	0x3e8191d5	0.25306574
239	0xbeb405a2	-0.35160547
240	0xbe0ef8c1	-0.1396208
241	0x3e437b7b	0.19090073
242	0x3d59fcf0	0.053219736
243	0xbe732485	-0.237444
244	0xbea24ff1	-0.31701615
245	0x3dda4847	0.10658317
246	0xbd5b6cb6	-0.05357047
247	0xbe95f09a	-0.29285127
248	0x3e700f3b	0.2344331
249	0x3d6ad1fd	0.057329167
250	0xbc99eb41	-0.018788936
251	0xbd98a45f	-0.07453226
252	0xbd9e4b18	-0.07729167
253	0xbe1c74f0	-0.15278983
254	0x3dd2f10c	0.10299882
255	0xbd89b9b0	-0.0672487

conv2.nn.0.bias f4 [16]
0	0x3db6e14e	0.08929692
1	0x3d95aed0	0.073087335
2	0xbc7cc748	-0.015428372
3	0x3da99fdf	0.08282446
4	0xbe94b56b	-0.2904466
5	0xbdde6e36	-0.10860865
6	0x3c2d8f6e	0.010593278
7	0x3c4137d1	0.011793093
8	0xbce5e022	-0.028060976
9	0xbea1f094	-0.3162886
10	0xbe7ce598	-0.24696958
11	0x3e9deb1e	0.30843443
12	0xbd8d869a	-0.06910439
13	0x3b98330b	0.0046447567
14	0x3e78ca6c	0.24295968
15	0x3dbd4793	0.09242167

conv2.nn.2.weight f4 [16, 16]
0	0xbece1e2e	-0.402574
1	0xbe09b478	-0.1344775
2	0x3d5f7f90	0.054565012
3	0x3dfdc090	0.12390244
4	0x3e12f562	0.14351419
5	0x3e680a7f	0.22660254
6	0xbe152ff3	-0.14569072
7	0xbcc1863f	-0.023623584
8	0xbc8233d8	-0.015893862
9	0xbe62cc03	-0.22148137
10	0xbdb5fc23	-0.08885982
11	0xbcf0f6b0	-0.029414505
12	0xbc5c9fb9	-0.013465815
13	0x3e6a4c14	0.22880584
14	0xbeac8014	-0.33691466
15	0x3d502669	0.05081788
16	0x3e02b59d	0.12764592
17	0xbe2eeca0	-0.17082453
18	0xbdcd8643	-0.10035374
19	0xbb27ca18	-0.0025602635
20	0x3d3d1a57	0.046167698
21	0x3d0b85e1	0.034063224
22	0xbde49bfe	-0.11162566
23	0xbdcf459f	-0.10120701
24	0xbe1ca5f3	-0.1529768
25	0xbe7c3cf1	-0.24632622
26	0x3db9f64b	0.0908018
27	0xbe6634dd	-0.22481103
28	0xbda08106	-0.07837109
29	0xbe737154	-0.237737
30	0xbe596b18	-0.2123226
31	0x3e8421ed	0.25807133
32	0x3e6e32c4	0.23261553
33	0xbe2433a2	-0.16035321
34	0xbe46ec75	-0.19426139
35	0xbe4a775e	-0.19772097
36	0xbe5f619d	-0.2181458
37	0xbe0ab0e3	-0.1354404
38	0xbe9a49c3	-0.301344
39	0x3e30fcca	0.17283931
40	0x3d04d152	0.032426186
41	0x3e017eef	0.12646078
42	0xbe447639	-0.19185723
43	0xbb608e25	-0.0034264412
44	0xbc3097c6	-0.010778373
45	0x3d374146	0.044739984
46	0xbdd90d0c	-0.105981916
47	0xbe4be941	-0.19913198
48	0x3e690448	0.2275554
49	0x3e32f123	0.17474799
50	0xbc048122	-0.008087428
51	0x3e186795	0.14883263
52	0xbd1064de	-0.035252444
53	0xbe7f4dbf	-0.24932002
54	0x3cd97641	0.026545646
55	0x3dac2f32	0.08407439
56	0x3d7cd685	0.06172802
57	0xbe36789b	-0.17819445
58	0xbe54ed1f	-0.2079358
59	0x3de30bf5	0.11086265
60	0xbd97e4bf	-0.07416677
61	0x3b93e48f	0.0045133303
62	0xbc93ea79	-0.018056141
63	0x3d6b137e	0.057391636
64	0x3e08b81e	0.13351485
65	0xbe753211	-0.2394488
66	0xbc27176b	-0.010198454
67	0x3e5f42ec	0.21802872
68	0xbd56f585	-0.05248024
69	0xbd77a5f2	-0.060460992
70	0x3e9648f9	0.2935255
71	0xbe0ab995	-0.13547356
72	0x3e402d8f	0.18767379
73	0xbe2438f8	-0.16037357
74	0x3e12fc70	0.1435411
75	0x3ea1b025	0.315797
76	0x3e728762	0.23684457
77	0xbdcbe65c	-0.09956047
78	0xbe2634ca	-0.16231075
79	0xbddf49d1	-0.10902751
80	0x3b499edf	0.003076486
81	0x3d8cc18c	0.06872854
82	0x3e2de4c8	0.16981804
83	0xbd8d60a4	-0.06903198
84	0x3cbcede8	0.023062661
85	0x3d1d58ec	0.03841488
86	0xbedf7110	-0.43640947
87	0x3d4129fc	0.04715918
88	0x3e72897e	0.23685262
89	0x3e0f7597	0.140097
90	0xbda436de	-0.080182776
91	0x3cbd2ee1	0.023093643
92	0xbdd3429d	-0.1031544
93	0x3d4f6c5c	0.05064045
94	0x3e155873	0.14584522
95	0x3e07f7aa	0.1327807
96	0x3e4b7798	0.1986984
97	0xbe23e428	-0.16005003
98	0xbe0c3979	-0.13693799
99	0xbcef0bcf	-0.029180435
100	0xbe3fcb5c	-0.18729919
101	0x3cbb1b57	0.022840185
102	0x3d8f45fa	0.06995769
103	0xbd095d50	-0.033536255
104	0xbc76cd76	-0.015063634
105	0x3e72aa29	0.23697723
106	0xbd80a4eb	-0.062814556
107	0x3c8aec91	0.016958507
108	0x3e87e6cb	0.2654327
109	0x3de5593d	0.111986615
110	0x3e0218f6	0.12704834
111	0x3e0a7f19	0.13525046
112	0xbe865710	-0.26238298
113	0x3d2a6153	0.04159672
114	0xbda70b96	-0.08156507
115	0x3e783f1f	0.24242829
116	0x3d3da8e6	0.046303652
117	0xbd10b085	-0.035324592
118	0xbd8f7ed4	-0.070066124
119	0xbd6b438c	-0.057437465
120	0xbe6eab72	-0.23307589
121	0x3e3ea828	0.18618834
122	0xbdc2503c	-0.0948796
123	0x3a9befc4	0.0011897017
124	0xbe18e8c8	-0.14932549
125	0xbd483ce3	-0.04888619
126	0x3ce7aef2	0.028281663
127	0xbd22f0a2	-0.039780267
128	0x3dab562f	0.083660476
129	0x3de7a0f6	0.11309998
130	0x3ecc0547	0.39847776
131	0xbe9c9b8f	-0.30587432
132	0x3d002b9e	0.031291597
133	0xbeb07b5a	-0.3446911
134	0xbe039ea2	-0.12853482
135	0x3d4459b4	0.04793711
136	0xbd921445	-0.07132772
137	0xbd9d6cee	-0.07686792
138	0x3eb7bdef	0.35887095
139	0x3938d6d0	0.00017627631
140	0xbe4a1323	-0.19733863
141	0x3e182c6a	0.14860693
142	0xbdb7efdb	-0.08981296
143	0xbe34ae8d	-0.17644711
144	0xbec62a50	-0.38704157
145	0x3c36c8fa	0.011156315
146	0x3dc8ff18	0.0981428
147	0xbe879099	-0.26477507
148	0xbddd4ab7	-0.10805266
149	0xbd84ede4	-0.064906865
150	0x3e202226	0.15638027
151	0xbdc599c3	-0.09648468
152	0xbe2d1b26	-0.16904888
153	0xbd5c33f1	-0.053760473
154	0xbe60ec68	-0.21965182
155	0xbdc944c4	-0.09827569
156	0xbe14e290	-0.14539552
157	0xbd4179bb	-0.04723523
158	0x3ea888af	0.3291678
159	0xbcfee427	-0.03111465
160	0x3cbb3242	0.022851113
161	0xbd7a472d	-0.061103035
162	0xbe39cd82	-0.18144801
163	0xbe3bf992	-0.18356922
164	0xbeb51673	-0.3536869
165	0xbe465cd8	-0.19371355
166	0xbdbbebc3	-0.09175827
167	0x3d6ac426	0.057315968
168	0xbe9336fd	-0.2875289
169	0xbea26ac5	-0.31722084
170	0x3d9c199b	0.07622071
171	0xbe92942d	-0.28628674
172	0xbd9d882b	-0.076919876
173	0xbdeb4632	-0.11487998
174	0xbdb49e90	-0.08819306
175	0x3d8e3eda	0.06945582
176	0xbe9c0df2	-0.3047939
177	0xbcbe6d33	-0.02324543
178	0xbe3e03f8	-0.18556201
179	0x3e409ace	0.18809053
180	0x3e48df61	0.19616462
181	0x3e6202ae	0.22071335
182	0xbe1c221e	-0.1524739
183	0x3d225847	0.03963497
184	0x3e6b6aa9	0.22989906
185	0xbdd15fc3	-0.10223343
186	0x3e133770	0.14376616
187	0x3e8b2e01	0.27183536
188	0xbe9ac13a	-0.30225545
189	0xbe25a258	-0.1617521
190	0x3e2268f1	0.15860344
191	0xbd3b863a	-0.045782305
192	0xbe67b3f1	-0.22627236
193	0x3daef017	0.08541887
194	0x3c942296	0.018082898
195	0xbe05576c	-0.1302163
196	0xbec15a9f	-0.3776445
197	0xbdd824ee	-0.10553919
198	0x3b8ac44b	0.0042348257
199	0xbbc6e9b6	-0.006070341
200	0xbe2eb49d	-0.17061086
201	0xbdb73513	-0.0894567
202	0xbe8ce06e	-0.27514976
203	0x3e158619	0.14601935
204	0xbedbf55b	-0.4296063
205	0xbd800af7	-0.062520914
206	0xbafc8563	-0.0019265827
207	0x3b1cdab7	0.0023934075
208	0xbe50f0a7	-0.20404302
209	0xbddd6d15	-0.10811821
210	0xbe1afafa	-0.15134802
211	0xbd17b444	-0.03703715
212	0xbd9cf89e	-0.076646075
213	0x3d628a52	0.055307694
214	0x3d0558af	0.03255528
215	0xbdc8d690	-0.098065495
216	0xbe027061	-0.12738182
217	0xbddff78b	-0.10935887
218	0xbd57edc6	-0.052716993
219	0xbda7bd4d	-0.08190403
220	0x3e615d3d	0.22008224
221	0xbd539507	-0.051655795
222	0x3ee44282	0.4458199
223	0x3a42aa8b	0.00074259256
224	0x3bc39e80	0.0059698224
225	0x3d564656	0.05231317
226	0xbe15cd7f	-0.14629172
227	0x3e010c0a	0.12602249
228	0xbe1ee709	-0.1551782
229	0x3e752c4a	0.23942676
230	0x3d0d4cdb	0.034497123
231	0xbd996221	-0.0748942
232	0x3dfb31d7	0.122653656
233	0xbe99181c	-0.29901206
234	0xbe23f507	-0.1601144
235	0xbe128feb	-0.14312713
236	0xbd0f3162	-0.034959204
237	0xbe3bb3c2	-0.18330291
238	0xbec3320a	-0.38124114
239	0x3e480264	0.19532162
240	0x3ab4f4e8	0.0013805898
241	0x3ea7112d	0.32630292
242	0x3d6a6918	0.05722913
243	0xbeb15a6c	-0.346393
244	0x3daf990d	0.08574114
245	0x3db9a5f9	0.0906486
246	0x3e562086	0.20910844
247	0xbd8f381a	-0.069931224
248	0x3e1e217b	0.1544246
249	0xbac0d3f3	-0.0014711603
250	0xbcdef693	-0.027217185
251	0xbdf26a41	-0.118366726
252	0x3df422bf	0.1192069
253	0x3d4db254	0.050218895
254	0x3dfe0850	0.12403929
255	0x3e0781af	0.13233064

conv2.nn.2.bias f4 [16]
0	0x3dd35a80	0.10319996
1	0x3e3ffa86	0.18747911
2	0x3ef34818	0.4751594
3	0xbe87d5cf	-0.2653031
4	0xbe2e9973	-0.17050724
5	0xbd6bae9c	-0.057539567
6	0x3e083ff0	0.1330564
7	0x3ec37a73	0.3817936
8	0x3eb3ac36	0.35092324
9	0x3eb97350	0.3622079
10	0x3e21d86f	0.15805219
11	0x3e0233d6	0.12715086
12	0x3e10efcb	0.14153974
13	0x3eceec6e	0.40414757
14	0x3e78366f	0.24239515
15	0x3cdb5b2b	0.02677687

conv2.nn.4.weight f4 [16]
0	0x3f6c857d	0.92391187
1	0x3f6d35a9	0.92660004
2	0x3f5a0535	0.85164195
3	0x3f4dc1d3	0.8037388
4	0x3f66f0e8	0.90211344
5	0x3f5b1f02	0.8559419
6	0x3f47194c	0.77772975
7	0x3f383d80	0.7196884
8	0x3f819e82	1.0126498
9	0x3f7f1d31	0.9965392
10	0x3f37220d	0.7153633
11	0x3f6c5485	0.92316467
12	0x3f4398d9	0.764051
13	0x3f67fe7f	0.90622705
14	0x3f35e90a	0.71058714
15	0x3f4af762	0.79283726

conv2.nn.4.bias f4 [16]
0	0xbce50fe6	-0.027961683
1	0x3edb914c	0.4288429
2	0x3e6e5af0	0.23276877
3	0xbe40d714	-0.18832046
4	0xbd5fe1e5	-0.05465879
5	0x3cf04dda	0.029333998
6	0xbc23152c	-0.009953778
7	0x3e807215	0.25087038
8	0x3e8cec64	0.27524102
9	0x3e38e624	0.18056542
10	0xbc95203b	-0.018203845
11	0x3d1d88f4	0.038460687
12	0xbdad9339	-0.08475346
13	0x3e4548ad	0.19266005
14	0xbd527063	-0.05137671
15	0x3e637459	0.22212352

conv2.nn.4.running_mean f4 [16]
0	0x3d7bca3e	0.06147217
1	0x3d85829b	0.06519052
2	0x3e3d28e3	0.18472628
3	0x3de8b2ef	0.11362254
4	0x3f3cb29a	0.73710024
5	0x3eaa3bf1	0.33248857
6	0x3feafe30	1.8358822
7	0x3f214f69	0.63011795
8	0x3ebeb814	0.37249815
9	0x3dbb9787	0.09159761
10	0x3b309f5b	0.0026950452
11	0x3ebeaed7	0.37242767
12	0x3c85db6e	0.016339984
13	0x3e434ace	0.19071504
14	0x3d36a89a	0.044594385
15	0x3fd8da49	1.6941615

conv2.nn.4.running_var f4 [16]
0	0x3d00ac94	0.031414583
1	0x3d4ec365	0.05047931
2	0x3ddd39af	0.10802018
3	0x3e457848	0.19284165
4	0x4032606a	2.7871346
5	0x3f3423f8	0.70367384
6	0x40f204b6	7.563075
7	0x3f152c6e	0.5827092
8	0x3f220de7	0.63302463
9	0x3ce1085b	0.027469805
10	0x3954aaa6	0.00020281467
11	0x3ede0a9d	0.43367472
12	0x3b0fff2f	0.002197217
13	0x3dba6c45	0.09102682
14	0x3c56bb17	0.013106129
15	0x40f2deea	7.589711

conv3.nn.0.weight f4 [16, 16]
0	0xbe1366d4	-0.14394695
1	0xbd5fdee5	-0.05465593
2	0xbf1b7694	-0.6072781
3	0x3eacb484	0.33731472
4	0xbe55c859	-0.20877208
5	0xbc94191e	-0.018078383
6	0x3e5d6f3b	0.21624462
7	0x3de14ca2	0.11000945
8	0xbd675022	-0.056472905
9	0x3e58c829	0.21170105
10	0xbd406715	-0.046973307
11	0xbe9075dd	-0.28214923
12	0x3e18204a	0.14856067
13	0x3c76b8a1	0.015058667
14	0xbdf386ce	-0.11890946
15	0xbd9b3eac	-0.07580313
16	0xbe319235	-0.1734093
17	0x3e9199bf	0.2843761
18	0xbdb1eeda	-0.086881354
19	0x3e7c5d86	0.24645051
20	0x3dfeff75	0.12451068
21	0xbeb35aeb	-0.35030302
22	0xbe08d813	-0.13363676
23	0x3d7f43c2	0.06232048
24	0x3de0da29	0.10979111
25	0xbe56903c	-0.20953459
26	0x3e332c41	0.1749735
27	0xbd2dc5e2	-0.042425044
28	0xbdaa8218	-0.08325595
29	0x3c98951f	0.018625794
30	0x3dc2810e	0.094972715
31	0x3d844abb	0.06459566
32	0xbe411c59	-0.1885847
33	0x3dab4d6f	0.08364379
34	0xbd68b287	-0.056810882
35	0xbe0f2437	-0.13978659
36	0x3e379214	0.17926818
37	0xbc59204c	-0.013252329
38	0xbe928be9	-0.28622368
39	0x3e6ce7e6	0.23135337
40	0xbe9ddfe5	-0.3083488
41	0xbd5ea1f6	-0.054353677
42	0xbdd4ffd7	-0.1040036
43	0x3dbff622	0.09373118
44	0xbc291814	-0.010320682
45	0xbe148a58	-0.14505899
46	0xbe878c8c	-0.26474416
47	0xbe990dd5	-0.29893366
48	0x3d93419e	0.0719025
49	0x3d474ea3	0.04865898
50	0xbdfc47ff	-0.1231842
51	0xbdeca1dd	-0.115543105
52	0x3e13f2cf	0.14448093
53	0xbdf230a4	-0.11825684
54	0x3cbee4da	0.023302484
55	0x3e6566ae	0.2240245
56	0xbe64beec	-0.22338456
57	0x3e762d00	0.24040604
58	0xbd752adf	-0.05985534
59	0x3e1ecba3	0.15507369
60	0x3d93f6ca	0.07224806
61	0x3e71c6cd	0.23610993
62	0x3d4591f2	0.048234887
63	0x3e51545f	0.20442341
64	0xbe23131e	-0.15925261
65	0x3e6a8808	0.22903454
66	0x3d59b57d	0.053151596
67	0xbe47fe8a	-0.19530693
68	0xbe8b13b2	-0.27163464
69	0xbe3d75f1	-0.18502022
70	0xbe1a830b	-0.15089051
71	0x3d11f440	0.035633326
72	0xbd118b9e	-0.03553354
73	0xbe2858e1	-0.16440155
74	0x3dacbc6f	0.08434378
75	0xbebc8dc6	-0.36826915
76	0xbc9929b6	-0.018696647
77	0x3e46af3f	0.19402789
78	0x3d9bb9b8	0.076037824
79	0x3e145f36	0.14489445
80	0x3c3bd54a	0.011464426
81	0x3e86d2c1	0.26332667
82	0xbeb44dfb	-0.35215744
83	0x3c10a4f0	0.008828387
84	0xbda28708	-0.079359114
85	0xbdf48854	-0.11940065
86	0x3e812b8a	0.2522853
87	0xbccf46d8	-0.025302336
88	0x3d0b7cdb	0.03405462
89	0x3e363ebe	0.17797372
90	0x3e9d7e80	0.30760574
91	0xbdbc9978	-0.09208959
92	0x3e2fee9e	0.17180869
93	0xbe357698	-0.17721021
94	0xbd61d050	-0.055130303
95	0xbd49f7b0	-0.04930848
96	0x3eb427cd	0.35186616
97	0xbc1a5e5a	-0.009421909
98	0xbe53fafc	-0.20701212
99	0xbc0f1ce0	-0.008734912
100	0xbdeec8b6	-0.11659376
101	0xbe3c871a	-0.18410912
102	0x3cb1b24a	0.02169146
103	0x3d41f2b9	0.04735062
104	0x3e7d7008	0.24749768
105	0x3de6bf62	0.11266972
106	0x3ea26c23	0.31723127
107	0x3cc26abd	0.023732537
108	0xbe3fa627	-0.18715726
109	0xbe130db6	-0.14360699
110	0xbe8e773a	-0.27825338
111	0xbd0b52da	-0.03401456
112	0xbbe88a56	-0.007096569
113	0x3e46cc60	0.194139
114	0xbe21cf8d	-0.1580183
115	0xbda3b588	-0.07993609
116	0xbe353559	-0.17696132
117	0xbc86d156	-0.016457241
118	0x3e2be15f	0.16785191
119	0xbe174fb8	-0.14776504
120	0xbdf7c7b5	-0.12098638
121	0xbedf3974	-0.4359852
122	0xbd0bceca	-0.034132756
123	0xbe7708c0	-0.24124432
124	0x3e2a11ae	0.16608307
125	0x3e798d9d	0.24370427
126	0x3e493d1a	0.19652215
127	0x3eba6b71	0.36410096
128	0xbe9b6706	-0.30352038
129	0xbe0fbde6	-0.14037284
130	0x3e03f367	0.1288582
131	0x3df358e0	0.11882186
132	0xbed34b8f	-0.41268584
133	0xbdca419a	-0.09875794
134	0xbd4824b4	-0.048863128
135	0x3da33834	0.07969704
136	0x3c0d8c34	0.008639384
137	0x3ec2759e	0.3798036
138	0x3db41865	0.087937154
139	0x3e9389b8	0.2881601
140	0x3e6f21aa	0.23352686
141	0xbe95ce1f	-0.2925882
142	0xbdebd9a3	-0.1151612
143	0x3e00d6ce	0.12581941
144	0xbd378d59	-0.044812534
145	0xbbea242e	-0.0071454262
146	0xbc6bb213	-0.014385718
147	0xbe2b2f25	-0.16717203
148	0x3e4bec39	0.1991433
149	0x3d84248f	0.064522855
150	0x3e53d38d	0.20686169
151	0xbe16f257	-0.14740883
152	0x3e8b2b5a	0.27181512
153	0xbec49a1f	-0.38398835
154	0xbcb6ded0	-0.022323042
155	0xbe78bc3b	-0.24290554
156	0x3ddc68ae	0.107621536
157	0x3e4999e3	0.1968761
158	0xbde3badd	-0.11119626
159	0xbe1fd04c	-0.15606803
160	0x3d77cc07	0.06049731
161	0xbe85bd61	-0.26121047
162	0x3eaf5de8	0.34251332
163	0xbe9afa0d	-0.302689
164	0xbc8f9551	-0.017527254
165	0x3c8274c5	0.01592482
166	0x3e680682	0.22658733
167	0x3cacbb73	0.021085477
168	0xbe4c2fff	-0.19940184
169	0xbe13140f	-0.1436312
170	0xbe5e6c40	-0.21720982
171	0x3df81d3c	0.12114951
172	0xbcabe8da	-0.020985056
173	0x3d7bb0a8	0.06144777
174	0xbe1af62c	-0.1513297
175	0xbdf90fd5	-0.12161223
176	0xbe0a2ad1	-0.13492896
177	0xbe355859	-0.17709483
178	0x3d6f7705	0.058463115
179	0xbe0f61d6	-0.14002165
180	0xbde764b1	-0.11298502
181	0xbe56aa7e	-0.20963475
182	0xbe834564	-0.25638878
183	0xbe3399c9	-0.17539133
184	0xbde467f5	-0.11152641
185	0xba8ba026	-0.0010652586
186	0x3e2bf657	0.1679319
187	0xbd988bb5	-0.07448522
188	0xbe84f3e5	-0.25967327
189	0x3e5d0e17	0.21587406
190	0xbe68c215	-0.22730286
191	0xbe8d8764	-0.27642357
192	0xbe907b18	-0.28218913
193	0xbe9faab6	-0.3118493
194	0x3d383795	0.044974882
195	0x3e15f207	0.14643107
196	0x3c6ce146	0.014458006
197	0x3ce103fd	0.027467722
198	0x3e23b2bf	0.15986155
199	0xbe375016	-0.17901644
200	0x3eab075b	0.3340405
201	0xbf016a70	-0.50553036
202	0x3ec8f21f	0.39247224
203	0xbf00be83	-0.502907
204	0xbe77956e	-0.24178097
205	0x3e14946e	0.14509746
206	0x3e0e4706	0.13894281
207	0x3db89995	0.090136684
208	0xbe60cd20	-0.21953249
209	0x3ea5d636	0.32389992
210	0x3e5caae5	0.21549566
211	0xbdf0ff90	-0.11767495
212	0xbba6501b	-0.0050754673
213	0x3d740a4b	0.05958013
214	0xbb269d3c	-0.0025423309
215	0x3d731c12	0.05935294
216	0x3e1687c1	0.14700224
217	0x3c368d87	0.011142141
218	0x3da8a67e	0.08234881
219	0xbd5df8bd	-0.054192293
220	0xbf01a4f8	-0.5064235
221	0xbdcfb8d5	-0.10142676
222	0xbb6c131a	-0.0036022128
223	0xbe3e4585	-0.18581207
224	0x3d965c49	0.07341821
225	0xbe36f761	-0.17867805
226	0xbe24f8e5	-0.1611057
227	0x3e0c0801	0.13674928
228	0x3e0eb1e3	0.13935046
229	0xbeba3ef3	-0.3637615
230	0xbe4d5455	-0.20051701
231	0x3cab308d	0.020897174
232	0xbd5b9091	-0.053604666
233	0x3e1c8a4c	0.15287131
234	0xbde9e109	-0.11419875
235	0x3e31e21b	0.17371409
236	0x3e3dbde6	0.18529472
237	0xbd917b06	-0.07103543
238	0x3dc28a97	0.0949909
239	0xbd8347d3	-0.06410184
240	0x3ddb96e7	0.10722142
241	0x3da0a4c3	0.07843926
242	0x3cce7e3d	0.02520668
243	0xbcc54543	-0.024080878
244	0x3cd12582	0.02553058
245	0xbead5d8e	-0.3386044
246	0xbc3e4934	-0.011614133
247	0x3e873e97	0.2641494
248	0xbe491bf9	-0.19639577
249	0x3e768162	0.24072793
250	0x3e043ebd	0.12914558
251	0x3d3733e9	0.04472724
252	0x3dbab5ad	0.09116683
253	0x3e24423a	0.16040888
254	0x3d9abcfe	0.07555579
255	0xbdffaace	-0.1248375

conv3.nn.0.bias f4 [16]
0	0x3e58b086	0.21161088
1	0xbeeb88b8	-0.46002746
2	0x3ea45cc5	0.32102028
3	0xbd0a898d	-0.033822585
4	0x3e39aef6	0.18133149
5	0x3ca33492	0.019922528
6	0x3d4d5bf4	0.05013652
7	0x3d33cfb9	0.04389927
8	0x3e92c23f	0.28663823
9	0x3ebd3058	0.36950946
10	0x3e82672f	0.25469348
11	0xbd6571a8	-0.056016594
12	0xbe519b1d	-0.20469327
13	0xbe2de7b1	-0.16982915
14	0x3e25de9f	0.16198204
15	0xbd13c284	-0.036074176

conv3.nn.2.weight f4 [16, 16]
0	0xbdb28633	-0.08717003
1	0xbe653206	-0.22382364
2	0xbd7319f1	-0.05935091
3	0xbebd9044	-0.37024128
4	0xbea6a636	-0.32548684
5	0xbe920f48	-0.28527284
6	0xbd9fb2af	-0.07797753
7	0xbe630a4a	-0.22171894
8	0x3d1766e9	0.036963377
9	0x3e9eb245	0.30995384
10	0xbebefb89	-0.3730128
11	0xbd88ef2f	-0.06686246
12	0xbe08d261	-0.13361503
13	0xbd8f6068	-0.0700081
14	0xbb8f6f38	-0.004377272
15	0xbe870830	-0.26373434
16	0x3d5d11db	0.053972106
17	0x3becb016	0.0072231395
18	0xbea2a214	-0.3176428
19	0xbd8f8e5c	-0.07009575
20	0x3d441132	0.04786796
21	0xbeadcd32	-0.33945614
22	0xbdfc452c	-0.12317881
23	0xbdd41be9	-0.10356886
24	0x3d96b93e	0.07359551
25	0xbde2236d	-0.11041913
26	0x3d1d8000	0.03845215
27	0x3dfe1e15	0.124080814
28	0x3dfbcb7a	0.122946694
29	0x3eb8b1a0	0.36073017
30	0xbe93dd13	-0.28879604
31	0xbe2a3a74	-0.1662386
32	0xbe581757	-0.21102653
33	0x3e0b9e59	0.13634624
34	0x3e9791cf	0.2960343
35	0xbe1b185b	-0.1514601
36	0xbdb55fb8	-0.088561475
37	0x3e52ae21	0.20574237
38	0x3e83b3e9	0.25723198
39	0xbe571f82	-0.21008113
40	0xbc122d71	-0.008921967
41	0x3e918459	0.28421286
42	0xbde6fdc0	-0.11278868
43	0x3e05b36a	0.13056722
44	0x3e11643b	0.14198391
45	0x3e1441e6	0.14478263
46	0x3e0d091a	0.13773003
47	0xbe7e053c	-0.24806684
48	0xbbb2f3d0	-0.0054611936
49	0xbd0b8599	-0.034062956
50	0xbca6bae4	-0.020352788
51	0x3d3c97fd	0.046043385
52	0xbe492221	-0.19641925
53	0xbe80f226	-0.25184745
54	0xbe2be4fd	-0.16786571
55	0xbe2bced6	-0.1677812
56	0x3e6649fa	0.22489157
57	0xbe5cd97a	-0.21567336
58	0xbeb295e4	-0.34879982
59	0x3e918882	0.2842446
60	0xbe6db6a4	-0.23214203
61	0xbe7bbd80	-0.24584007
62	0xbcbf7241	-0.02336991
63	0xbe319321	-0.17341281
64	0x3df56e69	0.1198395
65	0xbdc87dcc	-0.09789619
66	0xbdd9a0dc	-0.106263846
67	0xbe27b15a	-0.16376248
68	0x3cee55f9	0.02909373
69	0xbe9d3638	-0.30705428
70	0xbd0bd744	-0.03414084
71	0x3dfab614	0.1224176
72	0x3dfde5a5	0.12397317
73	0x3e443726	0.19161662
74	0xbca47967	-0.02007742
75	0x3cb267c8	0.021778002
76	0x3dc0b92e	0.0941032
77	0xbd8ae374	-0.067816645
78	0x3e29c309	0.16578306
79	0xbdd33bcf	-0.10314142
80	0xbe623650	-0.22091031
81	0xbe37bb5f	-0.1794257
82	0xbe9b6104	-0.30347455
83	0xbecad253	-0.3961359
84	0x3e81a8b6	0.2532403
85	0x3ca56c73	0.020193314
86	0xbdaccf91	-0.08438028
87	0x3c90a9ad	0.017659033
88	0xbcef9210	-0.029244453
89	0x3e016a43	0.12638192
90	0x3cdaba4c	0.026700161
91	0xbe9d04e5	-0.30667797
92	0xbe6c06fe	-0.23049542
93	0x3d022c9d	0.031780828
94	0x3df05b74	0.11736193
95	0xbed82571	-0.42216066
96	0x3e9169b8	0.2840097
97	0xbe117b38	-0.1420716
98	0xbebe5463	-0.37173757
99	0xbc81f5a5	-0.015864203
100	0x3e188d68	0.14897692
101	0xbe011425	-0.12605341
102	0xbe86158f	-0.26188323
103	0x3d2d059d	0.04224168
104	0xbf17906e	-0.5920476
105	0x3e9149e9	0.283767
106	0xbe0238bb	-0.12716953
107	0xbc0caa9d	-0.008585599
108	0xbe03d07a	-0.12872496
109	0xbedcf0d4	-0.43152487
110	0xbdc6b100	-0.09701729
111	0xbe872eea	-0.2640298
112	0xbe043eeb	-0.12914626
113	0x3e74a272	0.23890093
114	0xbc8dfc3a	-0.017332185
115	0xbdff0ee9	-0.12454016
116	0x3e3114f9	0.17293157
117	0x3e49e4c5	0.19716175
118	0xbdc1bab0	-0.09459436
119	0x3e175efe	0.1478233
120	0xbed5d009	-0.4176028
121	0xbe6fe862	-0.23428491
122	0xbe44d5c7	-0.19222175
123	0xbe836c2f	-0.25668475
124	0xbd881898	-0.06645316
125	0xbdbe79fd	-0.09300611
126	0xbe068479	-0.13136472
127	0xbe304e59	-0.17217387
128	0xbf18e917	-0.59730667
129	0xbe22943f	-0.15876864
130	0x3b0bcdb2	0.002133232
131	0xbd46f539	-0.048573706
132	0xbdf9618b	-0.12176808
133	0x3df53683	0.11973288
134	0x3d218f93	0.039443564
135	0xbe9da34c	-0.30788648
136	0xbe91c215	-0.28468385
137	0x3e5baf34	0.21453553
138	0xbe162776	-0.1466349
139	0xbc979425	-0.018503258
140	0xbdab46cd	-0.083631136
141	0xbe6c97d4	-0.23104793
142	0x3d9daafa	0.07698627
143	0xbda04e37	-0.07827418
144	0x3e51278a	0.20425239
145	0xbd6a0a3a	-0.05713866
146	0x3ddb83e5	0.10718516
147	0x3a7493fc	0.0009329913
148	0x3e604b83	0.21903805
149	0x3e285a43	0.16440682
150	0x3d8f6ad3	0.07002797
151	0xbde28635	-0.11060754
152	0xbe76a726	-0.240872
153	0x3e2f250a	0.17103973
154	0xbe9e2a3e	-0.30891603
155	0xbe25da86	-0.16196641
156	0xbe5f5d20	-0.21812868
157	0xbedec351	-0.4350839
158	0x3dc354d2	0.095376626
159	0x3dd62bac	0.104575485
160	0xbeacb66f	-0.33732936
161	0xbe87f246	-0.26552027
162	0xbb75331e	-0.0037414501
163	0xbd2aec38	-0.041729182
164	0x3e1e8b23	0.15482764
165	0x3e5cb7e8	0.2155453
166	0xbee86060	-0.45386028
167	0x3cfa71a8	0.030571774
168	0x3bf1f7d6	0.0073842807
169	0x3dfeba70	0.12437904
170	0x3d9db963	0.07701375
171	0xbdcf5e2e	-0.10125385
172	0xbe248b72	-0.16068819
173	0xbe124897	-0.14285503
174	0xbf19d593	-0.60091513
175	0xbd6c6ef3	-0.057722997
176	0xbf38901e	-0.72094905
177	0xbdc08a33	-0.094013594
178	0xbd7c92c5	-0.061663408
179	0x3e8e60ff	0.27808377
180	0x3de0e335	0.10980836
181	0xbe054b0f	-0.13016914
182	0xbd813086	-0.06308083
183	0xbe27cacd	-0.16385956
184	0xbe1c2333	-0.15247802
185	0xbea27dd5	-0.31736627
186	0x3d66c0c7	0.05633619
187	0x3d89fcaf	0.06737649
188	0xbf247a9f	-0.64249605
189	0x3d3002d4	0.042971447
190	0xbe2dba18	-0.1696552
191	0x3de65994	0.112475544
192	0xbdd57543	-0.104227565
193	0xbd7d9d70	-0.061917722
194	0xbe5f73ae	-0.21821472
195	0xbd83f470	-0.06443107
196	0x3ce5529a	0.027993489
197	0x3dba132e	0.090856895
198	0xbe7460e0	-0.2386508
199	0x3dc1326d	0.09433446
200	0xbe91cdf0	-0.2847743
201	0xbe70ac74	-0.23503286
202	0xbe99d03b	-0.3004168
203	0xbe4af88b	-0.19821374
204	0x3dd0a7d7	0.10188263
205	0xbd9b9fff	-0.07598876
206	0x3b80d1fc	0.003931282
207	0xbe027702	-0.1274071
208	0xbe33c036	-0.17553791
209	0x3dacddb8	0.08440727
210	0xbe475e10	-0.19469476
211	0xbd0df873	-0.034660768
212	0x3dbc9305	0.09207729
213	0xbdae36da	-0.08506556
214	0xbf062220	-0.5239582
215	0x3d0bbcf8	0.03411576
216	0xbe9565c3	-0.291792
217	0xbddf5bfa	-0.10906215
218	0xbeb032b1	-0.34413674
219	0xbe069343	-0.13142113
220	0x3d6b4957	0.05744299
221	0xbddc1c93	-0.107476376
222	0x3e400eea	0.1875569
223	0xbe241f37	-0.16027533
224	0xbe8bb43d	-0.27285948
225	0xbdc3544d	-0.095375635
226	0x3e0c2e56	0.13689551
227	0xbe04acd3	-0.12956552
228	0xbe88a8c0	-0.26691246
229	0xbdea0b17	-0.114278965
230	0xbe651ca8	-0.22374213
231	0xbeb1f419	-0.34756544
232	0x3c506b96	0.012720963
233	0xbd825dd9	-0.06365556
234	0xbdb599f2	-0.08867253
235	0x3e96a612	0.29423577
236	0x3d7e71c4	0.062120214
237	0x3ca3ffd5	0.020019451
238	0xbe902462	-0.28152758
239	0x3dd30716	0.10304086
240	0xbb4b345c	-0.003100655
241	0xbe6bd4ef	-0.23030446
242	0x3e941bb2	0.2892738
243	0xbc9df5c4	-0.01928223
244	0x3e3f0b27	0.18656598
245	0xbe5729c3	-0.21012025
246	0x3dabe137	0.08392566
247	0xbe2cbeb9	-0.1686963
248	0xbec32404	-0.38113415
249	0xbe990ea7	-0.2989399
250	0xbe3c18ab	-0.18368785
251	0xbea62def	-0.3245692
252	0xbeafd4b5	-0.3434197
253	0x3c61fd22	0.013793262
254	0xbdf5c628	-0.12000686
255	0x3c899289	0.016793506

conv3.nn.2.bias f4 [16]
0	0x3e4a4c05	0.19755562
1	0x3e9ff84c	0.31244123
2	0xbde6981a	-0.1125948
3	0x3ee0574e	0.43816608
4	0xbc7b742c	-0.015347522
5	0x3e08727a	0.1332492
6	0x3d746844	0.059669748
7	0x3ea7a058	0.3273952
8	0x3ec57595	0.3856627
9	0x3ea27dc9	0.3173659
10	0x3e952a5a	0.29133874
11	0x3c582172	0.013191568
12	0x3edbfea6	0.4296772
13	0x3f03b03d	0.51440793
14	0x3e5ca8ff	0.21548842
15	0x3e9287fb	0.2861937

conv3.nn.4.weight f4 [16]
0	0x3fbfad9b	1.4974855
1	0x3fd4e109	1.6631175
2	0x3faa1261	1.3286859
3	0x3fe00dc6	1.7504203
4	0x3f92b188	1.1460428
5	0x3fcfb31d	1.6226536
6	0x3fdd8dac	1.730886
7	0x3fb81a6e	1.4383066
8	0x3fcd5392	1.6041129
9	0x3fecf74c	1.8512969
10	0x3fd17cdd	1.636623
11	0x3fe7033e	1.8047864
12	0x3fb94227	1.4473313
13	0x3fb31ac7	1.3992547
14	0x3fd648b1	1.6740934
15	0x3fd51085	1.6645666

conv3.nn.4.bias f4 [16]
0	0x3ec3b8ee	0.38227028
1	0x3f3020d6	0.68800104
2	0x3e54336b	0.2072274
3	0x3f3ead63	0.7448332
4	0x3de88b3e	0.11354683
5	0x3ef7ced5	0.48399988
6	0x3ee69080	0.4503212
7	0x3ef354cd	0.47525635
8	0x3f21a829	0.6314722
9	0x3f6fe6d6	0.937116
10	0x3f20b2f5	0.62773067
11	0x3f1b4ec1	0.60667044
12	0x3f0c18f5	0.5472558
13	0x3f048dd7	0.5177893
14	0x3efaf271	0.49013093
15	0x3f054a21	0.52066237

conv3.nn.4.running_mean f4 [16]
0	0x3cfdb5dc	0.030970506
1	0x3ea4fcce	0.32224125
2	0x3ed3d12c	0.41370523
3	0x3e054c7c	0.13017458
4	0x3e2b6824	0.16738945
5	0x3ceaaad0	0.028645903
6	0x3d7f760a	0.06236843
7	0x3eae1f65	0.34008327
8	0x3d4f6ca5	0.05064072
9	0x3e62dc19	0.22154273
10	0x3dba5fff	0.09100341
11	0x3da30844	0.07960561
12	0x3d891bf4	0.06694785
13	0x3dc1b9ce	0.094592676
14	0x3c5f86a4	0.013642941
15	0x3cee7510	0.029108554

conv3.nn.4.running_var f4 [16]
0	0x3c191955	0.0093444185
1	0x3f034b1e	0.51286495
2	0x3f73ede7	0.95284885
3	0x3d36b763	0.044608485
4	0x3e298903	0.16556172
5	0x3c0ee50c	0.008721601
6	0x3d68b947	0.05681732
7	0x3f7c73f7	0.9861445
8	0x3c674c9a	0.014117384
9	0x3d94c253	0.07263627
10	0x3cd7667a	0.026293982
11	0x3d2bbb2b	0.041926544
12	0x3ced9c83	0.029005295
13	0x3d42e417	0.047580805
14	0x3b061e70	0.002046492
15	0x3bd859c2	0.006602497
