models/SKY_Pretrained/cora_gcn2_model.pth (torch, 96216 bytes, 6 tensors)

conv1.bias f4 [16]
0	0x3e08d4be	0.13362405
1	0x3e430e74	0.19048482
2	0x3e385b0d	0.18003483
3	0x3da7830b	0.08179291
4	0x3e06f40b	0.13179033
5	0x3dfe9bfa	0.12432094
6	0x3e31a225	0.1734701
7	0x3df618e2	0.12016465
8	0x3e69d981	0.22836877
9	0x3e455f90	0.19274735
10	0x3e053893	0.13009863
11	0x3d84693f	0.064653866
12	0x3e0d8068	0.13818514
13	0x3e468356	0.19386038
14	0x3dce56b7	0.10075133
15	0x3e20d2e6	0.15705451

conv1.lin.weight f4 [16, 1433]
0	0xbdeabea0	-0.1146214
1	0x3e00994f	0.12558483
2	0xbd89dec9	-0.06731946
3	0xbdc1abf0	-0.094566226
4	0x3ebf02af	0.37306735
5	0x3d8bb212	0.068210736
6	0xbd836555	-0.06415812
7	0x3ca045a8	0.019564465
8	0xbc7c629d	-0.015404371
9	0xbd93cdf2	-0.07217015
10	0xbd13f414	-0.036121443
11	0x3cbfb758	0.023402855
12	0x3dc74f1e	0.09731887
13	0xbd480cae	-0.048840217
14	0x3d8a0bc6	0.06740527
15	0x3e6df6b1	0.23238637
16	0xbd81f67d	-0.06345842
17	0xbd14c8dd	-0.03632437
18	0xba4589ae	-0.00075354695
19	0xbe4bc946	-0.19900998
20	0xbc60f188	-0.013729461
21	0xbd913104	-0.07089427
22	0xbcd87293	-0.02642182
23	0xbce9e0b1	-0.028549524
24	0x3cc90a75	0.02454112
25	0x3e52b874	0.20578176
26	0x3e842b2e	0.25814193
27	0xbb90b071	-0.0044155647
28	0x3db1a675	0.08674327
29	0xbcd9d6fc	-0.02659177
30	0xbcaf3280	-0.021386385
31	0x3d760f67	0.060073283
32	0xbd5db2de	-0.05412566
33	0x3af98a1e	0.0019038355
34	0x3d28d63b	0.04121993
35	0xbd86bd9d	-0.065791346
36	0x3c84f19f	0.016228495
37	0xbcc5b26a	-0.024132926
38	0xbe3bb40d	-0.18330403
39	0xbe2da772	-0.16958407
40	0x3ea95f7b	0.33080658
41	0xbc967c37	-0.018369777
42	0xbd828413	-0.063728474
43	0x3c9da4b5	0.019243577
44	0xbe08abc7	-0.13346778
45	0xbdcc63ff	-0.0998001
46	0xbd3d23d7	-0.046176758
47	0xbe4a9a50	-0.19785428
48	0x3dbd6771	0.092482455
49	0x3c63bbee	0.013899786
50	0xbd2f9d33	-0.042874526
51	0xbe55a3ac	-0.20863217
52	0xbd206f0f	-0.039168414
53	0xbd2b51f0	-0.04182619
54	0x3ebb6a37	0.36604473
55	0xbc556b50	-0.013026074
56	0xbda57c2c	-0.080803245
57	0x3da65648	0.081219256
58	0xbdc0529f	-0.09390759
59	0x3d47a683	0.048742782
60	0x3e5b8f62	0.21441415
61	0xbd825e8e	-0.06365691
62	0xbbab2fbf	-0.0052241976
63	0x3dfc6770	0.12324417
64	0x3ed99509	0.42496517
65	0x3e11bfa3	0.1423326
66	0xbd949168	-0.072542965
67	0xbe0d2a16	-0.13785586
68	0x3b088e10	0.002083663
69	0xbd8d5ced	-0.0690249
70	0xbc26c296	-0.010178229
71	0x3cab9ecb	0.020949742
72	0x3c9b296b	0.018940648
73	0xbe0f52dd	-0.13996454
74	0xbe418cb6	-0.18901333
75	0xbc11d105	-0.008899932
76	0xbc7c0721	-0.015382559
77	0x3db35444	0.08756307
78	0x3e739017	0.23785435
79	0xba813db6	-0.000986031
80	0x3b339934	0.0027404549
81	0xbe355d5b	-0.17711394
82	0x3dd2921c	0.102817744
83	0x3b119bd1	0.0022218118
84	0x3d0e421d	0.03473102
85	0x3c339bff	0.010962485
86	0x3d1f7ffc	0.038940415
87	0xbdb8a51d	-0.09015868
88	0x3c7965a2	0.015221985
89	0x3e1f5bc0	0.15562344
90	0xbc00eff5	-0.00786971
91	0x3d2d24c7	0.0422714
92	0xbcd80fc7	-0.02637471
93	0x3e3d8e72	0.1851137
94	0x3c18c5b8	0.009324484
95	0xbbe3b88f	-0.0069494913
96	0x3d9a8a9e	0.075459704
97	0x3d88ee02	0.066860214
98	0xbddf4582	-0.109019294
99	0xbe1b4ba9	-0.15165581
100	0xbc8b72c0	-0.01702249
101	0x3b3af898	0.002852952
102	0xbd1058e2	-0.035241015
103	0xbb23d092	-0.0024996144
104	0xbdf0f8fc	-0.1176624
105	0xbc15d33c	-0.0091446005
106	0xbc94d3aa	-0.018167336
107	0xbdb4d457	-0.08829563
108	0xbdf6f8cf	-0.12059175
109	0x3d003c9c	0.0313078
110	0x3d13c22a	0.03607384
111	0xbc739846	-0.014867848
112	0x3e5dee05	0.21672828
113	0xbc90a24b	-0.017655512
114	0x3cb5efba	0.022209037
115	0xbd0b4be2	-0.034007914
116	0x3c131898	0.008978032
117	0xbc8d9ab5	-0.017285684
118	0x3d42b378	0.047534436
119	0x3e12612e	0.14294884
120	0xbd8c1fe7	-0.068420224
121	0x3be0cbd9	0.006860238
122	0x3da674a3	0.081277154
123	0x3b9453b3	0.0045265793
124	0xbc7f0e97	-0.015567443
125	0x3d1658da	0.03670583
126	0xbdcde72f	-0.100538604
127	0xbc846565	-0.01616163
128	0x3cf88eaf	0.030341474
129	0xbc3934d1	-0.011304096
130	0x3d9d8d57	0.07692974
131	0xbe1fec22	-0.15617421
132	0xbd408e45	-0.04701068
133	0x3ca02b6e	0.019551959
134	0x3ca16d4a	0.019705433
135	0xbe32c6fb	-0.17458718
136	0x3d269184	0.04066612
137	0xbdd0b508	-0.10190779
138	0xbda79124	-0.0818198
139	0xbd74329d	-0.05961858
140	0xbe08643b	-0.13319485
141	0xbe1668ad	-0.14688368
142	0xbca9fc45	-0.020750174
143	0x3d553d82	0.05206061
144	0xbd86860d	-0.06568537
145	0xbbee91ab	-0.0072805486
146	0xbd0dec37	-0.0346491
147	0x3e37721a	0.1791462
148	0xbcdb617c	-0.026779883
149	0x3d570dbf	0.052503344
150	0x3d87117f	0.06595134
151	0x3d92b0e5	0.07162646
152	0x3d6abcdf	0.057309028
153	0xbe12d835	-0.14340289
154	0xbc6bc378	-0.014389865
155	0xbdb5bc3c	-0.088737935
156	0x3e033b0b	0.12815492
157	0xbd71551f	-0.05891907
158	0x3c388c47	0.0112639135
159	0x3c3af7ca	0.011411617
160	0xbc055846	-0.008138722
161	0x3d9d3442	0.07675983
162	0x3cdf83df	0.02728456
163	0xbc311893	-0.010809082
164	0x3d120bd3	0.035655808
165	0x3db94df1	0.09048069
166	0x3d7ffd11	0.062497202
167	0x3cdfeaf1	0.027333708
168	0xbe45cab2	-0.19315603
169	0xbd8582c6	-0.06519084
170	0x3d850521	0.06495119
171	0x3cef4fc1	0.029212834
172	0xbde650ca	-0.11245878
173	0xbca176eb	-0.019710025
174	0xbce5ee93	-0.028067863
175	0xbca2486f	-0.01980993
176	0xbd5bb1a2	-0.0536362
177	0x3d025830	0.031822383
178	0xbdbbe465	-0.09174422
179	0xbcb11e3f	-0.021620868
180	0x3cc48c72	0.02399275
181	0xbac1fe29	-0.0014800477
182	0xbcbafded	-0.02282616
183	0x3d082364	0.033236876
184	0x3db64513	0.088998936
185	0x3d65fc9e	0.056149118
186	0x3c88ba87	0.016690506
187	0x3e446cb2	0.19182089
188	0x3c7286af	0.014802619
189	0x3d9ece1e	0.077541575
190	0xbd06acb7	-0.032879557
191	0x3dac39b5	0.08409444
192	0x395b3000	0.00020903349
193	0xbe726762	-0.2367225
194	0xbd408c99	-0.047009084
195	0xbb5caaa5	-0.0033671048
196	0x3d04f162	0.032456763
197	0xbcb091a0	-0.021553814
198	0x3c5829ef	0.0131935915
199	0x3c093ac2	0.008375825
200	0xbc36379a	-0.011121655
201	0xbb3755b0	-0.0027974658
202	0xbc9be071	-0.01902792
203	0xbc33a784	-0.010965232
204	0x3b95f133	0.0045758723
205	0x3d897b7c	0.06713006
206	0xbd56d9fa	-0.052453972
207	0xbd56e5aa	-0.05246512
208	0x3c112ae1	0.008860321
209	0xbc134849	-0.008989402
210	0x3d836f9e	0.06417774
211	0x3dd76f02	0.1051922
212	0x3d08907f	0.033340927
213	0x3c984683	0.01858831
214	0xbcf3d24f	-0.029763369
215	0xbdc7dddb	-0.097591124
216	0x3bc9b86f	0.0061560194
217	0x3d053e86	0.03253033
218	0xbdd52080	-0.104065895
219	0xbd322136	-0.043488704
220	0xbda53b86	-0.08067994
221	0xbdbf6051	-0.09344543
222	0x3de85214	0.1134378
223	0x3c06d320	0.008229047
224	0x3ce8401a	0.028350879
225	0xbd41f684	-0.047354236
226	0x3ddada83	0.10686209
227	0xbdd60a3b	-0.1045117
228	0xbe0a40d7	-0.13501297
229	0xbd44204e	-0.04788237
230	0xbca6dc04	-0.020368584
231	0xbdc75323	-0.09732654
232	0xbd116143	-0.035493147
233	0x3cbb49c3	0.02286232
234	0x3e7d2390	0.24720597
235	0x3c001f26	0.007819926
236	0x3de545da	0.11194964
237	0xbd15f99b	-0.036614995
238	0xbd41a555	-0.047276814
239	0x3d6d629f	0.05795538
240	0xbdfe357f	-0.12412547
241	0xbd71e3a9	-0.059055004
242	0x3d29b908	0.041436225
243	0x3d2e92c7	0.042620447
244	0x3d8d0526	0.068857476
245	0x3d4ab3b5	0.04948779
246	0xbdb797d2	-0.08964504
247	0x3e3a9918	0.18222463
248	0x3c6403fe	0.013916967
249	0x3ccb9325	0.024850437
250	0x3d210d67	0.039319422
251	0x3b393817	0.0028262192
252	0x3d49798b	0.049188178
253	0xbd9bf253	-0.07614579
254	0x3d2269bb	0.039651614
255	0x3d963270	0.07333839

conv2.bias f4 [16]
0	0x3d7a5176	0.061112843
1	0x3e18a589	0.14906897
2	0x3df08999	0.11744995
3	0x3e416423	0.18885855
4	0x3e2721c3	0.16321473
5	0x3e17b7a5	0.14816149
6	0x3e883149	0.26600102
7	0xbd777f87	-0.060424354
8	0x3dc65c05	0.0968552
9	0xbd140c6e	-0.036144666
10	0x3cfa22fc	0.03053426
11	0x3e839b75	0.25704542
12	0x3e126dba	0.1429967
13	0x3d8aa783	0.067702316
14	0x3ea3d706	0.31999987
15	0x3e11fb38	0.14255989

conv2.lin.weight f4 [16, 16]
0	0xbedfbaad	-0.4369711
1	0x3df11d95	0.117732204
2	0x3f05f68c	0.52329326
3	0x3e5e634e	0.21717569
4	0xbee56fd6	-0.44811887
5	0x3a82bfda	0.0009975389
6	0xbf078e15	-0.52951175
7	0x3c2e1026	0.010623967
8	0xbf387726	-0.72056806
9	0x3e97ee14	0.29673827
10	0xbf4de0bd	-0.8042105
11	0x3f14563a	0.5794407
12	0x3f82767f	1.0192412
13	0x3e26ee32	0.16301802
14	0x3e895859	0.26825216
15	0x3f0a4af1	0.540206
16	0xbe12ed8d	-0.14348431
17	0xbc0304b4	-0.007996727
18	0x3d9ac41e	0.07556938
19	0x3f7d53c3	0.98955935
20	0xbe1bfc2d	-0.15232916
21	0xbdbfdbf0	-0.093681216
22	0xbdd3b0e3	-0.10336473
23	0x3f117295	0.56815463
24	0xbf585235	-0.8450044
25	0x3dc43a39	0.095814176
26	0xbe64acb6	-0.22331509
27	0x3f785e49	0.9701887
28	0x3e25099e	0.1611695
29	0xbe8f4281	-0.27980426
30	0x3f365e83	0.71237963
31	0xbd91fd26	-0.07128362
32	0x3f3f6421	0.7476216
33	0xbf2a7a8f	-0.6659326
34	0x3f2b8894	0.67005277
35	0x3f253382	0.6453172
36	0x3f4836de	0.7820872
37	0x3e89a639	0.2688463
38	0xbd83bf25	-0.06432942
39	0x3f2eeee4	0.6833327
40	0xbe20db7a	-0.15708724
41	0x3a0bd735	0.00053344975
42	0x3c54a380	0.012978435
43	0x3e8c8687	0.27446386
44	0xbf270b1a	-0.65251315
45	0xbd8598b9	-0.0652327
46	0x3f901343	1.1255878
47	0xbf1f62b9	-0.62260014
48	0x3e015746	0.12630948
49	0x3f1d03f8	0.6133418
50	0x3ee67cdc	0.45017135
51	0xbe070f65	-0.13189466
52	0x3df291a3	0.11844184
53	0xbc40bbb1	-0.011763499
54	0xbf6ec366	-0.93266904
55	0x3ece64a0	0.40311146
56	0x3d8eedb8	0.06978935
57	0xbf62b3f6	-0.8855585
58	0xbf4011ea	-0.75027335
59	0xbdcfb009	-0.10140998
60	0x3dbe683f	0.09297227
61	0x3f32f6e3	0.6990797
62	0xbf0eea5b	-0.5582635
63	0x3f58c034	0.8466828
64	0x3eca6f3e	0.39537996
65	0x3ee2fc4d	0.44333115
66	0xbf3b43a2	-0.73150074
67	0xbe423679	-0.18966092
68	0xbf1cbd26	-0.6122612
69	0xbec0b3bd	-0.3763713
70	0x3f2f404b	0.6845748
71	0x3edb6ca2	0.42856318
72	0x3e6683a6	0.22511157
73	0x3f72b4ce	0.94807136
74	0x3e64a819	0.22329749
75	0x3f3e9ff9	0.7446285
76	0x3f191ad1	0.59806544
77	0xbf389808	-0.7210698
78	0xbecf08a9	-0.40436295
79	0xbddd664c	-0.10810527
80	0x3f1bbfdd	0.60839635
81	0x3ec02dfe	0.3753509
82	0xbd89ba34	-0.067249686
83	0xbea8f666	-0.33000487
84	0x3e55a8f4	0.20865232
85	0xbea575c7	-0.3231642
86	0xbe2c7723	-0.16842322
87	0x3ef61e61	0.48070052
88	0x3f68b105	0.9089511
89	0xbf1b51bb	-0.60671586
90	0x3b5b0e9c	0.0033425456
91	0xbe9c0c43	-0.30478105
92	0xbf2b829b	-0.66996163
93	0xbc140816	-0.009035131
94	0xbf134835	-0.57532054
95	0x3f0f1c33	0.55902404
96	0xbf18fbb5	-0.59759074
97	0x3edbe9ca	0.42951804
98	0xbf152aa1	-0.5826817
99	0x3f08f208	0.5349431
100	0x3cafe20c	0.021470092
101	0x3dfb54a9	0.12272007
102	0x3ef1f5b5	0.47257772
103	0xbed901c0	-0.42384148
104	0x3f09aec7	0.53782314
105	0x3e789819	0.2427677
106	0x3f5c03a2	0.85943043
107	0xbee98d8d	-0.45615807
108	0xbec46f60	-0.38366222
109	0xbe8d79bf	-0.27631947
110	0x3f25854e	0.6465653
111	0xbe50384a	-0.20333973
112	0x3f5d4100	0.8642731
113	0xbf085897	-0.5326018
114	0xbc2d3df0	-0.010573849
115	0x3e33b8d3	0.17550974
116	0x3f9180bb	1.136741
117	0x3f24fff8	0.6445308
118	0x3d0ef8d7	0.03490528
119	0x3f35c9a3	0.710108
120	0xbedbbdf3	-0.42918357
121	0x3e1a9d0e	0.15098974
122	0x3ebf1471	0.37320283
123	0x3e393130	0.1808517
124	0xbebe5b88	-0.37179208
125	0xbeaea5cc	-0.34110868
126	0x3ee000ab	0.4375051
127	0xbf4b916a	-0.7951876
128	0x3f466eba	0.77512705
129	0xbe2860cf	-0.1644318
130	0x3e84c13a	0.2592867
131	0xbf319611	-0.6936961
132	0xbe3593be	-0.1773214
133	0x3c34f890	0.01104559
134	0x3f4ef207	0.80838054
135	0x3e3d87bf	0.18508814
136	0x3f9028c7	1.1262444
137	0x3f480f3a	0.78148234
138	0x3bacf4c6	0.0052782027
139	0xbe2267e4	-0.15859944
140	0xbc618cdc	-0.013766494
141	0xbdea3766	-0.11436348
142	0xbf078233	-0.52933043
143	0xbe085b9e	-0.13316199
144	0x3ed88ef7	0.42296574
145	0xbda7d3c8	-0.08194691
146	0x3e9b69ff	0.30354306
147	0xbf5bc212	-0.85843
148	0x3f4a6ba4	0.79070497
149	0x3f8138fb	1.0095514
150	0xbe26f9ca	-0.16306224
151	0xbe3dc25f	-0.18531178
152	0xbe9268b6	-0.28595513
153	0x3dc0a53b	0.09406515
154	0xbf40411f	-0.75099367
155	0x3dae0699	0.08497352
156	0x3f481ab7	0.78165764
157	0x3e3ac859	0.18240489
158	0xbebeacb7	-0.37241146
159	0x3da373e1	0.079810865
160	0x3f411f79	0.7543865
161	0xbe772190	-0.24133897
162	0x3f2db9d6	0.6786169
163	0xbf6c6c82	-0.9235307
164	0x3f243a87	0.64151806
165	0x3f3a4d28	0.7277398
166	0xbe6b597a	-0.22983351
167	0x3d15b6ae	0.03655117
168	0xbdbeb79b	-0.09312364
169	0x3eae10c7	0.33997175
170	0xbf609ba9	-0.8773752
171	0xbe66e150	-0.22546887
172	0x3ecc89c7	0.39948866
173	0x3eef1c5f	0.46701333
174	0xbebc906a	-0.3682893
175	0xbd669fe1	-0.056304816
176	0xbe65201b	-0.22375529
177	0x3f3f5cd4	0.7475102
178	0xbefaa3f5	-0.48953214
179	0x3ea74213	0.32667598
180	0x3ef98f5c	0.48742187
181	0x3f546548	0.8296704
182	0x3f24b279	0.6433483
183	0xbe84a8b7	-0.2590997
184	0xbd2bc840	-0.04193902
185	0x3eddc128	0.4331143
186	0x3f2ec98c	0.68276286
187	0x3f0336f0	0.512557
188	0x3f56cbb2	0.83904564
189	0xbf5c4fe6	-0.86059415
190	0xbd725639	-0.05916426
191	0xbe4e20ca	-0.20129696
192	0x3f1b6f30	0.60716534
193	0xbf146533	-0.5796692
194	0x3f56e098	0.8393645
195	0xbe618cb0	-0.22026324
196	0xbf10e9fc	-0.5660703
197	0xbeec9752	-0.46209198
198	0x3ea1612d	0.31519452
199	0x3e3b01a7	0.18262349
200	0x3f563d18	0.8368697
201	0x3f931294	1.1490045
202	0xbe35f449	-0.17768969
203	0xbd586ffd	-0.052841175
204	0xbdc681d8	-0.096927345
205	0x3f3f5d61	0.7475186
206	0x3ef89b97	0.48556206
207	0xbe940230	-0.2890792
208	0x3edb9218	0.42884898
209	0x3c4cf8d7	0.0125105
210	0x3e63ce33	0.22246628
211	0x3f015ffa	0.50537074
212	0xbf270462	-0.6524106
213	0xbf72e8c0	-0.948864
214	0xbf3435ad	-0.703944
215	0x3f6434ed	0.8914326
216	0x3ee4c553	0.44681796
217	0xbf23bb8d	-0.63958055
218	0xbf108730	-0.5645628
219	0x3f0f72e7	0.560347
220	0xbf1f1eff	-0.6215667
221	0x3f053aa6	0.52042615
222	0x3e0431ee	0.12909672
223	0x3f4c97a6	0.799189
224	0xbe0e3fc8	-0.13891518
225	0x3f8811f8	1.0630484
226	0xbe51c6ec	-0.20486039
227	0xbead2aa1	-0.33821586
228	0x3ed63ad7	0.41841766
229	0x3eb79b1e	0.35860533
230	0x3e58d4f8	0.21174991
231	0xbee5ca5b	-0.44880947
232	0x3f554b83	0.83318347
233	0xbef47296	-0.47743672
234	0x3f86dea4	1.0536695
235	0xbf60998e	-0.87734306
236	0xbd9eaaae	-0.07747398
237	0x3ecd0d08	0.40049005
238	0xbe713111	-0.23553874
239	0x3f098d47	0.537312
240	0xbf1d2a51	-0.61392695
241	0xbdd397f0	-0.10331714
242	0x3eb6a968	0.35676122
243	0x3f1f3894	0.62195706
244	0x3efad506	0.4899065
245	0x3f0e7a73	0.5565559
246	0xbf00813c	-0.50197196
247	0xbeab5242	-0.33461195
248	0xbf2d4373	-0.67681044
249	0xbefb6ad0	-0.4910493
250	0x3edb218d	0.42799035
251	0xbee0d7be	-0.43914598
252	0xbe3aa6a3	-0.1822763
253	0x3f61eff3	0.8825676
254	0x3f4e3684	0.80551934
255	0x3d0c9236	0.034319125

conv3.bias f4 [7]
0	0xbecc6504	-0.3992082
1	0x3eaa414d	0.33252946
2	0x3e2091db	0.1568064
3	0x3f331f55	0.69969684
4	0xbe25dce4	-0.16197544
5	0xbea083d9	-0.31350592
6	0xbe35f7da	-0.17770329

conv3.lin.weight f4 [7, 16]
0	0x3e81882c	0.25299203
1	0x3f019934	0.50624394
2	0x3f0eecbb	0.5582997
3	0xbf3fa571	-0.7486182
4	0x3f0df757	0.55455536
5	0xbf58ac55	-0.8463796
6	0xbf0d0721	-0.55089
7	0x3ecc12ed	0.3985819
8	0x3f318014	0.69336057
9	0x3ef62f75	0.48083082
10	0x3f129087	0.5725178
11	0x3ee53a96	0.4477126
12	0x3eed1d6e	0.46311516
13	0xbe747704	-0.23873526
14	0xbf9d2494	-1.2276788
15	0xbef9a39f	-0.48757645
16	0x3f0e62d6	0.5561956
17	0x3f3b5c6c	0.731879
18	0xbf351444	-0.7073405
19	0x3f244c09	0.6417852
20	0x3f20eb3c	0.6285894
21	0x3ea3f6c2	0.320242
22	0xbe1ab316	-0.15107378
23	0xbf8fdd00	-1.1239319
24	0xbf205286	-0.6262592
25	0xbec77cf9	-0.38962534
26	0xbf826bd3	-1.0189155
27	0x3ed002bd	0.4062709
28	0xbf9d1127	-1.227086
29	0x3f5627a3	0.8365423
30	0xbd3d623d	-0.046236265
31	0xbf865729	-1.0495349
32	0x3ee01073	0.4376255
33	0xbf99aaa8	-1.2005205
34	0xbf487f26	-0.78319013
35	0x3f335fea	0.7006823
36	0xbf760714	-0.9610455
37	0xbe20911f	-0.1568036
38	0xbf085a03	-0.53262347
39	0xbf89a9b2	-1.0754912
40	0xbeca4913	-0.39508876
41	0x3f33bc1a	0.70208895
42	0x3f426901	0.75941473
43	0x3e45fbca	0.19334331
44	0xbeea5f89	-0.45776013
45	0xbe589644	-0.21151072
46	0x3ea3bdd6	0.3198077
47	0x3f29eb23	0.66374415
48	0xbf6bebe0	-0.9215679
49	0xbf7b9c75	-0.9828561
50	0xbf476ec8	-0.77903414
51	0xbf4c4098	-0.7978606
52	0x3f3f68a0	0.7476902
53	0x3e08cec2	0.13360122
54	0x3f602efe	0.87571704
55	0xbf3a62cf	-0.7280702
56	0x3f7f1ad7	0.9965033
57	0xbf7edac6	-0.9955257
58	0xbf422b88	-0.75847673
59	0x3f0ac5ff	0.5420837
60	0x3ed16c3a	0.40902883
61	0xbf03fad7	-0.51554626
62	0x3eb33cb8	0.35007262
63	0xbf02e27c	-0.5112684
64	0xbf4e1fd0	-0.8051729
65	0x3ec9071b	0.39263234
66	0x3f345280	0.70438385
67	0xbf429f08	-0.7602391
68	0xbeb47644	-0.3524648
69	0xbf1bcaa1	-0.6085606
70	0x3f64084e	0.8907517
71	0x3f128e47	0.5724835
72	0xbf5ab49d	-0.85431844
73	0xbeaf4dc8	-0.3423903
74	0xbefaab99	-0.48959044
75	0x3f20e99a	0.6285645
76	0xbf8958bc	-1.0730205
77	0xbf075336	-0.52861345
78	0x3e407c56	0.1879743
79	0x3f5a5027	0.8527855
80	0xbf44499f	-0.76674837
81	0xbf1b0ac4	-0.605633
82	0x3efa37a9	0.4887059
83	0x3f11b7dd	0.5692118
84	0xbec60add	-0.38680163
85	0x3f837a5c	1.0271716
86	0xbf44db8e	-0.76897514
87	0x3db2ffc0	0.08740187
88	0x3f496944	0.7867625
89	0x3cfaf524	0.03063447
90	0x3f03d7bd	0.51501065
91	0xbf79df6f	-0.9760656
92	0x3ef4b703	0.47795877
93	0x3f4ec782	0.80773175
94	0xbd32e22e	-0.043672733
95	0xbe89a849	-0.26886204
96	0x3ef60ecc	0.48058164
97	0x3f2481f3	0.64260787
98	0x3f34913d	0.70534116
99	0x3e32fa74	0.17478353
100	0xbf791bad	-0.97307855
101	0xbf2626c0	-0.6490288
102	0xbd91f02b	-0.071258865
103	0xbe5a71e7	-0.21332513
104	0xbead2cd4	-0.33823264
105	0xbf5fd915	-0.87440616
106	0xbd8b325d	-0.067967154
107	0xbf80ce80	-1.0063019
108	0x3f380d44	0.7189524
109	0x3f5df239	0.8669773
110	0xbf98aea0	-1.1928291
111	0x3f4379ed	0.7635792
