models/SKY_Pretrained/cora_gat_model.pth (torch, 810402 bytes, 12 tensors)

conv1.att_src f4 [1, 8, 16]
00000000: 6a86 df3d bb43 1a3e 1071 4c3e 565c a23e
00000010: 9571 8bbd 56ec 8f3c 293d b0bd eac3 003e
00000020: c356 e43d 9339 29be 7d31 e43d 14ca 9b3b
00000030: 574c 21be e8f5 2a3c d799 843e 4d07 313e
00000040: 40b6 1a3e 7b4b a13d 8b2d 72be f0e8 883d
00000050: 8f11 2e3e 06cb 2dbd 03ea 913d 8e14 7dbc
00000060: 9286 5dbd 18ea 15be 34b9 de3d 3bec 193e
00000070: 44a7 12be e6de 81be f0da d83d 63a6 44bc
00000080: a94b a93e c982 94bd 87a9 5a3d b271 2cbe
00000090: fdae 02be cdfe b93e 7465 02bd bdad 53be
000000a0: c081 163c a0e5 693e 695b 213d e448 4dbe
000000b0: 0550 5dbe 58ac deba 01be 47be 0dc2 07be
000000c0: c677 5abe bcb6 b13c 1559 8c3d 5d79 123e
000000d0: f357 a03c f172 3b3e 6b53 3b3c 22ea 1b3e
000000e0: dc40 743e 45d3 383d 929d 22bd 9c8a a43e
000000f0: 23c7 2a3e e494 9fbd 1f1d 52be ae3c 1d3e
00000100: 6e01 dd3d 76cf 59bd dd53 963d 94fd 12bd
00000110: e47b b03e 5cbe 703e 9f05 27be 33eb 19be
00000120: c55b adbd d9e9 49be 4971 2e3e f308 173e
00000130: ae6a 373e 5044 64be 42bb ea3d 3d5a a83d
00000140: 8363 5dbe 8116 46be f64f b33a 12b1 b13d
00000150: 5484 a7bc 33d7 b93e 823a 013e 6e6a 053e
00000160: 963e 683c 8549 2f3e 12a4 b4bd 755f f0bc
00000170: c295 153c 7d0f 8cbb 21f0 7abe 709b d43c
00000180: 2607 8dbe de5e 02be 6ce6 3abe a71c 643e
00000190: 7000 f83a 78d6 16be b8be 873e ac7f 833e
000001a0: d2fc 033e 26fc a6bd 72f3 063d c256 c53d
000001b0: 0a36 7c3e 9a51 1cbe d965 ab3e 17f4 3dbe
000001c0: 3866 16be 570d babd daef be3d 15b6 49be
000001d0: 0152 c43e a615 2bbd fada ff3d 5500 29be
000001e0: 1f36 493c eeb6 e9bd f9f9 c63d 33e7 c0bd
000001f0: 4cc7 2fba d43d 97be 7096 333e d954 823e
0.10914309 0.150649 0.19965005 0.31711072 -0.068087734 0.017568748 -0.086054154 0.12574735
0.11149361 -0.16525869 0.11142252 0.004754314 -0.15751778 0.010434605 0.2589862 0.17287941
0.15108585 0.07875725 -0.23650186 0.06685054 0.16998886 -0.042429946 0.07124712 -0.015446795
-0.054083414 -0.14640081 0.108751684 0.15031521 -0.1432162 -0.2536537 0.10588634 -0.01200256
0.33065537 -0.07251508 0.05338433 -0.16840246 -0.12762065 0.3632721 -0.031835034 -0.20671745
0.009186208 0.22841501 0.039393816 -0.20047337 -0.21612556 -0.0016988618 -0.19506074 -0.13257618
-0.21334752 0.02169358 0.068529285 0.14304109 0.019573187 0.18305565 0.011433463 0.15226033
0.23852867 0.045123357 -0.039701052 0.32137 0.16677527 -0.077920705 -0.20518921 0.15355179
0.10791288 -0.053176366 0.073402144 -0.035886362 0.3446952 0.23510116 -0.16310738 -0.15031128
-0.08464769 -0.19718112 0.17035402 0.14749508 0.17911789 -0.22291684 0.11461498 0.082203366
-0.21619992 -0.19344522 0.0013680446 0.086763516 -0.020448841 0.36296996 0.12619975 0.13028881
0.014175078 0.17117889 -0.088203564 -0.029342392 0.009129943 -0.0042743073 -0.24505664 0.025953025
-0.27544516 -0.12731501 -0.18251961 0.22276555 0.0018921029 -0.14730251 0.26512694 0.25683343
0.12889412 -0.08153562 0.03294701 0.09635688 0.2462999 -0.15265504 0.3347614 -0.18550144
-0.14687431 -0.090845756 0.09323092 -0.19698365 0.38343814 -0.041768692 0.12492938 -0.16504033
0.01228097 -0.11411844 0.09715647 -0.09419098 -0.0006705418 -0.2953936 0.17537856 0.2545536

conv1.att_dst f4 [1, 8, 16]
00000000: 6ffc 1b3e ea91 e0bd eabd d7ba 9ffe 353d
00000010: 4aff 323e e468 133d 15b2 58bd 022a 853d
00000020: baba 183b af6b 1d3d c8db e03c 66b0 273e
00000030: 25de 30bd 1dcc 55bd dd69 fb3d d006 8ebd
00000040: ad36 92bd fee2 6ebd 1b21 40bd e819 a33d
00000050: dff3 35bc 29a8 7cbd 866c 453e c55b 00bd
00000060: 8b61 d0bd 69d6 39bd 1d54 133e 9b66 3b3e
00000070: d57a 2cbe 0b6f ee3d 1c9a 833d d09e dcbd
00000080: d40e 513b d72d b4bd 9328 9bbd 0f56 26bd
00000090: c905 1c3d fd30 6c3d 39da 1fbd 94a0 1bbe
000000a0: 55d4 41bd 1457 babc f848 02be dcc3 6c3d
000000b0: 4d44 673d 9a6c 84bd 8682 3ebd 309d e3bd
000000c0: c667 97bd 7e3b 12be 33e7 6c3d 460e f2bc
000000d0: 815f 033e 7ebb f73d f8c0 dbbd 612b 1f3d
000000e0: e93f 99bb 57a0 023d b045 20bd 5b01 653e
000000f0: 61c0 dd3d a5c3 1a3e 099c 293d 6c47 823c
00000100: 3698 163e 7128 acbd 8ee7 313e e7ec 6b3d
00000110: 8dda 9ebc 518a c33c fa87 153d cb49 d7bc
00000120: 0630 873d 715f 423e 66a3 9bbc 54a1 82bc
00000130: edfa 19bd 77fb eabd b2cb bb3d 1eec 7c3c
00000140: 53df 953b b1bc 433e e557 8fbd 6faa a1bd
00000150: 528b d2bd 0c7b d73d d5bc b6bd d668 453e
00000160: ce5f 893c ad68 953d 0e46 8cbc 312e babc
00000170: 2a2a 1ebc 25b0 b43c c1be 77bd a6a9 2dbd
00000180: 4ae8 b0bd 4d39 80bc 6010 41be f69f 72bc
00000190: 9846 57bc 174b 0a3d 66d0 92bd 301e 16bd
000001a0: f6be 46be 7076 3ebe 44b3 f73d 632b 7c3c
000001b0: 9f23 79bc ca7f 703b 896c 113e 9026 723d
000001c0: 3882 9fbd 18ed c43c 5d26 5dbe d335 c9bb
000001d0: 8609 25bd e52b 3dbd fd7b d8bd e554 05bb
000001e0: fec9 c3bd 3772 233e 324b e9bc 944e 0fbd
000001f0: 6c52 95bc 9fdd 3bbe 8b2d 0d3d ec07 803d
0.15233015 -0.10965331 -0.0016459797 0.04443228 0.17480198 0.035988703 -0.052904207 0.06502153
0.0023304657 0.038432773 0.02744855 0.16375884 -0.043180604 -0.05219661 0.12276051 -0.06934893
-0.07139335 -0.058321945 -0.04690657 0.079639256 -0.011105507 -0.061683808 0.1927968 -0.03133752
-0.10174855 -0.045370493 0.14387555 0.1830086 -0.16843732 0.116422735 0.064258784 -0.107724786
0.0031899707 -0.08797806 -0.07576098 -0.040609416 0.038091455 0.057663906 -0.039026473 -0.15197974
-0.047321636 -0.0227466 -0.12723148 0.057803974 0.05646162 -0.064660266 -0.046511196 -0.111139655
-0.0739284 -0.14280507 0.057837676 -0.029547822 0.128294 0.12096308 -0.10730165 0.03885973
-0.004676808 0.031891193 -0.03912896 0.22363798 0.10827709 0.15113695 0.041408572 0.015903197
0.14706501 -0.08406151 0.17373487 0.057598975 -0.019391323 0.023869665 0.03650663 -0.026280304
0.066009566 0.1898172 -0.018998813 -0.015946068 -0.037592817 -0.11473744 0.09169711 0.015437154
0.0045737415 0.19114949 -0.069991864 -0.07893836 -0.102804795 0.10521516 -0.089227356 0.19278273
0.016769316 0.07295356 -0.017123248 -0.022727104 -0.009653607 0.022056649 -0.06048465 -0.042398117
-0.086380556 -0.015652323 -0.18853903 -0.0148086455 -0.013139389 0.033763018 -0.07168655 -0.036649883
-0.19408783 -0.18599868 0.12094739 0.015391204 -0.015206247 0.0036697262 0.14201559 0.059118807
-0.07788509 0.024038836 -0.21596666 -0.0061404496 -0.040292285 -0.04618444 -0.10570524 -0.002034479
-0.09560011 0.15961538 -0.028478239 -0.034987047 -0.018227778 -0.1834626 0.03446726 0.06251511

conv1.bias f4 [128]
00000000: 9958 10bd e4d6 333d 3f82 33bd c588 653d
00000010: 7ba4 40bd 1a6d 6c3c feb0 4a3d d5c8 293d
00000020: c951 08bd 9c3f 00bd 2898 3a3d aa64 8d3c
00000030: 8c8a 84bc fd90 553d 0002 d938 1435 64bb
00000040: b58c cebc 2693 d5bc d120 543c 89a8 1f3c
00000050: 9cfe 3a3d a103 023d b2f4 05ba 94c8 2bbc
00000060: a309 0dbd 9935 a23c 3646 f13c 63a2 8d3c
00000070: 90bf 7cbc c666 1dbb 7a23 663c e7df 81bd
00000080: 0c67 803c 830d 4d3c 7414 9d3c 19af 8dbc
00000090: 8eb6 4fbd 7dc3 97bc 9f44 11bc 38c2 89b9
000000a0: 3d63 f4bc c4d8 9f3d f2f8 12bd 93da c6bb
000000b0: e99a de3c c308 9c3c 9548 b4bb 9a8b 17bb
000000c0: ba9f 55bc 2e76 13bd df4e 413d 4173 a13c
000000d0: c3d1 03bd 6f85 ed3c 37e5 d03c 19b8 61bc
000000e0: 8697 123c 48e6 93bc 8d60 93bc 8f25 083d
000000f0: 8820 413c 446f 7f3c bcb3 5cbd ab55 073c
00000100: 31d2 213d 623e df3c 1dcc 05bd 7c92 7a3d
00000110: 6510 143d 9fb1 413d 0068 95bc 219f ea3c
00000120: da12 223d fb81 c1bc 2702 303d d4ad 823d
00000130: 8a04 fa3c c490 573c 1023 e9bc 1b2b d13c
00000140: 09f3 03bd db5d 6ebd 5617 263d 72dc e5bc
00000150: 308f 773c d60a f7bb 4880 af3d 1c41 b7bb
00000160: d043 f73a cd7f 72bc 51fd b33b 352d 3c3d
00000170: 4c6e d53b 603a 7d3c e632 0dbd 5d94 003d
00000180: 1eaa 84bc 67bf 803b 82cd 333c e468 c23c
00000190: 41f4 8bbc 229f ecbb 3357 bb3c 11f3 89bc
000001a0: 30f7 d33c 9843 61bc 3105 5b3c 0403 eb3c
000001b0: 1cae f73c 0adb 3bbc c558 56bc 45b6 833c
000001c0: 3002 6cbc 947c 2d3d 5e30 5dbc 303c 213c
000001d0: c2cd 283d c66d 7abb 4671 373b f4d0 1cbd
000001e0: 8bad cebc f582 a6bc 0953 1bbc 9dae 8ebc
000001f0: 405f 1d3c 20b4 333c 27b7 edbc e9d6 ffbc
-0.035240743 0.043906108 -0.043825384 0.056038637 -0.04703186 0.014430309 0.0494852 0.041451294
-0.03328112 -0.031310663 0.045555264 0.017259914 -0.016179346 0.052140225 0.00010347739 -0.0034821676
-0.025213579 -0.026071142 0.012947277 0.009744772 0.04565297 0.031741742 -0.000511001 -0.010484833
-0.03443302 0.019800948 0.029452424 0.017289346 -0.015426531 -0.0024017557 0.014046544 -0.06341534
0.015674137 0.0125154285 0.019174792 -0.017295407 -0.050711207 -0.018525833 -0.008866458 -0.0002627538
-0.029832477 0.07805017 -0.035881944 -0.0060685365 0.027173476 0.019047147 -0.0055018165 -0.002312398
-0.01303857 -0.036001377 0.047194358 0.019708278 -0.032182466 0.02899429 0.025499923 -0.013776802
0.008947259 -0.018054143 -0.017990375 0.033238944 0.011787541 0.015590493 -0.053882346 0.008260171
0.039507095 0.027251426 -0.03266536 0.061174855 0.036148448 0.047288533 -0.018238068 0.028640332
0.03956876 -0.02362155 0.042970803 0.06380811 0.030519743 0.013157073 -0.028459102 0.02553325
-0.0322142 -0.058194976 0.0405496 -0.028059218 0.015109822 -0.0075391335 0.085693896 -0.0055924784
0.0018864814 -0.014800978 0.005492844 0.04594155 0.0065133926 0.015455812 -0.03447237 0.03139149
-0.0161944 0.003929067 0.01097429 0.023731656 -0.017084243 -0.0072211185 0.022868728 -0.016839536
0.025874704 -0.013749026 0.013367937 0.028687961 0.030234389 -0.011465797 -0.013082688 0.016078124
-0.014404818 0.042355135 -0.013500301 0.00984101 0.04121185 -0.0038212403 0.00279911 -0.03828521
-0.025229236 -0.020326117 -0.009480246 -0.017417246 0.009605229 0.010968238 -0.029017998 -0.031230407

conv1.lin.weight f4 [128, 1433]
00000000: 8e96 193d 2828 8dbd d9b4 583d 8e85 68bc
00000010: 840f 16be 03df 9f3b 824c 8dbd 752b 083e
00000020: d2bb 6cbd 9cc4 8b3c 0420 0c3b 46ae 9bbd
00000030: c5d9 22bc deed b0bd c0c3 973d ad6a 2dbd
00000040: 6f06 66bc 64c7 9bbc d09d ca3c ca7c 733c
00000050: 9630 49bc 1405 793d aa30 973d e460 74bc
00000060: 5314 6f3d e371 4a3c b3b3 9bbd 9262 2abd
00000070: c785 7ebd 9197 2abd 181e b33d d7af 17bd
00000080: 58ad 893d d868 c8bc af2f a53d 0ad9 0b3c
00000090: 1d7d ddbd bfa2 033d a34b d93d bdef 033d
000000a0: 9b4b 71bd e672 89bd a7cd 183d 3882 243d
000000b0: a336 e4bc da84 8d3d 045f 753d c50e d53c
000000c0: b904 f9bd b64a 433c 1647 003e 7c44 3abd
000000d0: 4fe7 c93b 4775 ea3c a66c a7bd 5f6d debd
000000e0: f56c 11bd 3371 423d a17f 053e d958 a2bd
000000f0: f09d 723c 4543 1f3d 166d 1abd 1b06 fcbd
00000100: 2349 d0bd 9310 00bd dea6 7e3d 6ea0 87bc
00000110: 152b 92bd a0ba 8cbc 6faf 363d efe6 41bd
00000120: 37b9 9e3b a94a 58bd 7683 153d b1d6 4fbd
00000130: 55d9 013d eede 403d 4373 42bd f8c4 6bbc
00000140: b027 3b3d 15fc 503d 9dff 683d 2016 a73b
00000150: 274c a3bd e370 75bd 2f7e c4bd c78a 03be
00000160: c75b 02be 6d9d 48bd 74cc eebc 23f0 393c
00000170: 6b13 d43c 1898 693c 0a99 80bd 8c23 ed3c
00000180: 047a 913d 5601 edbc 047a d1bd 02d9 1bbd
00000190: 77b3 25bc fb61 5bbc 9f4b 1bbc bb3b 40bc
000001a0: 241b a23d e87f 04bd 2e67 423b 9ce8 173d
000001b0: 3d93 733d f35c a63a 257a cabd 509e e1bb
000001c0: 1dce f1bc a23f cfbc 33f1 45bd b86c b73c
000001d0: 9fc0 03bd 5385 103d 740c 3dbd ea8b 9cbd
000001e0: 4b1d a1bd 83ca 8fbd 2bbe d23d 8b6e 13bd
000001f0: 2219 0c3b 6214 65bd 0316 fd3d b955 7bbd
00000200: f2b7 bebd 6805 a43d ae46 593d fa22 623d
00000210: 2d4f dabc 7221 263d 7216 f2bb 53bd 993c
00000220: 6c0c ba3d 4abe d2bc 1995 033e db6d 723d
00000230: a235 73bc 0697 953d 9495 4a3c 3e1c 6bbd
00000240: ab11 c83c 7d88 de3c 6101 51bc b13f 273d
00000250: d7c0 b3ba db8e 493d 05cb 01bd ab9b 90bd
00000260: adf4 323d 1dfe d63c 1f77 3dbc 5fe5 783d
00000270: 52d6 253c f5e9 c5bc 36d2 69bc e533 b0bd
00000280: f3e2 9abd 8b7f a23d ca48 fb3c f0df a9bc
00000290: c4c0 5cbd c8ba 503d 40b5 ea3a 9822 b4bd
000002a0: 00be 9b3d 171f aa3d 6933 8ebc f2d9 10bd
000002b0: a38d 65bc 30ac c1bc 85df bdbc 60cf 7ebd
000002c0: bae8 8b3d 3bcf a3bd d07d a93d 5ea0 1abd
000002d0: 8ee0 0dbc d094 8cbc 80c8 1ebc 51a7 de3c
000002e0: 26b9 853d 00b1 68bc a66f 34bd 65a7 303d
000002f0: ca9a ad3c 5e53 d33c ad69 bb3c c55d 523d
00000300: fc7b bf3d c67d b13d d388 9cbd a014 7bbc
00000310: 90fa 14bd c72b 1fbc e8d4 553d 8d2f ee3d
00000320: 5de0 a13d e031 8dbc b083 77bd 1402 413c
00000330: 0b04 583d 12fc e23b aef2 b13d c93e 6ebd
00000340: 7dc3 fbbd 34e5 7dbc e106 c8bc 39ce 783d
00000350: 563a 273d 1211 20bc 4a58 7dbb a8bf 1fbc
00000360: 7fe1 f43b 4796 dcbc e3bd 4abc 4c30 eabb
00000370: 7a3c 6c3d bd08 113e 9ea8 203c c9fb 8f3c
00000380: 8a9e 223d ade6 db3c c935 93bd 20d7 babc
00000390: 65af ac3d a5c0 993d f089 e7bc e93e 07be
000003a0: a82e 84bd 07e5 ffbc cab2 22bd fc01 e53c
000003b0: be3f b0bc 5353 c5bc fd77 54bd 5224 31bc
000003c0: ef1c 99bd 4afd 1c3d dff8 5d3c 2151 7dbc
000003d0: 914c d7bc 5c53 6a3d 5621 adbc f88e 893c
000003e0: 66f3 7d3c df52 e13c e46b 97bb 9b16 d53d
000003f0: 3d47 f7bd e2d5 56bc 2bf1 723d 5b7e bb3c
0.037497096 -0.06892425 0.052906845 -0.014191998 -0.14654356 0.00487888 -0.06899358 0.13297828
-0.057796307 0.017061524 0.0021381387 -0.076015994 -0.009939616 -0.086391196 0.07410383 -0.042338062
-0.01403962 -0.019015975 0.024733454 0.014861295 -0.01227965 0.06079586 0.07382329 -0.014915679
0.058368992 0.012356254 -0.07602634 -0.04159791 -0.0621393 -0.04164845 0.08745974 -0.03703293
0.06722516 -0.024464056 0.080657355 0.008535633 -0.10814879 0.03213763 0.1061013 0.032211054
-0.058909994 -0.06711368 0.0373055 0.04016325 -0.027858084 0.06910105 0.059905067 0.02600802
-0.12159104 0.011919668 0.12527117 -0.045475468 0.0061616073 0.028620375 -0.0817502 -0.10860705
-0.0355043 0.047471236 0.13036968 -0.079271026 0.014808163 0.038882513 -0.03770169 -0.12305852
-0.101702 -0.031265806 0.062170856 -0.016555991 -0.071371235 -0.017178833 0.0446009 -0.047339376
0.0048438567 -0.052805576 0.036502324 -0.050741855 0.031701405 0.047087602 -0.047473203 -0.014390223
0.045692146 0.051021654 0.056884397 0.005099073 -0.07973509 -0.05992211 -0.0959438 -0.12845908
-0.12730323 -0.048978258 -0.029150225 0.011348757 0.025888165 0.014257453 -0.0627919 0.028947614
0.07103351 -0.028931301 -0.10228351 -0.03804875 -0.0101135885 -0.01339006 -0.009478479 -0.011732991
0.07915333 -0.032348543 0.002966355 0.037087068 0.05946659 0.0012692496 -0.098865785 -0.0068853274
-0.029517228 -0.025298897 -0.04832573 0.022390708 -0.03216612 0.035283398 -0.046154454 -0.07643874
-0.07866915 -0.07021048 0.10290178 -0.035994094 0.0021377285 -0.05592764 0.12357714 -0.06136105
-0.093124285 0.08008844 0.05304592 0.055209137 -0.026649082 0.04055924 -0.0073879296 0.018767035
0.090844005 -0.025725503 0.12849845 0.059186798 -0.01484433 0.07304196 0.012364764 -0.05739998
0.024422487 0.027164692 -0.012756676 0.040832225 -0.0013714087 0.049208503 -0.031687755 -0.07060941
0.043690372 0.026244218 -0.011564045 0.06076562 0.010121899 -0.024159411 -0.01427131 -0.08603648
-0.075628184 0.07934483 0.030674357 -0.020736665 -0.053894773 0.05095938 0.00179068 -0.08795661
0.07604599 0.08306711 -0.017358499 -0.0353641 -0.01401082 -0.023641676 -0.023177871 -0.062209487
0.068314984 -0.079985105 0.0827595 -0.037750594 -0.008659495 -0.017160803 -0.009691358 0.027179392
0.06529455 -0.014202356 -0.04405179 0.04312839 0.021191973 0.025796589 0.022877539 0.051358957
0.0934982 0.086665675 -0.07643285 -0.015324742 -0.036371768 -0.009715027 0.052204996 0.11630163
0.07904122 -0.017235696 -0.06042832 0.011780281 0.05273823 0.006927022 0.086888656 -0.058165345
-0.12293146 -0.015496541 -0.024417343 0.060743544 0.040827118 -0.009769695 -0.003865736 -0.009750284
0.0074731703 -0.026927127 -0.012374374 -0.0071468707 0.057674862 0.1416349 0.0098058265 0.017576115
0.039701976 0.026843393 -0.07187993 -0.022807658 0.08431891 0.07507447 -0.028264016 -0.13207592
-0.064542115 -0.031237138 -0.039721288 0.027955048 -0.02151477 -0.024087584 -0.051872242 -0.010811882
-0.07476222 0.038327493 0.013548105 -0.015461237 -0.026281627 0.057208404 -0.02113406 0.016791806
0.015499925 0.027505336 -0.004621016 0.10404702 -0.120741345 -0.013112517 0.059312027 0.0228874

conv2.att_src f4 [1, 8, 16]
00000000: 05fe 833d 4aab 0bbe 1339 cabd 94ce 01bd
00000010: 0830 b33c add8 a3bd 5e9c 83bd 7b49 2c3c
00000020: 9eae 163e 7bed 58be 1085 083c d279 94bd
00000030: c567 093e 621b 63bc 27e0 8c3d 3446 02be
00000040: c040 a7bd 0aa4 15bc c097 62bc 8915 403d
00000050: 6c73 ebbd 508f f2bd 9128 8f3c dc41 d5bc
00000060: 67ae 09bd 1275 c13c c076 7dbd 523e 24be
00000070: 78d8 94bc e124 bd3d c3f4 71bc 2963 0b3e
00000080: f8aa 973d f07f cfbc b6d0 d1bd 0485 143d
00000090: f493 eb3d cca2 efbc c5f6 913d cc02 9fbd
000000a0: 821b d4bd 30b4 a3bc 4f67 2ebd e18d 1dbd
000000b0: 4ea2 f93d 19e8 abbd c6a0 1fbd d64d c13d
000000c0: 2aa0 f4bd 41fc 093e bb4a c93d 05a6 293e
000000d0: eccf e83c 1be2 803d ed94 933d 9d17 d9bd
000000e0: ea1c d6bd 4586 2ebe 0e39 653e de75 e93d
000000f0: 383f e43a 786a dcbd 6de5 623b 38b4 993d
00000100: eed2 47be 6997 5fbc 70db 123d 0963 0a3e
00000110: f648 033d 930f 353d 5967 09be 3c3d 3dbe
00000120: 3627 1dbc 9392 e13d 3871 d7bc d026 46bd
00000130: 94ab d5bd bcdf 08be cff4 58bd 3c42 9dbd
00000140: d3c5 ad3d 4a1b 973d 9ab8 84bd 33cc b43d
00000150: 4803 0e3e 5e5e f73d f7f5 a6bc 0fc8 a2bb
00000160: 5f44 853c c65b 04bc e80b 43bb 2e82 7b3c
00000170: 8236 b5bd 1b64 433e dc28 103d 50bd 4b3e
00000180: 7dc6 353d 0b54 953d a90f e53d 9f08 45bd
00000190: 5f88 e73c d955 793c 5b82 1d3d a512 dbbd
000001a0: d4d3 573d 1eea 083e 84ea 4dbe 0dbb 24bd
000001b0: 5b42 243c 0633 853d ad7d 5a3c 2f8e 4cbd
000001c0: c1b4 1bbe 2278 983d 9345 49bd 9449 f13d
000001d0: f364 d7bd e6dd 74bd d268 5b3c 1623 b43c
000001e0: 13b0 da3d df49 273d e618 773c 62ce 3c3d
000001f0: 15ed 873d aa58 08be 0459 f73d 7498 45bd
0.06444935 -0.1363956 -0.09874167 -0.03169115 0.021873489 -0.08000312 -0.06426309 0.010515566
0.14715049 -0.21184342 0.008332506 -0.07249798 0.13418491 -0.013861509 0.06878691 -0.12722093
-0.08166647 -0.009133348 -0.013830125 0.046895538 -0.11496624 -0.11843741 0.017475398 -0.02603238
-0.03361359 0.023615394 -0.061880827 -0.16039398 -0.018169627 0.0923555 -0.014767828 0.13612045
0.074056566 -0.02532956 -0.102448866 0.036259666 0.11502829 -0.029252432 0.07127146 -0.07764205
-0.10356809 -0.019983381 -0.04257899 -0.038465384 0.1218916 -0.083938785 -0.038971685 0.09438674
-0.11944611 0.13475133 0.09828707 0.16567238 0.028419457 0.06293126 0.0720614 -0.10600207
-0.10454734 -0.17043407 0.22385046 0.113994345 0.001741386 -0.10762495 0.0034621612 0.07505077
-0.19514057 -0.013646939 0.035853803 0.13514341 0.032052003 0.044204306 -0.1341833 -0.1848039
-0.009591868 0.11014285 -0.026299104 -0.04837686 -0.104331166 -0.13366598 -0.052967843 -0.07678649
0.084849976 0.07378252 -0.064805225 0.088280104 0.13868439 0.12078546 -0.020380957 -0.0049676965
0.016267953 -0.008078521 -0.0029761735 0.0153508615 -0.08848287 0.19081156 0.035195217 0.19896436
0.044378746 0.072914205 0.111846276 -0.048103925 0.028263269 0.015218222 0.038454395 -0.106969155
0.05269225 0.13370559 -0.20108992 -0.040217448 0.010025586 0.065038726 0.0133356275 -0.049940284
-0.15205671 0.074447885 -0.049138617 0.11781612 -0.105173014 -0.05978193 0.01339169 0.021989387
0.10678115 0.040841933 0.01508162 0.04609526 0.06637017 -0.13315073 0.12077525 -0.048241094

conv2.att_dst f4 [1, 8, 16]
00000000: 0843 683e 8914 81bd a975 853d 3e10 903c
00000010: fc7c 693d 4d25 e5bc cce9 4c3d 666f 313e
00000020: 8d80 a9bd bb10 803e 81e5 28be 1793 7abd
00000030: 7afb c23c 3c0b 9d3d 8c3e 5bbd 701f 4f3d
00000040: e0a5 20be d759 303e de0f d23c c9cd 5b3c
00000050: 0d7d 77bd 5d51 2ebe 48c7 b1bb 54bc fd3d
00000060: c0ee aebd c0ad 723e 8c5e 49bd 223d 3d3d
00000070: 6642 2f3c 88d3 12be 4f3a 34bd ec47 33bd
00000080: 869c 30be 1844 0c3d 815e 023d 0f07 8abd
00000090: e077 d6bd ff9d 643d 04f9 13bc e264 23be
000000a0: 4b42 dbbd b5ad 363d 0737 d8bc 0578 b73d
000000b0: 6289 873d 2f1f ce3d ee65 323e c608 203d
000000c0: 0620 2b3c f3a0 b73d 34aa 37bc 110d 073e
000000d0: b9c5 5fbd 924d ed3d be0b c53d e6b2 53bd
000000e0: 1ef3 473e d186 a93c a6f6 d93c d528 40be
000000f0: 963e 743c 220f febd feac cfbd 6464 11bd
00000100: 93ed 273d f661 89bd d7a3 5d3a 297c 943d
00000110: c00a 46bb ea4c 1ebe 4609 81bc 6ec0 b1bd
00000120: 48a8 283d 57d1 013c 479a 29bd 319f 6abe
00000130: e6e5 293e 42bb 843d 5bd2 513d aa3b b73d
00000140: 3923 88bd d63f d2bd c110 95be 0e2a f33d
00000150: 635f 07bc 2fe6 0bbc 37e5 ecbd 60ee 85bd
00000160: 0bb2 26bd 2803 a9bc ba76 463e 5090 ae3c
00000170: cda0 ef3d 423e 933d 2d68 71bd 52bf d23c
00000180: cccb 8dbc e583 bebd 8a8f 1bbd 05ad 83bd
00000190: 6911 56bd 983b 6f3d 271a 373e 6dc4 a3bd
000001a0: 58ae 6d3d 4bd0 a0bd 60d0 5ab9 ae88 fa3d
000001b0: ace7 c63c 189f 4b3d 69d4 cbbd 2a3a 2b3e
000001c0: b8da abbc 61c9 e93d 51ae ed3d 6f55 1bbd
000001d0: e36c b63d 154c 553e 9ef6 153e e02d 80bd
000001e0: 0f96 80bd 76fc 77bd a229 0fbe 4a93 42be
000001f0: 9412 8e3c 6a5d 84bb 38e5 b53d d70d 4b3d
0.2268182 -0.06302745 0.065165825 0.01758587 0.05700396 -0.027971888 0.050027654 0.17327651
-0.08276472 0.25012764 -0.16493799 -0.061175432 0.023801554 0.076681584 -0.053526446 0.05056709
-0.15688276 0.17221771 0.025642332 0.013415762 -0.060421992 -0.17023225 -0.0054253675 0.12389436
-0.08541632 0.23699093 -0.049162433 0.04620088 0.010696983 -0.14338505 -0.04400092 -0.043769762
-0.17247209 0.034244627 0.031828407 -0.067396276 -0.10472083 0.05581474 -0.009031538 -0.15956452
-0.10706004 0.044599254 -0.026393427 0.08958439 0.066180006 0.100645415 0.17421696 0.039070867
0.010444647 0.089662455 -0.011210013 0.13188578 -0.054631922 0.11587061 0.0962138 -0.051684283
0.19526336 0.020694168 0.026606869 -0.18765576 0.0149075 -0.1240523 -0.101404175 -0.03549613
0.040998053 -0.06708138 0.0008454895 0.07250244 -0.003021881 -0.15459028 -0.015751492 -0.08679281
0.04117611 0.007923446 -0.041406896 -0.22912289 0.16591606 0.06481029 0.051226 0.08946927
-0.06647343 -0.10266082 -0.29114345 0.11873256 -0.008262488 -0.008538767 -0.11567157 -0.06539607
-0.04069714 -0.020631388 0.19381228 0.021309048 0.11700592 0.07189609 -0.05893724 0.025725994
-0.017309092 -0.09302501 -0.037978686 -0.06429485 -0.052262697 0.058406442 0.1788107 -0.079964496
0.058027595 -0.07852229 -0.00020867726 0.12233101 0.024280392 0.04971227 -0.099526234 0.16721407
-0.020978317 0.11415363 0.11605514 -0.037923273 0.08907487 0.20829804 0.14644858 -0.0625875
-0.062786214 -0.0605435 -0.13980725 -0.19001499 0.017342843 -0.004039456 0.08881611 0.049573746

conv2.bias f4 [128]
00000000: b096 9837 d5bf ef3c 04cd 623d de60 9e3d
00000010: b49c 013d 3e6d 81bd fe5e f33b 0404 013d
00000020: 86fa 74bc fa28 783c 4b01 7a3b b618 89bd
00000030: 5905 db3c 8dbc 593d bc8a a53d e150 e93d
00000040: 7a34 853d 663c c73c 3392 d93d 29e6 e53c
00000050: a927 a03d f906 51bd 8c19 1bbc 9a69 dbbc
00000060: 7f4e 963d cddc 2dbc 2c1f 163c fcfd 5fbd
00000070: 4675 393b eb9f 8e3b 9250 803c 78b3 373c
00000080: ffdf 05bd 22b1 fe3c ce0f fc3c 7228 c63d
00000090: eaba d4bc 37b4 7f3d a1ec 123d e637 26bc
000000a0: 69e6 c4bc d19e e13c 8414 8cbd 4e3c 003d
000000b0: ac1a b1bd 64ee 323c e6be 673c bdaf 8c3d
000000c0: 2ecc bcbc c72a 973d feec 2c3c 92f2 863d
000000d0: 2b75 fbbc 4e00 fcbb 5799 78bc 7bcd 9dbb
000000e0: 3c6d 03bd eeb7 4bbc 0978 933d e02f 853d
000000f0: 29e2 86bd bfc9 3e3c fb52 6b3c 1181 48bd
00000100: 14e1 333c b5ba 29bc 96a4 bb3b 46f8 0ebd
00000110: 3a1f 2abc 9168 cd3c 0581 17bd 082f ea3d
00000120: 33ef 6c3c f801 983c 8c99 3ebd d246 573b
00000130: 0542 a3bc 6729 20bd 08cb 513d 67ef 69bd
00000140: a024 f3bc 3932 f93c b8a9 643d 642c ce3c
00000150: c38e 313c 7ff8 cb3d b648 3a3d 4dc3 9c3d
00000160: 1442 31bd 93e5 84bc 6a5e 38bc 0f42 b33c
00000170: 0fb2 1abd 16b9 403d a869 943d eddb 0cbd
00000180: adb0 2f3d e534 97bd 4073 d33d 5aba 0abd
00000190: 8657 8f3d 6688 a53d eaf3 753d 943c f43b
000001a0: e585 4fbd 5aa1 a5bc 8aab 763d 36c2 37bd
000001b0: 20ad 2fbc 4ba6 d6bd be88 b3bd d9f1 423d
000001c0: 00c5 863d 6a1b ebbc 001a 5cbd 73e4 c3bc
000001d0: 47ae 01bd 02ad 2abd a334 28bb 0c60 d53d
000001e0: a766 07be ba49 923d 790e c43d 986c e13c
000001f0: 1088 763d dcf1 7f3c 76c9 9a3d 3522 573d
1.8189981e-05 0.029266277 0.0553713 0.0773332 0.031643584 -0.063196644 0.0074270954 0.03149797
-0.014952308 0.015146488 0.0038147743 -0.06694166 0.026735948 0.05315833 0.08083102 0.113923796
0.0650415 0.024320792 0.106235884 0.02806385 0.078200646 -0.05103204 -0.00946654 -0.026783753
0.07339191 -0.010611725 0.009162705 -0.054685578 0.002829866 0.00435256 0.015663419 0.011212222
-0.032684322 0.031090323 0.030769255 0.09675683 -0.025968034 0.062427726 0.0358702 -0.010145163
-0.02403565 0.02754155 -0.068398505 0.03130751 -0.086476654 0.010921095 0.014144635 0.06869457
-0.02304658 0.07381206 0.01055455 0.06589235 -0.030695518 -0.007690466 -0.015173278 -0.004815755
-0.032086596 -0.012433989 0.07200629 0.06503272 -0.065861054 0.01164478 0.014363046 -0.048951212
0.010978956 -0.010359456 0.0057264073 -0.03490474 -0.010383422 0.025074275 -0.036988277 0.11434752
0.014461326 0.018555626 -0.046533152 0.0032848609 -0.019928942 -0.039101984 0.051219016 -0.057113077
-0.02968055 0.030419456 0.05582592 0.025167651 0.01083726 0.09959506 0.0454795 0.07654438
-0.043275908 -0.01622275 -0.011252979 0.021882085 -0.037767466 0.04705151 0.07246715 -0.034389425
0.0428931 -0.07383136 0.103247166 -0.033869125 0.06999116 0.080826566 0.060047068 0.0074535105
-0.0506648 -0.02021854 0.060222186 -0.04486295 -0.010722429 -0.104809366 -0.08766316 0.047593925
0.065805435 -0.028699595 -0.053735733 -0.023912644 -0.031660344 -0.0416689 -0.002566614 0.1041871
-0.13222753 0.071429685 0.09573073 0.027517602 0.060188353 0.015621629 0.07557957 0.052522857

conv2.lin.weight f4 [128, 128]
00000000: 934a a93d 1ea7 9d3a 44dc 073e 9f59 d53d
00000010: 22ac 363d 20d3 adba 9339 adbd 4dfa 5e3d
00000020: 4cd5 abbc 8adb b7bd 46f9 a63d 8cf9 11bc
00000030: ff18 ee3c 9452 963d a56e af3d 3b2e e2bd
00000040: 07ca 5f3c 81e1 c1bd 8a2f f2bd 9933 7bbd
00000050: 2750 21bd ee50 883d a35f b83c 64b1 66bd
00000060: d3a1 273e cdc1 523d 0ddd 84bd c99b 2ebd
00000070: 91a1 8fbd 73a1 43bd cc46 0abc ec90 023e
00000080: 18d3 c33c ec7c 523d 2a59 673c a2b6 80bd
00000090: 9d49 993d 3ba3 9f3d 54ba ae3d 6633 98bd
000000a0: 2104 1c3c 4a16 16bd dbc8 103e 1682 0d3e
000000b0: 5eef 6abd a67b 0a3b 7a62 9e3d 8e8e 983c
000000c0: 1a3e 2fbd 96a2 413d 2688 67bd 428f f6ba
000000d0: e9d4 603e 47fd 223d 052b 723d 8c6a 0bbd
000000e0: ed09 c43c b484 68bd bd50 55bd 80af 833d
000000f0: 6bc7 8d3d 5b35 a73c 4bde 9e3b 1198 d23c
00000100: d781 ebbc d9a0 c5bd 6ba6 913d c8f6 0dbe
00000110: 3761 893d 2daa b53d 77ad 3bbd d8e8 e0bc
00000120: f23d 083c d65e 5e3c c00b 94bb 193b 663d
00000130: 8289 96bb b62a 89bd 8b84 d4bd 3baa e13d
00000140: 931d 923d 86c7 9bbb 4451 113d b36a 213e
00000150: 96b3 64bd ecb7 fe3c 76d5 f7bc 1cf7 803c
00000160: b3bc 54bd f811 fe3c 086b 11bc 29f9 673d
00000170: 0b5c b93c 4a78 48bb 3d39 07be 6248 d5bd
00000180: a26a d7bd 86f4 35be 77fe 5c3d 098c fb3c
00000190: 26a4 003e df74 813d 9afa 1c3e 1dcd f43d
000001a0: f400 32bc 7b1d 593d ce1c 9e3c 9772 9fbd
000001b0: 6e0c efbc 21ac 3b3d 045d b3bc ae43 3f3e
000001c0: 4b66 10bd da2d c5bd 8572 44bd 71df 5cbd
000001d0: 9838 afbd b8ea d43d 24d9 8c3d 9572 f83d
000001e0: 2d39 0a3c cad3 403e ff16 bf3d 6a73 5cbd
000001f0: ef37 5d3d 8723 a23d 9366 04bd 03da ce3d
00000200: 891b 1c3d 1832 87bd cb0a 13bc e4ce b7bc
00000210: 11dc dabc e958 aebd 74b8 fabc 8a1a c13d
00000220: d503 f03d 7cdd 89ba bb67 11bd e3c8 23be
00000230: d180 bc3c 6098 3ebd 46bb 41bd a90a 393e
00000240: d3f2 1dbd 20a2 313e fa60 0d3d ccd5 053e
00000250: 5985 9bbd 0859 68bd 490f 0cbd 690f d93c
00000260: e9dc 34bd 408f 193d 60bc c0bd 9097 02bd
00000270: 1641 573b 7108 cdbd 735f 5a3d a9d5 03be
00000280: 3175 3f3d 2c75 2b3d 2e67 abbb 38e8 b33d
00000290: 4816 043e 27de c33d a42c 2abd d9c6 e13c
000002a0: f282 eb3d b5b0 a63d f097 54bc 6143 4bbb
000002b0: c5cb 96bc 073e 903d 4abf 78bd bbf1 aabd
000002c0: 9384 d8bd 0c0a 353c b5bd b23c 2ea0 afbc
000002d0: 046c 26b9 a2c2 a4bc 8590 353d 61a6 52bd
000002e0: fbca 0a3e d048 8d3c a0ae feb9 aa94 fb3d
000002f0: 560b f9bd f271 243e 93ae a53d bf33 8f3d
00000300: 9df1 f1bd 441c 3dbc fda9 783d 4a41 c5bb
00000310: 2aaa 1ebd 4373 ff3c 6c7f d33d 504c 3fbe
00000320: 72eb 50bd 2c27 ff3d 77ea c53d 1174 b3bc
00000330: 567a c13d 710f 513d be48 5a3d b26e 82bd
00000340: 4e4e 81bd b112 3b3e 5104 5abd 1b54 9c3d
00000350: 3e64 dabb dd66 033c 1dde 21bc 8eea 00bd
00000360: 1acc bc3c d760 9abd 1edd 8dbc d20a 61be
00000370: 3cda 893d 51fd abbc 502f 603d ed07 073d
00000380: 47fb 1a3c b9de cabc 305f a8bd fa20 d9bd
00000390: dc29 08be 5f55 babc fd79 383a bda8 ee3d
000003a0: 9f28 5fbb 13af 5ebd eaef 2bbd d56c 383d
000003b0: 1acf 9fbc de0a 97bd d3ca ba3d ef2c 00be
000003c0: e53c 203b 9f40 2f3e 7eb5 f13d d83a 473d
000003d0: c937 7dbc e23b 8fbd c824 82bd 8480 8c3d
000003e0: e83f 22bb 6114 0fbe 75d7 66bd 3f12 023d
000003f0: b81a 82bc dc7e 363d 4986 b23d 61b3 963d
0.08266177 0.0012027954 0.13267618 0.104174845 0.044597752 -0.0013261773 -0.08458247 0.054437924
-0.020975731 -0.08977421 0.08153014 -0.008909594 0.029064653 0.07339969 0.08566026 -0.11043974
0.013659007 -0.094668396 -0.118254736 -0.061328504 -0.03938308 0.06656061 0.02250654 -0.056321517
0.16370325 0.051454354 -0.064874746 -0.042629037 -0.07013238 -0.04776139 -0.008439731 0.12750596
0.023904368 0.051388666 0.014120379 -0.062848344 0.07484744 0.077948056 0.08531633 -0.074316785
0.009522469 -0.03664235 0.1413912 0.13819155 -0.057357185 0.002113083 0.07733627 0.018622663
-0.042783834 0.047274195 -0.056526326 -0.0018811005 0.21956219 0.039792325 0.059123058 -0.034037158
0.023930514 -0.05676718 -0.05207895 0.06429958 0.069228016 0.020411184 0.0048482767 0.025707277
-0.028748436 -0.0964982 0.0711182 -0.13863671 0.067079954 0.08870349 -0.045819726 -0.027454779
0.00831555 0.013572415 -0.0045180023 0.056208704 -0.004594029 -0.066975996 -0.10376843 0.11018797
0.07134547 -0.0047540097 0.03547789 0.15763359 -0.05583533 0.03109356 -0.030253153 0.015742831
-0.05193777 0.031014428 -0.008875616 0.056634102 0.022626897 -0.0030589276 -0.13205428 -0.104141966
-0.105183855 -0.1776906 0.053953614 0.030706422 0.12562618 0.063211195 0.15329972 0.11953185
-0.010864485 0.05300663 0.019300845 -0.07785528 -0.029180732 0.04581845 -0.02189494 0.18678162
-0.035253804 -0.09627886 -0.047960777 -0.053924028 -0.08555716 0.103963315 0.06877354 0.1213123
0.008436483 0.18830791 0.09330558 -0.053821005 0.05400842 0.079169326 -0.032324385 0.10100176
0.038112197 -0.066013515 -0.008974741 -0.02243752 -0.026716264 -0.08513052 -0.030605532 0.0942889
0.11719481 -0.0010518278 -0.035499316 -0.15994601 0.023010643 -0.046532035 -0.04729774 0.18070473
-0.038561653 0.17347002 0.034516312 0.13069838 -0.075937934 -0.05672553 -0.034194265 0.026496606
-0.04415599 0.03749013 -0.0941093 -0.031882823 0.003284519 -0.10011376 0.053313684 -0.12874474
0.04674262 0.04185979 -0.005230806 0.087845266 0.12899125 0.095638566 -0.04154648 0.027560638
0.11499585 0.08139173 -0.012975678 -0.0031015503 -0.018407712 0.07043081 -0.060729302 -0.08346888
-0.105721615 0.011049759 0.021818975 -0.021438684 -0.00015871233 -0.02011234 0.044327278 -0.051428203
0.13553993 0.017246634 -0.0004857676 0.12284215 -0.12160365 0.16059092 0.08089938 0.06992292
-0.11813662 -0.011542384 0.06070899 -0.006019746 -0.0387365 0.03118289 0.10327038 -0.18681455
-0.05100579 0.12458643 0.09663861 -0.02190593 0.09447162 0.051040117 0.05329203 -0.0636877
-0.063137636 0.18268849 -0.053226773 0.07633229 -0.006664782 0.00802013 -0.009879616 -0.03147369
0.023046542 -0.07538002 -0.017317351 -0.21976784 0.06731078 -0.020994814 0.05473262 0.032966543
0.009459323 -0.024764406 -0.082212806 -0.10601993 -0.13297218 -0.022745786 0.00070372206 0.11653278
-0.0034051312 -0.054366183 -0.041976847 0.045025665 -0.019507933 -0.073751196 0.09120717 -0.12517141
0.0024450358 0.17114495 0.11802195 0.048640102 -0.015455195 -0.069938436 -0.06354672 0.0686045
-0.002475733 -0.13972618 -0.05635782 0.031755682 -0.015881881 0.044554576 0.08717019 0.073584326

conv3.att_src f4 [1, 1, 7]
00000000: b5e3 8a3c 92a8 9dbe 1e13 9d3d ac1a 5abd
00000010: 112a 70bd de23 28be 8150 c2bd
0.016954282 -0.3079267 0.07669662 -0.053248093 -0.058633868 -0.16419932 -0.09488011

conv3.att_dst f4 [1, 1, 7]
00000000: 45d2 8d3d a17f 61bf 61c4 9b3e f6b7 81be
00000010: 45db 02bd 234b 20bf 1cc5 56be
0.06924871 -0.8808537 0.30423263 -0.25335664 -0.031947393 -0.6261465 -0.20973629

conv3.bias f4 [7]
00000000: 65a2 bd3d d64a 1fbe 479e e83d 49e4 3e3e
00000010: 107a c83d 9d3e 2b3d 4258 50be
0.0925949 -0.15555891 0.11358314 0.18641771 0.097889066 0.04180776 -0.20346168

conv3.lin.weight f4 [7, 128]
00000000: 77c8 e03d d6e8 1b3e d0ac 513e 01c1 cbbd
00000010: 4c0e c53d 78db fabd e85a 243e 7817 b83d
00000020: 2a50 413e e795 323e 7023 0dbe 836f 2f3d
00000030: 34c3 033e b692 303e 6037 a23d 0f5c 533e
00000040: 67bb b63d 30be 093e bfa7 ed3d f072 6fbe
00000050: a14e 1a3e f221 00be 5f59 c0bd a7c2 373e
00000060: 8fe6 d93d e854 0a3d 39ee 033d f2c0 06be
00000070: ba00 573e 3ac1 5d3e 7ef1 103e 8515 4bbe
00000080: 899a 323d 96a9 283c aea4 913c 4bfe a9bd
00000090: a19a 26be 1eb9 6c3d 4f52 e33d 4587 183d
000000a0: dbbd 87bd 0081 16bd 11cd 70bd 2f2b 693e
000000b0: 5fb1 7abd b292 093e b822 353e 1561 b93d
000000c0: fdf6 013e bc60 c7bd f23f 443e b8c3 9bbc
000000d0: d9c9 c3bd 0227 043e c459 ee3d 237d 03be
000000e0: e8d9 3dbe 4d0d 00be 2d08 41be ca6f f43d
000000f0: 0673 5dbc 9ee0 103e 8440 8fbd e5e7 16bd
00000100: 0845 f53c 46f7 0e3c 3d9a 8b3c c22d 79bd
00000110: 12f9 bdbd ade5 7d3e 61a8 703e 8878 803e
00000120: 2288 8cbe dec7 2a3e c4e6 293d 6750 f03d
00000130: 85bf f33b bf47 f5bd 37aa 823d 6c34 82bd
00000140: 6d25 cbbd 6618 043e 637e d93d 5e68 07be
00000150: 05bb b03c 1a7a 633d 12d3 f8bb 36e2 353e
00000160: 9910 c7bd 9991 f1bc 0f65 d7bd 10f8 2a3d
00000170: b197 27be a3aa ac3d b5b4 243d 66e3 ccbd
00000180: 7fa0 263e 85bb ef3c 835d 153e 2846 583d
00000190: 02d9 e73d 197a 233e 6271 313e 9d08 0c3c
000001a0: dcbd 70bd 6e52 66bd 4837 803d 21a9 4c3b
000001b0: 42c0 4bbe 608e 07be 7746 6c3d ce0d 21be
000001c0: eae4 1b3e cb07 2a3e 8d97 a9bd 946e 6ebd
000001d0: c9b6 dbbd 4ee7 5cbe 6894 22bd 8725 ec3d
000001e0: d72b b5bc 0261 b43d f83e 93bd 5546 253e
000001f0: c193 a93d 31f2 1d3e 9c1e a0bd f495 143e
00000200: aa87 30bd 080d 6c3e 1de8 8a3d 80c2 f83d
00000210: 1fa2 23be 7b9a a53d 83db c73d f770 0ebd
00000220: 954b c43d bf1a 18bd bce4 8f3d f4a4 bebd
00000230: 74f0 403e ce89 423c 77a2 f43d 8430 623d
00000240: e6e8 11be ba64 1e3e 4d8c 2dbd 5785 e23d
00000250: c1b2 243e 918f 953d 9840 373d 6c95 ff3d
00000260: a09a f6bc 17f3 113e e2f5 9bbd b934 2a3e
00000270: a882 2fbb 6fb5 533d f271 003e 3e7f 853d
00000280: 0bb5 103e 542c de3d d7e9 d93d 1636 0b3e
00000290: 7cde f93d b8dc b13d c5ba dcbc 8f94 7e3d
000002a0: 62a8 083e e2fb edbd 7f79 473d 9bed f2bc
000002b0: e41f a43b 0150 cdbd cac6 3cbd bcab 623d
000002c0: 4924 9ebd fad3 323e e7a1 e93c 32ef ac3d
000002d0: 4831 d83d 8c4a 40bb aec4 d7bd 8466 283d
000002e0: 32c5 a03d 1aff a03d 08b0 d43d 8c76 e93d
000002f0: 212b 06be 0711 d63d 90fa ae3d 22e0 00be
00000300: 9771 8e3b b55b 7cbc 99b2 1f3d bffe f3bb
00000310: d078 2f3e f8ca e5bc e078 003e d43f b439
00000320: 1a4d 433d 9294 44bd e500 873d 4fad 98bd
00000330: f87b 6dbd ed94 e5bd 411d d43d 5b47 883d
00000340: f416 52bd 8006 133e 4e75 373d ce9b 123e
00000350: 3dd2 a03c 9789 92bd 2853 1d3d 3bcb 9abc
00000360: 085b 363e fbc8 d93c 9c37 983d 76ec 283e
00000370: bdb7 a73d 1344 183e 8105 8f3d 7f0d c0bd
00000380: ae34 9d3d 60a4 c3bd 5499 c63d 06af 00bd
00000390: d866 27bd 22fc d6bc b9e3 0a3e a8de a53d
000003a0: b0c6 a7bd 8db5 353e 57a5 013d 1c76 313e
000003b0: 28de 88bd 81f3 89bc 75a3 0cbe b6ab e63d
000003c0: 7a10 a63d 820c 9fbc 8295 f73d 7102 afbd
000003d0: b1e6 133d e83f 813d c2c1 453b a706 2fbe
000003e0: 82eb adbc 9a3d 323d 27fb 3d3d 098e c53d
000003f0: 3e01 08be a552 18bd 6e31 ba3d 89c7 283e
0.10975736 0.15225539 0.20476079 -0.09948922 0.096218675 -0.122488916 0.16050303 0.08988851
0.18878236 0.17439996 -0.1378305 0.042830955 0.12867433 0.17243466 0.07920718 0.20640586
0.08922463 0.13451457 0.11604261 -0.23383689 0.15069057 -0.12512949 -0.09392046 0.17945348
0.10639679 0.03377238 0.03220961 -0.1315954 0.20996371 0.21655741 0.14154622 -0.19832428
0.043604407 0.010294339 0.01777872 -0.08300456 -0.16269924 0.05779373 0.110996835 0.037238378
-0.06628009 -0.036744118 -0.058789317 0.2277038 -0.06120431 0.13434866 0.17689025 0.0905172
0.12691875 -0.097352475 0.19165018 -0.019014224 -0.09559984 0.12905505 0.11638215 -0.12840705
-0.18540156 -0.12505074 -0.18850775 0.119353846 -0.013516193 0.14148185 -0.06994727 -0.036842246
0.029940143 0.008725947 0.01704132 -0.060834654 -0.09276022 0.24794646 0.23501731 0.25091958
-0.2744761 0.16677806 0.04147984 0.117340855 0.0074386024 -0.11976575 0.06380122 -0.06357655
-0.09919248 0.12899932 0.106198095 -0.13223407 0.021573553 0.055536367 -0.007593521 0.17762074
-0.097199626 -0.029488372 -0.10517322 0.041740477 -0.1636646 0.08430984 0.0402114 -0.1000431
0.16272162 0.029264221 0.14586453 0.05280128 0.11320688 0.15964545 0.17328408 0.008546975
-0.058774814 -0.056230955 0.06260544 0.0031228738 -0.1989756 -0.13237906 0.057684388 -0.15727922
0.15224043 0.16604535 -0.08280859 -0.058210924 -0.10728223 -0.2157261 -0.039692312 0.11530595
-0.022115631 0.08807565 -0.07189745 0.16140111 0.08280135 0.1542442 -0.07818338 0.14510328
-0.04309813 0.23051846 0.06782553 0.12146473 -0.15979813 0.080861054 0.097586654 -0.0347757
0.09584729 -0.037134882 0.070260495 -0.09308806 0.18841726 0.0118736755 0.1194505 0.05522205
-0.14249 0.15468112 -0.04237013 0.11060589 0.16083814 0.07302774 0.044739336 0.12479672
-0.030103028 0.14252888 -0.07615258 0.16621675 -0.0026780758 0.0516867 0.12543467 0.0651841
0.14131562 0.10848299 0.106403045 0.13594851 0.12200639 0.08684677 -0.026944527 0.062153395
0.13345483 -0.116203085 0.048699852 -0.029654315 0.0050086845 -0.10025025 -0.046088018 0.05533956
-0.077217646 0.17463675 0.028519584 0.084440604 0.10556275 -0.0029341308 -0.105355605 0.04111339
0.07850112 0.07861157 0.10385138 0.11399564 -0.1310239 0.104524665 0.08543885 -0.125855
0.004347037 -0.015402724 0.038988683 -0.0074461396 0.1713593 -0.028050885 0.1254611 0.0003437983
0.04768095 -0.04799325 0.065919675 -0.07454931 -0.057979554 -0.11210046 0.10357142 0.06654235
-0.05129142 0.14357948 0.044789605 0.14317247 0.0196315 -0.071551494 0.038409382 -0.018895736
0.17808163 0.026585093 0.07432482 0.16496453 0.08189342 0.14869718 0.06983472 -0.09377574
0.076760635 -0.095528364 0.09697214 -0.031416915 -0.040869564 -0.026243273 0.13563432 0.08099109
-0.081921935 0.17745037 0.03165182 0.17330211 -0.06682998 -0.016839745 -0.13734229 0.1126322
0.081086114 -0.019415144 0.12089063 -0.085453875 0.036108676 0.06311017 0.0030175303 -0.17092381
-0.021230463 0.04351578 0.046382096 0.09646232 -0.13281724 -0.03718819 0.09091459 0.16482367
