models/SKY_Pretrained/facebook_gat_model.pth (torch, 141282 bytes, 15 tensors)

conv1.att_src f4 [1, 8, 16]
00000000: 8e5a fd3c 40d5 163c afce 9a3d 6c19 c33d
00000010: bdc7 ab3e 2ab6 653e fe01 043e bf70 a03e
00000020: ad00 a8be 7de8 2b3e 4c4f a0bd 0a23 2fbe
00000030: ccdb 4e3d 0028 3cbd b422 c6bc 17d7 2a3e
00000040: 54f4 c63d a413 39bd ae80 96bd 54d3 cfbb
00000050: dbdc c33c 0478 95be bf1f fabc 1065 8dbd
00000060: 9294 c3bc 6225 15be 4a92 853d 7128 11be
00000070: e447 df3d 98f9 80be 7a48 48be d2f3 b8bd
00000080: 3de6 e5bd 1e8c e5bc c024 d4bd 404a 1ebe
00000090: 5e7e 38ba ee63 803e 3273 0d3e ddbc 8ebe
000000a0: 31ec bcbd ec2b 6fbd 7c60 a73e 1ccb e1bd
000000b0: a416 603d 94d9 413e 9e56 f03c 4866 233e
000000c0: ff09 733e a596 793d 6318 933e 8e7e 203e
000000d0: 12d1 2d3d 73b3 b4be 0eae b63e 4e34 70be
000000e0: dc8b 35be da40 513e 8a65 8bbe 6299 1f3e
000000f0: 2c14 543d 66ea dabd 7d11 463e 3fd2 c03d
00000100: 7c8a 62be 6959 2cbe 2481 fabd e581 f0bd
00000110: e7fb fbbd 8f64 8cbe 2468 7cbe 7c5a b33d
00000120: e2e9 16be d2f4 c3bc 859d 3d3d e011 9b3e
00000130: 1c77 1c3e de3e e2bc d6b8 3b3e cf27 c8bd
00000140: eced 67bd 8ee0 00bd e12c c33a 3385 e33d
00000150: 3ab4 d53d 2b08 4e3e 5ff0 6cbb eb38 e4bd
00000160: 4142 763e 107c 683e 5cbb cf3d 67d8 393e
00000170: d427 7cbe 6abb 57be 50f1 953e 8c54 babe
00000180: 9e09 6cbd 8152 323e 9ad0 a4bd 6660 0ebd
00000190: 7c22 8d3d 6c20 953c 7dfb 86bd 5a33 c0be
000001a0: 9557 8e3e 7c42 fcbc bb06 623b cd63 09be
000001b0: bc10 05bc 38e8 9cbd c0e3 8cbd 277c 62bd
000001c0: 1c1d 8bbc 982e 65be 79e5 443e a264 88be
000001d0: f740 10bd f637 bc3d d3b8 b3bd b33b af3d
000001e0: 1c8b 91bd 8f71 08bc f106 c2ba f47d febd
000001f0: 1c5f 54be 4133 9dbe 375f c8bd 7bde 60be
0.030926969 0.009206116 0.07558953 0.09526333 0.33550826 0.22432771 0.12891385 0.31336018
-0.32813016 0.16787906 -0.07827625 -0.1710321 0.050502583 -0.045936584 -0.02418647 0.16683613
0.09714571 -0.045184746 -0.073487625 -0.006342331 0.023909023 -0.29193127 -0.030532716 -0.06904042
-0.023874555 -0.14565042 0.06522043 -0.14175583 0.10902384 -0.25190425 -0.19558898 -0.0903088
-0.11225555 -0.028020915 -0.10358572 -0.15458012 -0.0007037873 0.2507624 0.13813475 -0.27878466
-0.092247374 -0.058391497 0.326908 -0.11025068 0.05470909 0.18930656 0.029338177 0.15956986
0.23734282 0.06093468 0.28729543 0.15673277 0.042435713 -0.3529316 0.35679668 -0.23457453
-0.17729133 0.20434895 -0.27225906 0.15585855 0.05177705 -0.10689239 0.19342609 0.09415101
-0.2212314 -0.16830982 -0.12231663 -0.117435254 -0.12303906 -0.2742047 -0.24649101 0.08757493
-0.14737657 -0.02392045 0.0462928 0.30287075 0.15279812 -0.027617868 0.18332228 -0.09773218
-0.056623384 -0.031464152 0.0014890694 0.1110939 0.10434766 0.20120303 -0.0036154015 -0.11143669
0.24048711 0.22703576 0.10143158 0.18148957 -0.24624568 -0.21067587 0.2928567 -0.3639263
-0.05762636 0.17414285 -0.080476 -0.0347599 0.06891343 0.018203937 -0.06590936 -0.37539178
0.27801195 -0.030793421 0.0034488875 -0.13416977 -0.008121666 -0.0766148 -0.06879377 -0.055294182
-0.016981654 -0.22381055 0.19228162 -0.26639277 -0.035218205 0.09190361 -0.08775487 0.085563086
-0.07106611 -0.008327856 -0.0014803094 -0.124263674 -0.20739406 -0.30703166 -0.09783786 -0.2195987

conv1.att_dst f4 [1, 8, 16]
00000000: 42fe 053e a37b 4ebd 4109 bebd 2c49 5fbd
00000010: 2963 03bd 127c 40be fe69 68be ca0a 1d3e
00000020: affd 26be b76f 1dbe 4ef8 8ebe a96a 443e
00000030: e966 853d 0dfe 9d3e 230c 213e 7e33 2b3e
00000040: 8d83 503e 8c7d a3be 89f5 9b3e 1b6e 3ebe
00000050: 4017 7dbe f208 a73c 70f1 fe3d 1b74 843e
00000060: 5e0f 89bd e3cd e63e 334c 883e 2ef0 9d3e
00000070: fb61 64be 163f a93e 0a41 b5be b4d5 a13c
00000080: 9c63 0fbd 4030 15be ff91 a43e 040b 9ebe
00000090: 127f 9d3e f2c8 9a3e b7b5 ad3e 9c8c 2e3e
000000a0: 020c 90bb 71c2 b7bd 76e5 eb3d d7f0 42bc
000000b0: 8404 e5bd 58af 6f3e 958d c53e 39bb bf3e
000000c0: 9074 763e 4843 553e 3782 243e 7771 d0bd
000000d0: 7dad 02bf 7fe0 96be 284d 023d c7c1 cdbd
000000e0: 90db 9bbe 755c febd ffde a5be b243 dabc
000000f0: 029f 2ebd b97e ae3d a485 543c 1499 993e
00000100: a3bb f63d 49d7 25bd 3d9d 72bd e853 403c
00000110: d21c b23d f21e b23d 38c6 95bd e712 403e
00000120: aa34 f9be a623 e23d 61bb da3e dfcc 013e
00000130: e600 d2be a539 893d 0c1a 713e df51 62be
00000140: 62e3 22bc bdeb 2d3d f2b7 bf3e 3fe2 513e
00000150: 264f 87be ddfb fdbe 2466 cc3c 72ce c83d
00000160: bb49 803e 31fe fa3e ea49 86bd 3ba8 85be
00000170: 6a97 883e 8145 99be 3f8e b53e 823d a73d
00000180: 5cdf cfbd fc84 ca3d 3ef9 b43e a941 e5bd
00000190: 45e1 9cbc 5660 a03d 5e65 d73e 7131 dc3e
000001a0: 3169 283c c5cd 1f3e 8900 ac3e 56ee c6bd
000001b0: f63b 62be f4c4 c83d 2622 003e 79d5 30bc
000001c0: 6cfb de3e da00 72be 27d5 ba3e 08c3 1cbe
000001d0: 3103 7a3c 1062 59bd 616a 1f3e b769 813e
000001e0: 2161 f43d 1305 00be 569a 933e 20d2 873e
000001f0: baa1 283e 445a 34be 6e70 783d 4ae4 533d
0.13085273 -0.050410878 -0.09279109 -0.05451314 -0.03207699 -0.18797329 -0.22696683 0.15336147
-0.1630771 -0.15374647 -0.27923816 0.19181313 0.06513769 0.30857888 0.15727286 0.16718861
0.20362683 -0.31931722 0.30460766 -0.1859669 -0.247159 0.020390008 0.12448394 0.2586983
-0.06692384 0.45078954 0.26620635 0.30847305 -0.22303002 0.33055943 -0.35401183 0.019755222
-0.035007104 -0.14569187 0.32142636 -0.3086778 0.3076101 0.30231434 0.339277 0.17045826
-0.0043959627 -0.08972634 0.115183756 -0.011898241 -0.11182502 0.23406732 0.3858458 0.37447527
0.24067903 0.20826447 0.16065298 -0.10177892 -0.5104597 -0.29468152 0.031811863 -0.10046726
-0.3044095 -0.124199785 -0.32396695 -0.026643608 -0.04263211 0.08520264 0.0129713155 0.29999602
0.120475076 -0.040488515 -0.059231985 0.011738755 0.08696903 0.086973086 -0.07313198 0.1875721
-0.48672992 0.11041956 0.42721084 0.12675808 -0.4101631 0.06700448 0.23545092 -0.22101544
-0.009941908 0.042461146 0.37445027 0.20496462 -0.26427573 -0.4960622 0.024951048 0.09805001
0.25056252 0.49022058 -0.06557067 -0.26104912 0.2667802 -0.2993584 0.35460088 0.081660286
-0.10150024 0.09888646 0.35346407 -0.11194164 -0.019150386 0.078308746 0.42069525 0.4300647
0.010278986 0.15605839 0.33594158 -0.09713428 -0.22093186 0.09803191 0.12513027 -0.010793083
0.43551195 -0.23633137 0.36490747 -0.15308774 0.01525955 -0.053072035 0.15567924 0.25275967
0.11932588 -0.12501936 0.28828686 0.265275 0.16467944 -0.17612559 0.060654096 0.051731385

conv1.bias f4 [128]
00000000: 5f03 873d 9d51 393d dc04 c5bd 24c6 f2bb
00000010: f8c4 d5bd 5d32 a3bd 1270 b53c 3ce5 05be
00000020: eeb3 54bc 2fe1 763d 71b8 a13c 3e4d 43bc
00000030: 9d70 763d 8fc8 3a3d 701c 6cbd 669a 3fbd
00000040: da19 a4bd aa1c b83d 2415 abbb 9426 733c
00000050: 5a0a 26bd 1c67 5bbd 0cf4 293e cc5b 9e3d
00000060: 6d2e 113e 6ff3 d13c 15a3 283d e04f bbbc
00000070: 5e09 14bc d036 2d3d 8f73 853d d3a9 2fbc
00000080: fbb9 da3c 5901 8ebd 52cb ca3b 51c7 b8bd
00000090: e354 51bd 8b43 123e 368c 563c 6507 bb3d
000000a0: f79f 953d ca46 9b3d da69 3fbd a236 8e3c
000000b0: 7c69 c1bc af9e 5e3d 8e0b 1d3d 0d06 85bd
000000c0: a797 08be 8377 6abd f038 45bd 4ab6 493b
000000d0: 8418 3fbc dc4a 843d 5712 d8bd e361 563d
000000e0: a642 6fbc 754e babc 7286 e5bd 0315 dd3d
000000f0: 2ce9 8a3d f746 31bc 9d0b a03d 5230 a73d
00000100: c588 36bd 01be 32bd 8d93 5f3d 4842 bcbd
00000110: 69b6 1e3d eeb3 a6bb 4289 a5bc 6df4 2b3d
00000120: 561c 0b3d b95b 2d3d c1e1 31bd dbcf 893d
00000130: 2f78 c13c a077 b1b7 9253 ef3d d31e f23c
00000140: 32cd 9a3d c29b 64bd a8c7 3bbd 7f9c e8bc
00000150: 154c a3bc 065b 9fbc 50eb c93d 8360 d33d
00000160: 93eb a0bc 95f1 cd3d 1c18 21be ecd8 84bd
00000170: 7811 f9bb 8b4a f0bd ed90 8cbd 08f1 48bd
00000180: 2571 a03d cd9a 8abd 92eb f83b f58e ba3d
00000190: 2288 143c 6027 9abc 67c5 1ebd e4b1 e2bd
000001a0: ffe0 72bd 40a1 fd3d 2ea1 f0bc 5431 873c
000001b0: 64e8 3abc c794 e93d a0ca edbc 05b9 07bc
000001c0: 5543 13bd 7723 d2bc cbf6 ca3c 2268 c13d
000001d0: 8a16 cbbc 8f06 ddbc fc83 63bc 5b39 46bd
000001e0: d6ae 96bd 0a5c 98bc 46cf b83d 67f4 c13d
000001f0: 74c4 1f3c a2c2 d93c 790c 4ebd a08e 003d
0.0659244 0.045243848 -0.096200675 -0.007408874 -0.104379594 -0.079685904 0.022148166 -0.13075727
-0.012982352 0.060273346 0.019741269 -0.011920271 0.06016599 0.045601424 -0.057644308 -0.046778105
-0.08012743 0.08989842 -0.005221026 0.014840741 -0.040537216 -0.05356513 0.16597003 0.077323526
0.14177866 0.025628773 0.041171152 -0.022865236 -0.009035436 0.0422886 0.06516182 -0.010721642
0.02670001 -0.06933851 0.0061887885 -0.090223916 -0.051106345 0.14283578 0.013094952 0.0913227
0.073059015 0.07581861 -0.046731807 0.017360035 -0.02360987 0.05435055 0.038341098 -0.06495295
-0.13339101 -0.05724288 -0.048150003 0.0030778819 -0.01166356 0.06459591 -0.10550373 0.052339446
-0.014603293 -0.02274249 -0.11207284 0.10795023 0.06782755 -0.010820142 0.07814715 0.08163513
-0.044564027 -0.043638233 0.054584075 -0.0919233 0.03874818 -0.0050873673 -0.020207051 0.04198115
0.03396257 0.0423238 -0.043428186 0.067290984 0.023616878 -2.1155749e-05 0.11685862 0.029555714
0.07558669 -0.055812605 -0.045844704 -0.028394936 -0.01993374 -0.019452583 0.098593354 0.103211425
-0.01964358 0.10055844 -0.15731853 -0.06486687 -0.0076009594 -0.11732968 -0.0686358 -0.04905799
0.078340806 -0.06767807 0.0075964415 0.09109298 0.00906566 -0.018817604 -0.038762476 -0.11069086
-0.059296604 0.123842716 -0.029373731 0.016503014 -0.011407945 0.1140533 -0.029027283 -0.008283858
-0.035952885 -0.025651677 0.024775883 0.0944369 -0.02479102 -0.026980666 -0.013886448 -0.048394542
-0.07357566 -0.018598575 0.09023909 0.09470444 0.009751428 0.026582066 -0.050304864 0.031386018

conv1.lin_src.weight f4 [128, 128]
00000000: 843d 163e fab6 edbd 1018 783d b71c b7bb
00000010: 106b 8ebc 6657 813c a7d2 b53c 1dbe 86bc
00000020: 0652 593d 3802 513d 0247 993c 4c68 263d
00000030: b7ac 8a3c 8d59 943c bf76 0cbe 8653 d9bc
00000040: a9be d93d 9708 20bc cd76 003d 61aa ebbd
00000050: b5ed 2fbd 8596 8bbd 3ff0 543e b383 12be
00000060: b886 413d 50cd e0bd fe9e e83b 1eee 733d
00000070: 3954 ac3d ac67 5ebc 9bdf dfbc 2e9b 903d
00000080: a966 893d 83f0 a53d 71a7 00bd 50bf 333d
00000090: 087f acbc cb11 0bbd 11c7 a7bd ba1f e2bd
000000a0: cb1a 80bd 0c1d 62bd 074f cdbd bf22 80bd
000000b0: 24d0 95bd e0ea dfbd 7305 3e3d 1e1b c5bc
000000c0: 9990 65bc ebef 043d 785e 3e3d 8691 b63d
000000d0: 6860 ae3a 4680 b7bc cda5 313e 0669 bcbd
000000e0: 13ac 00be 62bf 1d3e 48bf 83bc edf4 3fbd
000000f0: bf04 a3b9 9ccb 86bd d018 09be e764 4ebd
00000100: 8b24 abbc f2e7 953c bb75 773d 74d3 0c3d
00000110: 1d93 8bbc 7cc6 483d 4175 93bc 8446 e3bc
00000120: cae3 393d 67e8 8abd 70ff da3c e402 8e3d
00000130: e100 9e3d 9a39 1abd 4e1a 443d bef2 d03c
00000140: 4950 923c 9c61 b2bc 7061 ae3c b4ec 85bd
00000150: 7653 3d3c 59b5 2bbe c408 3abc e932 c7bc
00000160: ac2a 753d 49e1 34bd 4498 9c3c 3284 a8bc
00000170: 91e1 953c 3816 4e3d a789 7dbd 34c5 88bd
00000180: 6a49 913d ed89 fcbc 025b c63d fad8 b23c
00000190: d6c7 d93d 94bc ee3d f51a ae3d 5354 093e
000001a0: 518e 7bbd 33c5 0f3d 9c45 91bd dd7c 923d
000001b0: 5f65 cfbc 8e71 e3bd 24aa 233d 9873 a73d
000001c0: b7ff d2bd 47c7 323d c6c4 29be da89 0e3e
000001d0: 5c2e 423d 2bba 4abd 2e76 aabd e742 f83d
000001e0: ece8 983d 20b0 d33d 970d 94bd 5be7 223d
000001f0: 0581 0d3d e391 c03c 7167 8bbd aed3 3c3e
00000200: 5b71 563c 9b6f 7d3c fcb5 0cbc 67dd 4d3e
00000210: 52c3 193e ac5e 363d 6b72 b9bc fbf4 9abc
00000220: 5ab6 81bd 7588 f7bd d8c4 923c efd3 bf3d
00000230: 8409 c33d 2de9 ae3d 44a9 7c3d b1ab 683d
00000240: fbe1 c03c 802c b43c a9ed 773d 0d8a 66bd
00000250: 579b fc3c 2604 b9bd bb71 cf3c 608e 14be
00000260: 9f4a 1abe d7ad afbb 0caf 633d 318d 3fbd
00000270: 1082 073d 5ab3 17be 7c6c 18bd 32d0 87bd
00000280: 837a 6abd 1510 653d 01af 3ebd c71b 5a3d
00000290: 7f70 b63b 37fa 173d 522b 98bd 711e 43be
000002a0: 0777 393d 5c39 67be 3e20 023d 0f05 f23d
000002b0: 7419 603d c72f 14bd 42cd 67bd dcd8 25bd
000002c0: bad4 af3d add1 1e3d 2eba cb3d 03cf a4bd
000002d0: 4c85 16bc d349 9a3a 93c6 373e 142d 393d
000002e0: a81e abbd cfaa 643b 6df1 efbd e446 aabd
000002f0: 303c 0d3d 330e 3d3d dc4c b33d 9771 f1bd
00000300: ee71 91bd 7fb1 d4bc 60cf 6c3d 8c01 463c
00000310: d6b2 78bc a841 7fbd 472e f63c 9f57 a9bc
00000320: ea7f 943d 7b07 abbd 3895 b63c 80ec e3b9
00000330: 188f e0bd 3e0f e2bc 4912 203d b44c b3bc
00000340: b399 ab3d 84a9 2abd f0de 09be 66d3 7cbb
00000350: e066 513d 86ca f4bd 3ef6 433c 8a35 193d
00000360: 6454 eebd 4323 1abd 3858 453e b3b8 e63a
00000370: d407 f73c 4336 65bd 7330 ee3a 1180 91bc
00000380: 47b9 b63c 492a fcbc fdf6 c13d 9915 a53c
00000390: d7c9 3d3c 12b2 80bb 25fd b23d 11b2 823e
000003a0: 7d29 9abd e08a a4bc ed9d 9ebc 17c5 a33c
000003b0: 3005 ebbb 24c3 183d 0cc8 173c ad6f fd3c
000003c0: a153 2abe ee32 523d fbae 953d 7b8c 57bc
000003d0: e153 913c 535a 413c 882d 4b39 20b0 8b3d
000003e0: 7379 1ebe d433 5f3d 1499 df3c 8228 0cbd
000003f0: a63d 07bd 0795 5f3d 473f 2a3d 4ac5 723d
0.14671904 -0.11607166 0.060569823 -0.00558814 -0.017385036 0.015788745 0.022195173 -0.016448075
0.05305674 0.051027507 0.018710617 0.04062681 0.01692806 0.018109107 -0.13717173 -0.026529085
0.10632069 -0.009767673 0.031363297 -0.115071066 -0.042951304 -0.06815819 0.20794772 -0.14308052
0.04724762 -0.1097666 0.0070990315 0.059553258 0.08414502 -0.013574522 -0.027328303 0.07060848
0.06709034 0.081025146 -0.031409685 0.04388362 -0.021056667 -0.033952516 -0.08192266 -0.110412076
-0.0625511 -0.055203483 -0.10024839 -0.06256627 -0.0731509 -0.10933471 0.046391916 -0.024060782
-0.014011526 0.032455366 0.04647681 0.08914475 0.0013303878 -0.022400033 0.17348404 -0.09199719
-0.12565641 0.15405038 -0.016082421 -0.04686444 -0.0003109332 -0.06581804 -0.13388371 -0.050389197
-0.020891448 0.018299077 0.06041501 0.034381345 -0.017037923 0.049017414 -0.018000247 -0.027743585
0.045383252 -0.067826085 0.02673313 0.06934145 0.077150114 -0.03765259 0.04787665 0.025506373
0.017860549 -0.02177506 0.021286696 -0.06539288 0.011555543 -0.16768397 -0.011354629 -0.024316268
0.05985515 -0.04416016 0.019115575 -0.020570848 0.018296035 0.05031416 -0.061898854 -0.066782385
0.07094081 -0.030827487 0.09685327 0.021831978 0.10633819 0.11657062 0.085012354 0.13411073
-0.06141502 0.035100173 -0.07093355 0.07152722 -0.025316892 -0.11105643 0.03995718 0.08176345
-0.1030268 0.043647077 -0.1657897 0.13919774 0.047407493 -0.04949395 -0.08323322 0.121221356
0.07466301 0.103363276 -0.072291546 0.03977142 0.03454687 0.023507064 -0.06806839 0.18440124
0.0130885495 0.015468503 -0.00858831 0.2010399 0.15015915 0.04452388 -0.022637567 -0.018915644
-0.06333609 -0.12086574 0.017916128 0.09366595 0.09523299 0.085405685 0.06168486 0.056804363
0.023545256 0.021993876 0.060529385 -0.056284 0.03083579 -0.090339944 0.025322786 -0.14507437
-0.15067528 -0.0053612995 0.05558686 -0.04676551 0.03308302 -0.14814511 -0.037212834 -0.06631507
-0.057245743 0.05592354 -0.046553615 0.053249147 0.00556761 0.037103858 -0.07430138 -0.19054581
0.04527953 -0.22580475 0.03176903 0.11817371 0.054711774 -0.036178377 -0.056592233 -0.040490016
0.08585496 0.03877418 0.0994762 -0.08047297 -0.009187054 0.0011771269 0.17946844 0.045209005
-0.083554566 0.003489185 -0.1171597 -0.083143026 0.034481227 0.04615612 0.08754894 -0.11789244
-0.071018085 -0.025963543 0.057814956 0.01208533 -0.015179357 -0.062318474 0.030051364 -0.020671664
0.0725096 -0.08351036 0.02228795 -0.0004347302 -0.10964793 -0.027595159 0.039079938 -0.02188716
0.08378925 -0.04166557 -0.1346395 -0.0038578152 0.0511235 -0.11952691 0.011960564 0.037404574
-0.1163719 -0.037631284 0.19271934 0.0017602652 0.0301551 -0.05595995 0.0018172398 -0.017761262
0.022305144 -0.030781882 0.094709374 0.0201519 0.011583767 -0.0039274776 0.0873969 0.2552648
-0.075274445 -0.020085752 -0.019362414 0.01999144 -0.0071722493 0.037295476 0.0092640035 0.03093704
-0.16633464 0.0513181 0.073087655 -0.013156052 0.017740192 0.01180132 0.0001937655 0.068207026
-0.15476017 0.054492787 0.027294673 -0.03421832 -0.033017777 0.054585483 0.041564252 0.05927018

conv1.lin_dst.weight f4 [128, 128]
00000000: 843d 163e fab6 edbd 1018 783d b71c b7bb
00000010: 106b 8ebc 6657 813c a7d2 b53c 1dbe 86bc
00000020: 0652 593d 3802 513d 0247 993c 4c68 263d
00000030: b7ac 8a3c 8d59 943c bf76 0cbe 8653 d9bc
00000040: a9be d93d 9708 20bc cd76 003d 61aa ebbd
00000050: b5ed 2fbd 8596 8bbd 3ff0 543e b383 12be
00000060: b886 413d 50cd e0bd fe9e e83b 1eee 733d
00000070: 3954 ac3d ac67 5ebc 9bdf dfbc 2e9b 903d
00000080: a966 893d 83f0 a53d 71a7 00bd 50bf 333d
00000090: 087f acbc cb11 0bbd 11c7 a7bd ba1f e2bd
000000a0: cb1a 80bd 0c1d 62bd 074f cdbd bf22 80bd
000000b0: 24d0 95bd e0ea dfbd 7305 3e3d 1e1b c5bc
000000c0: 9990 65bc ebef 043d 785e 3e3d 8691 b63d
000000d0: 6860 ae3a 4680 b7bc cda5 313e 0669 bcbd
000000e0: 13ac 00be 62bf 1d3e 48bf 83bc edf4 3fbd
000000f0: bf04 a3b9 9ccb 86bd d018 09be e764 4ebd
00000100: 8b24 abbc f2e7 953c bb75 773d 74d3 0c3d
00000110: 1d93 8bbc 7cc6 483d 4175 93bc 8446 e3bc
00000120: cae3 393d 67e8 8abd 70ff da3c e402 8e3d
00000130: e100 9e3d 9a39 1abd 4e1a 443d bef2 d03c
00000140: 4950 923c 9c61 b2bc 7061 ae3c b4ec 85bd
00000150: 7653 3d3c 59b5 2bbe c408 3abc e932 c7bc
00000160: ac2a 753d 49e1 34bd 4498 9c3c 3284 a8bc
00000170: 91e1 953c 3816 4e3d a789 7dbd 34c5 88bd
00000180: 6a49 913d ed89 fcbc 025b c63d fad8 b23c
00000190: d6c7 d93d 94bc ee3d f51a ae3d 5354 093e
000001a0: 518e 7bbd 33c5 0f3d 9c45 91bd dd7c 923d
000001b0: 5f65 cfbc 8e71 e3bd 24aa 233d 9873 a73d
000001c0: b7ff d2bd 47c7 323d c6c4 29be da89 0e3e
000001d0: 5c2e 423d 2bba 4abd 2e76 aabd e742 f83d
000001e0: ece8 983d 20b0 d33d 970d 94bd 5be7 223d
000001f0: 0581 0d3d e391 c03c 7167 8bbd aed3 3c3e
00000200: 5b71 563c 9b6f 7d3c fcb5 0cbc 67dd 4d3e
00000210: 52c3 193e ac5e 363d 6b72 b9bc fbf4 9abc
00000220: 5ab6 81bd 7588 f7bd d8c4 923c efd3 bf3d
00000230: 8409 c33d 2de9 ae3d 44a9 7c3d b1ab 683d
00000240: fbe1 c03c 802c b43c a9ed 773d 0d8a 66bd
00000250: 579b fc3c 2604 b9bd bb71 cf3c 608e 14be
00000260: 9f4a 1abe d7ad afbb 0caf 633d 318d 3fbd
00000270: 1082 073d 5ab3 17be 7c6c 18bd 32d0 87bd
00000280: 837a 6abd 1510 653d 01af 3ebd c71b 5a3d
00000290: 7f70 b63b 37fa 173d 522b 98bd 711e 43be
000002a0: 0777 393d 5c39 67be 3e20 023d 0f05 f23d
000002b0: 7419 603d c72f 14bd 42cd 67bd dcd8 25bd
000002c0: bad4 af3d add1 1e3d 2eba cb3d 03cf a4bd
000002d0: 4c85 16bc d349 9a3a 93c6 373e 142d 393d
000002e0: a81e abbd cfaa 643b 6df1 efbd e446 aabd
000002f0: 303c 0d3d 330e 3d3d dc4c b33d 9771 f1bd
00000300: ee71 91bd 7fb1 d4bc 60cf 6c3d 8c01 463c
00000310: d6b2 78bc a841 7fbd 472e f63c 9f57 a9bc
00000320: ea7f 943d 7b07 abbd 3895 b63c 80ec e3b9
00000330: 188f e0bd 3e0f e2bc 4912 203d b44c b3bc
00000340: b399 ab3d 84a9 2abd f0de 09be 66d3 7cbb
00000350: e066 513d 86ca f4bd 3ef6 433c 8a35 193d
00000360: 6454 eebd 4323 1abd 3858 453e b3b8 e63a
00000370: d407 f73c 4336 65bd 7330 ee3a 1180 91bc
00000380: 47b9 b63c 492a fcbc fdf6 c13d 9915 a53c
00000390: d7c9 3d3c 12b2 80bb 25fd b23d 11b2 823e
000003a0: 7d29 9abd e08a a4bc ed9d 9ebc 17c5 a33c
000003b0: 3005 ebbb 24c3 183d 0cc8 173c ad6f fd3c
000003c0: a153 2abe ee32 523d fbae 953d 7b8c 57bc
000003d0: e153 913c 535a 413c 882d 4b39 20b0 8b3d
000003e0: 7379 1ebe d433 5f3d 1499 df3c 8228 0cbd
000003f0: a63d 07bd 0795 5f3d 473f 2a3d 4ac5 723d
0.14671904 -0.11607166 0.060569823 -0.00558814 -0.017385036 0.015788745 0.022195173 -0.016448075
0.05305674 0.051027507 0.018710617 0.04062681 0.01692806 0.018109107 -0.13717173 -0.026529085
0.10632069 -0.009767673 0.031363297 -0.115071066 -0.042951304 -0.06815819 0.20794772 -0.14308052
0.04724762 -0.1097666 0.0070990315 0.059553258 0.08414502 -0.013574522 -0.027328303 0.07060848
0.06709034 0.081025146 -0.031409685 0.04388362 -0.021056667 -0.033952516 -0.08192266 -0.110412076
-0.0625511 -0.055203483 -0.10024839 -0.06256627 -0.0731509 -0.10933471 0.046391916 -0.024060782
-0.014011526 0.032455366 0.04647681 0.08914475 0.0013303878 -0.022400033 0.17348404 -0.09199719
-0.12565641 0.15405038 -0.016082421 -0.04686444 -0.0003109332 -0.06581804 -0.13388371 -0.050389197
-0.020891448 0.018299077 0.06041501 0.034381345 -0.017037923 0.049017414 -0.018000247 -0.027743585
0.045383252 -0.067826085 0.02673313 0.06934145 0.077150114 -0.03765259 0.04787665 0.025506373
0.017860549 -0.02177506 0.021286696 -0.06539288 0.011555543 -0.16768397 -0.011354629 -0.024316268
0.05985515 -0.04416016 0.019115575 -0.020570848 0.018296035 0.05031416 -0.061898854 -0.066782385
0.07094081 -0.030827487 0.09685327 0.021831978 0.10633819 0.11657062 0.085012354 0.13411073
-0.06141502 0.035100173 -0.07093355 0.07152722 -0.025316892 -0.11105643 0.03995718 0.08176345
-0.1030268 0.043647077 -0.1657897 0.13919774 0.047407493 -0.04949395 -0.08323322 0.121221356
0.07466301 0.103363276 -0.072291546 0.03977142 0.03454687 0.023507064 -0.06806839 0.18440124
0.0130885495 0.015468503 -0.00858831 0.2010399 0.15015915 0.04452388 -0.022637567 -0.018915644
-0.06333609 -0.12086574 0.017916128 0.09366595 0.09523299 0.085405685 0.06168486 0.056804363
0.023545256 0.021993876 0.060529385 -0.056284 0.03083579 -0.090339944 0.025322786 -0.14507437
-0.15067528 -0.0053612995 0.05558686 -0.04676551 0.03308302 -0.14814511 -0.037212834 -0.06631507
-0.057245743 0.05592354 -0.046553615 0.053249147 0.00556761 0.037103858 -0.07430138 -0.19054581
0.04527953 -0.22580475 0.03176903 0.11817371 0.054711774 -0.036178377 -0.056592233 -0.040490016
0.08585496 0.03877418 0.0994762 -0.08047297 -0.009187054 0.0011771269 0.17946844 0.045209005
-0.083554566 0.003489185 -0.1171597 -0.083143026 0.034481227 0.04615612 0.08754894 -0.11789244
-0.071018085 -0.025963543 0.057814956 0.01208533 -0.015179357 -0.062318474 0.030051364 -0.020671664
0.0725096 -0.08351036 0.02228795 -0.0004347302 -0.10964793 -0.027595159 0.039079938 -0.02188716
0.08378925 -0.04166557 -0.1346395 -0.0038578152 0.0511235 -0.11952691 0.011960564 0.037404574
-0.1163719 -0.037631284 0.19271934 0.0017602652 0.0301551 -0.05595995 0.0018172398 -0.017761262
0.022305144 -0.030781882 0.094709374 0.0201519 0.011583767 -0.0039274776 0.0873969 0.2552648
-0.075274445 -0.020085752 -0.019362414 0.01999144 -0.0071722493 0.037295476 0.0092640035 0.03093704
-0.16633464 0.0513181 0.073087655 -0.013156052 0.017740192 0.01180132 0.0001937655 0.068207026
-0.15476017 0.054492787 0.027294673 -0.03421832 -0.033017777 0.054585483 0.041564252 0.05927018

conv2.att_src f4 [1, 8, 16]
00000000: bf3a 65bd cbfe ae3e a140 b23e 012b 8dbc
00000010: 4eab 8bbe 86ea 00be 2029 fdbd 0afc a03a
00000020: 556f 9f3e c7a0 82be 8a3d 08be 846b 2dbe
00000030: 58eb 4cbe e7af aabe db15 873e ec73 d4be
00000040: e10e 21be 7c08 08be 6b5b ef3b 0403 b73e
00000050: f478 f2bd 1b06 e9bd c78d a13d d90e 10bc
00000060: 5e9d 88be 005f 853d 625b 2e3e d614 74be
00000070: 58a3 b43e fe3c 72be 59fa 933c 1d63 b4be
00000080: 8477 b2bd 219c 97be 083a a0be 59c1 a5bd
00000090: f5c3 35be b1cf ca3d 124b 5fbb 7a6b e4bd
000000a0: 0071 313e 1551 e03d f150 4ebe 5839 adbd
000000b0: 89cf 40be 0ed2 433d 262d c6bd 4d5a 713e
000000c0: c2ad fd3c 8a7e 9abe 0776 4bbd d0ea 1f3e
000000d0: 4b86 413e d4e6 853d 6ae0 45be 677e a2be
000000e0: 7941 0ebd d2ed 4a3e 3f24 4cbe 6b98 80be
000000f0: 97ba 9b3e 3068 63bd 6d6a ed3d 286c 03bc
00000100: 2dd0 b1be 0e0d 933e c807 223e c5c0 aebe
00000110: 9c01 413e 4e5c 713e 6d22 9f3e 9f48 03bd
00000120: d42c 67be 0af2 cb3d d104 013e 0d07 6dbd
00000130: 3e12 86be d778 9ebe 4074 a7be 8e8e cabd
00000140: f5f2 c53e fc0d 923d 2d08 25be a64e e1bd
00000150: 2778 6c3e 94a8 54be fc25 f43d 7d0b 9f3e
00000160: ada8 243e a938 103e a011 643e 136e 613d
00000170: 1c46 4ebe 39cc 7b3e b4a5 45bc cd18 47bd
00000180: 1ed2 2cbe ff98 aa3d 6031 01be 6691 df3d
00000190: 9e73 8fbe c1e3 8e3e 4e78 f13e 9cce adbe
000001a0: 64c0 74be c804 b4be e7dd 2c3e ae50 e53d
000001b0: c338 303e ce55 123e 298d 8f3e ebed 773e
000001c0: 2b4a 8dbd f831 113e 31c5 233d 2b72 3f3e
000001d0: 6c51 7e3e 420d 173e e395 c23d 5d9d 6f3d
000001e0: 7569 87bd 6648 b83d a3d4 303e 1aa0 ad3e
000001f0: 7160 273c 7e95 5f3e d852 9dbd 6ab5 a8bd
-0.055964228 0.34178767 0.34814933 -0.01723242 -0.27279133 -0.12589464 -0.123613596 0.0012282145
0.31139627 -0.25513288 -0.13304725 -0.16935545 -0.20011652 -0.33337328 0.26383862 -0.4149469
-0.15728332 -0.13284487 0.007304599 0.35744488 -0.11839476 -0.11378118 0.0788837 -0.008792602
-0.26682562 0.065122604 0.17027047 -0.23836073 0.3528087 -0.23656079 0.018063711 -0.35231867
-0.08714202 -0.29611304 -0.31294274 -0.08093519 -0.17750533 0.09902895 -0.0034071845 -0.11153312
0.17328262 0.10952965 -0.20148064 -0.08458203 -0.18829168 0.047807746 -0.0967658 0.23569603
0.030966643 -0.30174667 -0.049673107 0.15616918 0.18898885 0.065381676 -0.19323888 -0.31737062
-0.03473041 0.19817284 -0.19935702 -0.25116286 0.30415794 -0.055519283 0.11592565 -0.008021392
-0.34729138 0.28720897 0.15823281 -0.34131446 0.1884827 0.23570368 0.31080952 -0.03205168
-0.22575694 0.09958275 0.12599494 -0.057868052 -0.26185793 -0.30951568 -0.3270588 -0.098904714
0.38661924 0.071315736 -0.161164 -0.11001329 0.2309271 -0.20767432 0.119213074 0.31063452
0.1607997 0.14084114 0.22272348 0.055036616 -0.20143932 0.24589624 -0.0120634325 -0.048607636
-0.16877028 0.08329963 -0.12616491 0.109164044 -0.28017896 0.27908137 0.47162098 -0.33946693
-0.23901516 -0.35159898 0.16881524 0.11197029 0.17209153 0.14290544 0.28037384 0.24211852
-0.06898912 0.14179218 0.03998298 0.18695895 0.24835747 0.14751151 0.09501245 0.058499683
-0.06611911 0.08998184 0.17268614 0.3391121 0.0102158645 0.2183437 -0.07681817 -0.08237727

conv2.att_dst f4 [1, 8, 16]
00000000: 31d9 27be 66d9 bd3e f984 f5bd faac ee3e
00000010: 8229 d73d 0195 9abc d37c ad3d 22ef f53c
00000020: ad8b b83d c56d 32bc fe61 e6bd f9ed 0c3e
00000030: d098 debd 4d68 5c3e dc54 703e 3952 ea3c
00000040: a415 953d 096c 4dbe 8564 863d 5c07 50bd
00000050: 5f96 9fbd 6a0d a63d 796e b23e 0cff 393d
00000060: f3e2 bbbe 2d18 643e 7efc 173e c45d c93d
00000070: 2921 90bd 3c87 47bd 90ec b1be 6b8f 273e
00000080: b621 c73c f9b1 8bbe ee51 a7bd e448 f2bc
00000090: 1efa 1cbe 2319 45bd 949f b43c 43ef 0ebe
000000a0: ba5c 0e3e a706 723e 604f 1cbe e9d5 77be
000000b0: 15d9 ffbd a496 9bbd 1ed5 21be a735 433d
000000c0: 5662 b8bd dc6c 473d 5534 3d3e cda4 f4bd
000000d0: facc a6bc dbec d83c 28f4 883c d967 8ebe
000000e0: 5d00 dabd d0b3 3f3e b355 d33c fe14 16bd
000000f0: 6b32 833e 737f df3e 8d95 863e 9e4f b03d
00000100: 8ac5 80be fe24 61be 464c 733e 60b6 28be
00000110: c89d d03e bf7d a93d b5d4 a33d 9e99 463d
00000120: 0dbe 02be cfa2 95be 31cb a23d 770d 37be
00000130: 68de 93be 3785 b5bb 2c9c 3abe 8c1a b3bc
00000140: 2161 a9bd 69fd 2b3e be7e 6ebe 6066 2abb
00000150: a07c bfbd 0aae 81be 0d90 96bd a885 dcbd
00000160: f2eb b9bd 0eba 793e c5c6 af3d 7f1b 37be
00000170: c027 5dbe 3b03 593d 42d6 95be 3a24 363d
00000180: 613d c63d 830f c73e 0fe4 2cbe 1bc6 9dbe
00000190: b7f4 4fbd a5dd bebd 3218 28be 821d 5e3e
000001a0: 3cff 80be f0dc 3bbc dfe1 723d cd6f 813e
000001b0: c553 923e 64fd 9fbe 679a a13e f2cd 5ebe
000001c0: 8513 47be e11d 303e 1a7c c9bc b27a 4bbe
000001d0: 9f73 fe3d 82b2 a13e 0407 673e 4e2e 953e
000001e0: 3647 06be bd03 a13d 6361 ccbd 69bc 383e
000001f0: 360f 133e 540a e53d 84f8 413e 0575 07be
-0.16391446 0.37079924 -0.11988253 0.46616346 0.10505964 -0.018869879 0.08471074 0.030021254
0.09011016 -0.010890429 -0.11249159 0.13762654 -0.108689904 0.21524163 0.23469871 0.02860366
0.07279518 -0.20060743 0.06562141 -0.05078827 -0.07792353 0.08108027 0.3484991 0.045409247
-0.36696586 0.22274847 0.14842412 0.098323375 -0.07037575 -0.048712954 -0.34750795 0.16363303
0.024308067 -0.2728422 -0.08169924 -0.029575773 -0.15329787 -0.048119675 0.022048749 -0.13958459
0.1390256 0.2363535 -0.15264654 -0.24202694 -0.12492577 -0.07597092 -0.15803954 0.04765859
-0.09003131 0.0486878 0.18476994 -0.11945496 -0.020361412 0.026480129 0.016717985 -0.27813604
-0.106446005 0.18720937 0.0257977 -0.036641113 0.25624403 0.43651924 0.26285973 0.08608936
-0.2515071 -0.21986768 0.23759565 -0.1647582 0.40745378 0.08275937 0.07999555 0.048486345
-0.12767811 -0.29225776 0.07948912 -0.1787623 -0.2888062 -0.005539562 -0.18223637 -0.021863244
-0.08270479 0.16795887 -0.23290536 -0.0026000962 -0.09349942 -0.25328094 -0.07351694 -0.107676804
-0.09078206 0.2438738 0.08582834 -0.17881583 -0.21597195 0.052981596 -0.29265028 0.044468142
0.09679676 0.38879022 -0.16883872 -0.30815205 -0.050770488 -0.09319619 -0.1641548 0.21690944
-0.25194728 -0.01146625 0.05929744 0.2528061 0.28579536 -0.3124801 0.31563112 -0.2175825
-0.1944104 0.17198898 -0.024595309 -0.19871023 0.12424397 0.31581503 0.2256127 0.2913689
-0.13113102 0.07862041 -0.099795125 0.18040623 0.14361271 0.111836106 0.18942457 -0.13228233

conv2.bias f4 [128]
00000000: a3c1 bfbd a938 c5bd 24b9 b03b 27b6 a0bd
00000010: 0118 6fb9 02cb 643c 36a1 9fbd 881b 7d3d
00000020: 166b cf3d 4291 e83b 84b9 9abd 5c60 2ebd
00000030: 936f 683d e794 82bd d800 323e 134c 6f3c
00000040: 1978 f63c 2f6a 313c b77f 0f3c 96af 913c
00000050: ebf2 3abd d0e0 24bd 5982 9dbc f0a2 283d
00000060: bf79 8a3d ad67 ad3d c163 393c 9fe6 13be
00000070: d34a 713d e8d2 ac3c b954 8a3d 7bf3 9fbd
00000080: b84b b33d e800 b0bc a30a d8bd d36e bb3c
00000090: c337 0fbd 2d92 073d 509e f53d 14f9 2c3d
000000a0: f795 91bd 6a19 d23d d693 f3bd c38b 313d
000000b0: 4888 f6bc b6b9 e73c aa44 ca3d 73ae b03d
000000c0: 6cb6 873d 1ffe 98bc eccf b2bd 9c95 a93d
000000d0: b540 46bd d87d 533d 5c05 03bd 63d1 98bd
000000e0: a6d0 a73d ee3a 473d e0b8 393d abea e7bd
000000f0: 708e 233e 4587 873c d94a aabd 1b4d 753d
00000100: e10f f039 af11 033d 069f 08bd 8da9 703c
00000110: b860 5e3d 2d3b d93c 4784 a33c 333c 8a3d
00000120: 6ac7 b43c 9e07 e93c 2f2d aebd 881e 043c
00000130: 679f 3cbc 4526 c6bc 8277 2a3a 3f43 19bd
00000140: 4a4b 76bd ffb2 0fbd 4b60 3b3b bded 16bd
00000150: f089 7dbc d5cc 853c 4970 903d 194c 963d
00000160: 2ab9 033d 24fa ee3c c0b6 c03b a928 5d3b
00000170: 3f0e cdbc 4d89 7e3d 269d 85bc f25f 303d
00000180: 3606 4cbd 5499 d9bb 1a6a 28bc 979b d73c
00000190: 2e90 84bd c117 0dbc 638b 293d badd 75bd
000001a0: a291 2bbd 488d 89bd 7d7e 9c3d 6a82 2a3d
000001b0: e651 333d 1c77 f63d 7e35 c33d 6625 043d
000001c0: 3a59 7f3d 1f95 f63d 034b 083d 4bc3 b8bb
000001d0: 1dcc 0c3e 8733 903c aab0 9d3d 1418 76bd
000001e0: 311f 2c3d ed8c 723d 1d09 6a3d 45b7 893d
000001f0: c808 313d d17c 543d 74f1 2e3d afe1 043d
-0.09363105 -0.09629948 0.005393164 -0.07847243 -0.00022801758 0.013964416 -0.077944204 0.061793834
0.10127847 0.007097394 -0.075549155 -0.042572364 0.05674703 -0.06376057 0.17383134 0.01460554
0.030086564 0.010828539 0.008758477 0.017783921 -0.04564182 -0.04025346 -0.019227194 0.041171014
0.067615025 0.0846704 0.011315287 -0.14443444 0.05890925 0.021096662 0.06754441 -0.07810112
0.087546766 -0.021484807 -0.10548904 0.022879994 -0.034965288 0.03309839 0.11993086 0.042229727
-0.07108682 0.102587536 -0.11893432 0.043346178 -0.03009428 0.028286796 0.09876378 0.086270235
0.06626591 -0.018675862 -0.08731064 0.08280489 -0.048401553 0.051633686 -0.031987533 -0.07461812
0.081940934 0.048640184 0.045342326 -0.11324056 0.15972304 0.016543994 -0.08315057 0.059887987
0.00045788198 0.031999286 -0.03335478 0.014688862 0.054291457 0.026517475 0.019960536 0.06749763
0.022067744 0.028446015 -0.08504712 0.00806392 -0.011512614 -0.02418817 0.00065027934 -0.037417646
-0.060130395 -0.035082813 0.002859133 -0.03684782 -0.015474781 0.016333023 0.07052667 0.07338733
0.032159008 0.02917201 0.0058811605 0.003374616 -0.025031207 0.06214266 -0.016310286 0.04306025
-0.04981061 -0.0066405926 -0.010279203 0.026319308 -0.064728126 -0.00861162 0.041392695 -0.060025908
-0.041886933 -0.067164004 0.07641313 0.04162828 0.043779276 0.12034437 0.09531687 0.03226223
0.062340952 0.12040161 0.03327466 -0.005638515 0.13749738 0.017602695 0.076997116 -0.060081556
0.042021934 0.05921643 0.057137597 0.06724409 0.043221265 0.051876847 0.042710736 0.03244179

conv2.lin_src.weight f4 [128, 128]
00000000: 89f5 9bbc c82f af3b 3ad8 80bd 3c1e f13c
00000010: b72d 293d b925 bdbd 7ff7 1b3b b927 ae3d
00000020: bb22 a6bd c44b 1dbd 2754 8b3d 4088 56bc
00000030: aed2 c53c f9b6 893d 5394 d73c 0ff5 393d
00000040: 22ca 84bc 271d f7bd 0608 06bd 28b0 da3b
00000050: ef0b efbc 8fd3 883d 1399 be3d dd04 b93c
00000060: fea6 21bd ea54 c5bc f366 ddbc add3 38bd
00000070: 6e7a 26bb df33 d43a 7272 d5bb 647d 443d
00000080: 102a 19be 7940 5e3e 687c 35bd 4007 49bd
00000090: 56d3 ba3c df65 61bd a12e 8fbd 3af2 87bc
000000a0: c195 debc 0eed 30bd e6c9 853c de5a b4bd
000000b0: ea27 06be 0e99 e2bd 166f 663d befb 07bd
000000c0: d1d9 6dbc 3e9a a1bd 08cd 603c cb48 a8bd
000000d0: 1d83 833d 2fa6 94bb 0d7b 28bd 9e09 b2bd
000000e0: 808b 43bd 6f4b d4bc 34aa ddbc d003 ad3a
000000f0: 2121 56bc 6641 a1bc 219a 313c 91ca 09be
00000100: af85 d5bd 6593 f33c c7b1 3abd 5d6b d1bd
00000110: bedf a33a 59fd 693c 1fc1 a7bc 1cf7 b93c
00000120: 9a87 84bd cce7 a0bc 093b 8c3d 934a 31bd
00000130: 3e4c e6bd 0298 01be cdaf ecbc a2d6 a0bd
00000140: f375 0a3d a286 813d 229d d5bc a478 0bbd
00000150: ca0f a7bc 4783 20be 9de8 92bc 7291 45bd
00000160: f5a3 babb c806 1e3d a147 8f3c dc9d 803c
00000170: 7a47 0cbd 017b 70bd 7125 593d e2a9 3ebd
00000180: a907 8abb 3e4d 513c 53d3 acbc 5697 dabd
00000190: 13d4 80bc c105 6d3d cdcb 85bd f020 38bd
000001a0: ef8d 94bd d766 8abc 284e 9c3d f6d5 86bd
000001b0: b323 9b3c c054 153d faec 67bb 58d9 383d
000001c0: e9c8 04bd 5c20 37bd a787 80bd 2f9a 9abc
000001d0: 581e f83c 6e5d 4cbc 2fda 653d aa7e 26bc
000001e0: 5215 eebd b600 07bd 32c8 073d 4b2d 933c
000001f0: 1b0b 0a3d 0b77 d2bc 74c6 85bd a221 fdbc
00000200: 98fe 99bc 8dce 413d 0af8 41be 39b6 013c
00000210: 49aa cdbd 1ad0 5c3d 46fa 04be 4403 2cbc
00000220: 6dda 5b3d b349 56be 1469 dd3c 77ac 0c3e
00000230: 928a 43bd c6fd 223d 5171 2b3d bf1d 3bbd
00000240: 9a83 ea3c c7d1 84bd 0705 26be 67e2 123d
00000250: 0d48 83bc c5be a13d 1d82 afbd 0aef 09bd
00000260: 4104 d9bd 5d15 12be ee84 fa3c e2f8 bebd
00000270: 7dcf bdbc 6e4d 903d 0cea 42bc d91d d6bd
00000280: ff2b a0bd 50c1 363b 9e79 34bc 8909 fc3d
00000290: 56f8 323d 2f4f c2bd 254b 40bd d842 05bd
000002a0: 157c 19be 58e0 22bd 39df 053d 10d5 aebd
000002b0: af04 7ebc 8ad1 2dbe 02a3 f0bd 5220 2b3d
000002c0: ddd8 173d c540 42bd 9253 3abe 0c9a b1bd
000002d0: b32b 82bd a7be 70bd 2b94 41bd 2a30 4f3c
000002e0: 02d3 21bd 6a1d 3f3d 5df4 483d e3d8 0cbd
000002f0: b771 73bd 82ad 8e3d 6cba 28bd 0e3c 783d
00000300: 9eb6 4e3e 83e2 95bd 8f09 1e3d 828c 3bbc
00000310: 21b3 48bd 8baa 0d3d fbb7 123e 051e 02be
00000320: 2250 123d dae1 073d f3f6 8ebd e679 4abe
00000330: 2e35 50bd eab8 4c3d b9ba bfbd 1568 663c
00000340: 5eba 39bd 8c85 11ba 60da abbd 2480 a23c
00000350: 5c80 81bd b32a 4b3d 5d57 3bbd b90e e03c
00000360: 4d5e 38bc 801d 40be 4c31 40bd 9862 bd3c
00000370: 6201 7bbc 9f22 8e3d 1aa7 dabc 46eb be3c
00000380: e817 57be 9e4c 79bd 84b6 39bd 34de 1abe
00000390: 133f ca3c d234 6b3d 08b9 6a3d a76e 37bc
000003a0: c8db 8ebc b9a2 b9bd dc5b 7ebd 103e f63c
000003b0: 7921 5cbd c903 34be 0c7b 04be 125f 0fbe
000003c0: d73c babd deb9 c93c cbb9 56bd b009 bdbc
000003d0: 55db efbd 2f35 e4bd ccb5 14be 3b08 11be
000003e0: e8b4 14bc e7ec 30be d98b 2c3d fbc9 aabc
000003f0: 3242 22bd c26a c3bd 53ef 133c 6188 99bd
-0.019037979 0.005346272 -0.06291242 0.029433362 0.041303363 -0.09235711 0.0023798642 0.0850367
-0.08112093 -0.038402334 0.0680316 -0.013094008 0.024148311 0.067243524 0.026315844 0.04539972
-0.016209666 -0.12066107 -0.032722495 0.0066738315 -0.029180495 0.066809766 0.0930654 0.022585327
-0.039465897 -0.024088342 -0.02702663 -0.045123745 -0.0025402564 0.0016189775 -0.006513887 0.047971144
-0.14957452 0.21704282 -0.044308096 -0.04907918 0.022805851 -0.055028792 -0.06991316 -0.016594995
-0.027171018 -0.043194823 0.016331624 -0.08806394 -0.13101164 -0.11064349 0.056258284 -0.033199064
-0.0145172635 -0.078907475 0.013720758 -0.08217009 0.06421492 -0.004536412 -0.041132975 -0.086932406
-0.04774046 -0.025914876 -0.027058698 0.0013199989 -0.013069422 -0.019684505 0.01083997 -0.13456179
-0.10425889 0.02973337 -0.045579698 -0.10225556 0.0012502593 0.014281594 -0.02047783 0.022700839
-0.064711764 -0.01964178 0.068471976 -0.04328401 -0.11245011 -0.12655643 -0.028892422 -0.07853438
0.03380389 0.06324507 -0.026075903 -0.0340506 -0.020393271 -0.15675078 -0.017933184 -0.04823441
-0.0056958147 0.038580686 0.01749021 0.015700273 -0.034247853 -0.058711056 0.053014223 -0.04654873
-0.004212339 0.012774764 -0.021096861 -0.10673396 -0.015726125 0.057866815 -0.065330125 -0.044953287
-0.07253634 -0.016894741 0.076320946 -0.065837786 0.018937921 0.036457777 -0.0035389052 0.04512915
-0.032418165 -0.044708595 -0.06275874 -0.018872349 0.030287907 -0.012473447 0.05611628 -0.010162035
-0.1162516 -0.032959662 0.033149906 0.017965933 0.033701997 -0.02569153 -0.065319926 -0.030899826
-0.018798158 0.047316123 -0.18942276 0.00791698 -0.10042245 0.0539094 -0.12986097 -0.010498825
0.053675104 -0.20926552 0.027027644 0.13737665 -0.047739573 0.0397928 0.041856114 -0.045682665
0.028627206 -0.06485324 -0.16212855 0.035860445 -0.016025567 0.078977145 -0.08569739 -0.03367523
-0.105965145 -0.14265962 0.030580964 -0.093248144 -0.023170227 0.070460185 -0.011896621 -0.10454912
-0.078208916 0.002788622 -0.011015324 0.12306506 0.043693863 -0.09487759 -0.046946663 -0.03253445
-0.1498874 -0.039764732 0.032683585 -0.08536732 -0.015504046 -0.16974464 -0.11749841 0.04177887
0.03707205 -0.04742505 -0.18195942 -0.0867196 -0.06355991 -0.05877557 -0.047260445 0.012645761
-0.039507873 0.04665891 0.049061168 -0.034386527 -0.05943462 0.06966688 -0.04119341 0.060604148
0.2018685 -0.07318594 0.038583335 -0.011447074 -0.048998956 0.03458647 0.14327995 -0.12706764
0.03572095 0.033174373 -0.069806956 -0.19773063 -0.050831966 0.049981035 -0.093617864 0.014062901
-0.04534375 -0.0005551211 -0.08391261 0.019836493 -0.06323311 0.049601268 -0.045737613 0.02735077
-0.011252952 -0.18761253 -0.046922013 0.023118302 -0.015320154 0.06940197 -0.026691008 0.023305546
-0.21005213 -0.060864083 -0.045340076 -0.15123826 0.02468828 0.05742342 0.057305366 -0.011195815
-0.017438784 -0.0906424 -0.062099323 0.03005889 -0.05374286 -0.17579569 -0.12937564 -0.1400111
-0.090936355 0.024624761 -0.05242328 -0.023075908 -0.11711756 -0.111429565 -0.14522475 -0.14163296
-0.009076335 -0.17277871 0.042125557 -0.020848265 -0.03961391 -0.09541847 0.009029227 -0.07496715

conv2.lin_dst.weight f4 [128, 128]
00000000: 89f5 9bbc c82f af3b 3ad8 80bd 3c1e f13c
00000010: b72d 293d b925 bdbd 7ff7 1b3b b927 ae3d
00000020: bb22 a6bd c44b 1dbd 2754 8b3d 4088 56bc
00000030: aed2 c53c f9b6 893d 5394 d73c 0ff5 393d
00000040: 22ca 84bc 271d f7bd 0608 06bd 28b0 da3b
00000050: ef0b efbc 8fd3 883d 1399 be3d dd04 b93c
00000060: fea6 21bd ea54 c5bc f366 ddbc add3 38bd
00000070: 6e7a 26bb df33 d43a 7272 d5bb 647d 443d
00000080: 102a 19be 7940 5e3e 687c 35bd 4007 49bd
00000090: 56d3 ba3c df65 61bd a12e 8fbd 3af2 87bc
000000a0: c195 debc 0eed 30bd e6c9 853c de5a b4bd
000000b0: ea27 06be 0e99 e2bd 166f 663d befb 07bd
000000c0: d1d9 6dbc 3e9a a1bd 08cd 603c cb48 a8bd
000000d0: 1d83 833d 2fa6 94bb 0d7b 28bd 9e09 b2bd
000000e0: 808b 43bd 6f4b d4bc 34aa ddbc d003 ad3a
000000f0: 2121 56bc 6641 a1bc 219a 313c 91ca 09be
00000100: af85 d5bd 6593 f33c c7b1 3abd 5d6b d1bd
00000110: bedf a33a 59fd 693c 1fc1 a7bc 1cf7 b93c
00000120: 9a87 84bd cce7 a0bc 093b 8c3d 934a 31bd
00000130: 3e4c e6bd 0298 01be cdaf ecbc a2d6 a0bd
00000140: f375 0a3d a286 813d 229d d5bc a478 0bbd
00000150: ca0f a7bc 4783 20be 9de8 92bc 7291 45bd
00000160: f5a3 babb c806 1e3d a147 8f3c dc9d 803c
00000170: 7a47 0cbd 017b 70bd 7125 593d e2a9 3ebd
00000180: a907 8abb 3e4d 513c 53d3 acbc 5697 dabd
00000190: 13d4 80bc c105 6d3d cdcb 85bd f020 38bd
000001a0: ef8d 94bd d766 8abc 284e 9c3d f6d5 86bd
000001b0: b323 9b3c c054 153d faec 67bb 58d9 383d
000001c0: e9c8 04bd 5c20 37bd a787 80bd 2f9a 9abc
000001d0: 581e f83c 6e5d 4cbc 2fda 653d aa7e 26bc
000001e0: 5215 eebd b600 07bd 32c8 073d 4b2d 933c
000001f0: 1b0b 0a3d 0b77 d2bc 74c6 85bd a221 fdbc
00000200: 98fe 99bc 8dce 413d 0af8 41be 39b6 013c
00000210: 49aa cdbd 1ad0 5c3d 46fa 04be 4403 2cbc
00000220: 6dda 5b3d b349 56be 1469 dd3c 77ac 0c3e
00000230: 928a 43bd c6fd 223d 5171 2b3d bf1d 3bbd
00000240: 9a83 ea3c c7d1 84bd 0705 26be 67e2 123d
00000250: 0d48 83bc c5be a13d 1d82 afbd 0aef 09bd
00000260: 4104 d9bd 5d15 12be ee84 fa3c e2f8 bebd
00000270: 7dcf bdbc 6e4d 903d 0cea 42bc d91d d6bd
00000280: ff2b a0bd 50c1 363b 9e79 34bc 8909 fc3d
00000290: 56f8 323d 2f4f c2bd 254b 40bd d842 05bd
000002a0: 157c 19be 58e0 22bd 39df 053d 10d5 aebd
000002b0: af04 7ebc 8ad1 2dbe 02a3 f0bd 5220 2b3d
000002c0: ddd8 173d c540 42bd 9253 3abe 0c9a b1bd
000002d0: b32b 82bd a7be 70bd 2b94 41bd 2a30 4f3c
000002e0: 02d3 21bd 6a1d 3f3d 5df4 483d e3d8 0cbd
000002f0: b771 73bd 82ad 8e3d 6cba 28bd 0e3c 783d
00000300: 9eb6 4e3e 83e2 95bd 8f09 1e3d 828c 3bbc
00000310: 21b3 48bd 8baa 0d3d fbb7 123e 051e 02be
00000320: 2250 123d dae1 073d f3f6 8ebd e679 4abe
00000330: 2e35 50bd eab8 4c3d b9ba bfbd 1568 663c
00000340: 5eba 39bd 8c85 11ba 60da abbd 2480 a23c
00000350: 5c80 81bd b32a 4b3d 5d57 3bbd b90e e03c
00000360: 4d5e 38bc 801d 40be 4c31 40bd 9862 bd3c
00000370: 6201 7bbc 9f22 8e3d 1aa7 dabc 46eb be3c
00000380: e817 57be 9e4c 79bd 84b6 39bd 34de 1abe
00000390: 133f ca3c d234 6b3d 08b9 6a3d a76e 37bc
000003a0: c8db 8ebc b9a2 b9bd dc5b 7ebd 103e f63c
000003b0: 7921 5cbd c903 34be 0c7b 04be 125f 0fbe
000003c0: d73c babd deb9 c93c cbb9 56bd b009 bdbc
000003d0: 55db efbd 2f35 e4bd ccb5 14be 3b08 11be
000003e0: e8b4 14bc e7ec 30be d98b 2c3d fbc9 aabc
000003f0: 3242 22bd c26a c3bd 53ef 133c 6188 99bd
-0.019037979 0.005346272 -0.06291242 0.029433362 0.041303363 -0.09235711 0.0023798642 0.0850367
-0.08112093 -0.038402334 0.0680316 -0.013094008 0.024148311 0.067243524 0.026315844 0.04539972
-0.016209666 -0.12066107 -0.032722495 0.0066738315 -0.029180495 0.066809766 0.0930654 0.022585327
-0.039465897 -0.024088342 -0.02702663 -0.045123745 -0.0025402564 0.0016189775 -0.006513887 0.047971144
-0.14957452 0.21704282 -0.044308096 -0.04907918 0.022805851 -0.055028792 -0.06991316 -0.016594995
-0.027171018 -0.043194823 0.016331624 -0.08806394 -0.13101164 -0.11064349 0.056258284 -0.033199064
-0.0145172635 -0.078907475 0.013720758 -0.08217009 0.06421492 -0.004536412 -0.041132975 -0.086932406
-0.04774046 -0.025914876 -0.027058698 0.0013199989 -0.013069422 -0.019684505 0.01083997 -0.13456179
-0.10425889 0.02973337 -0.045579698 -0.10225556 0.0012502593 0.014281594 -0.02047783 0.022700839
-0.064711764 -0.01964178 0.068471976 -0.04328401 -0.11245011 -0.12655643 -0.028892422 -0.07853438
0.03380389 0.06324507 -0.026075903 -0.0340506 -0.020393271 -0.15675078 -0.017933184 -0.04823441
-0.0056958147 0.038580686 0.01749021 0.015700273 -0.034247853 -0.058711056 0.053014223 -0.04654873
-0.004212339 0.012774764 -0.021096861 -0.10673396 -0.015726125 0.057866815 -0.065330125 -0.044953287
-0.07253634 -0.016894741 0.076320946 -0.065837786 0.018937921 0.036457777 -0.0035389052 0.04512915
-0.032418165 -0.044708595 -0.06275874 -0.018872349 0.030287907 -0.012473447 0.05611628 -0.010162035
-0.1162516 -0.032959662 0.033149906 0.017965933 0.033701997 -0.02569153 -0.065319926 -0.030899826
-0.018798158 0.047316123 -0.18942276 0.00791698 -0.10042245 0.0539094 -0.12986097 -0.010498825
0.053675104 -0.20926552 0.027027644 0.13737665 -0.047739573 0.0397928 0.041856114 -0.045682665
0.028627206 -0.06485324 -0.16212855 0.035860445 -0.016025567 0.078977145 -0.08569739 -0.03367523
-0.105965145 -0.14265962 0.030580964 -0.093248144 -0.023170227 0.070460185 -0.011896621 -0.10454912
-0.078208916 0.002788622 -0.011015324 0.12306506 0.043693863 -0.09487759 -0.046946663 -0.03253445
-0.1498874 -0.039764732 0.032683585 -0.08536732 -0.015504046 -0.16974464 -0.11749841 0.04177887
0.03707205 -0.04742505 -0.18195942 -0.0867196 -0.06355991 -0.05877557 -0.047260445 0.012645761
-0.039507873 0.04665891 0.049061168 -0.034386527 -0.05943462 0.06966688 -0.04119341 0.060604148
0.2018685 -0.07318594 0.038583335 -0.011447074 -0.048998956 0.03458647 0.14327995 -0.12706764
0.03572095 0.033174373 -0.069806956 -0.19773063 -0.050831966 0.049981035 -0.093617864 0.014062901
-0.04534375 -0.0005551211 -0.08391261 0.019836493 -0.06323311 0.049601268 -0.045737613 0.02735077
-0.011252952 -0.18761253 -0.046922013 0.023118302 -0.015320154 0.06940197 -0.026691008 0.023305546
-0.21005213 -0.060864083 -0.045340076 -0.15123826 0.02468828 0.05742342 0.057305366 -0.011195815
-0.017438784 -0.0906424 -0.062099323 0.03005889 -0.05374286 -0.17579569 -0.12937564 -0.1400111
-0.090936355 0.024624761 -0.05242328 -0.023075908 -0.11711756 -0.111429565 -0.14522475 -0.14163296
-0.009076335 -0.17277871 0.042125557 -0.020848265 -0.03961391 -0.09541847 0.009029227 -0.07496715

conv3.att_src f4 [1, 1, 4]
00000000: f853 a7bd 324b 173f 6a37 113f 620f babc
-0.08170313 0.59099114 0.5672518 -0.022712413

conv3.att_dst f4 [1, 1, 4]
00000000: 5453 10bf fa93 5f3f dd65 8a3f 5f6d 063e
-0.5637715 0.8733517 1.0812336 0.1312766

conv3.bias f4 [4]
00000000: d848 76be 002d ca3e 562c edbd 5091 22bd
-0.24051225 0.39487457 -0.11580722 -0.039689362
