models/SKY_Pretrained/facebookpagepage_gcn_model.pth (torch, 12742 bytes, 6 tensors)

conv1.bias f4 [16]
000000 79 c0 26 be 96 4a 41 bb 84 6c 2f be b3 1a 44 b9
       -0.1628436 -0.002949392 -0.17131239 -0.00018701963
000010 31 46 40 bc cf 9b 24 3d f5 6b b1 3c 2f b4 0c bd
       -0.011735485 0.040187653 0.021657923 -0.034351524
000020 c1 63 97 be 77 05 45 be 9b 29 b3 be e7 08 04 bd
       -0.29568294 -0.19240366 -0.3499268 -0.032235052
000030 7a 18 0d bd fc 29 40 be 53 02 c9 bd 52 7f c6 bc
       -0.03444717 -0.18766016 -0.098148964 -0.024230633

conv1.lin.weight f4 [16, 128]
000000 a2 d9 b2 3d f4 6e f6 bd 77 1d 7c bd ad e8 a9 bd
       0.087329164 -0.120328814 -0.061551537 -0.082963325
000010 59 30 5d 3e 3e 3b 7b 3d 9b 65 ac 3a a2 2e 18 3d
       0.21600474 0.061335795 0.0013152839 0.037153848
000020 b5 e4 db 3b 60 16 90 3c c5 a3 da bd 54 73 3e 3e
       0.0067106136 0.017588794 -0.10675768 0.18598682
000030 9c cf 86 bd e4 f1 a9 3c 85 71 31 be 53 8b 91 bd
       -0.06582567 0.020745225 -0.1732846 -0.07106652
000040 2d b5 1a 3e a9 2f 96 bd f5 89 2d 3e 73 0f 11 be
       0.15108176 -0.07333309 0.16947158 -0.1416605
000050 fb ab e2 bc 51 2b c9 be 56 a4 2c 3e 6c 6e 6f be
       -0.027669897 -0.3929086 0.16859564 -0.23381966
000060 e7 55 99 be f5 16 20 bd 9a ac 49 3e 49 2d 8b bc
       -0.2994835 -0.039084394 0.19694749 -0.016989367
000070 1c 38 ee 3d 8d 2b 61 3e 33 34 8b 3a d3 9d 34 3e
       0.11631796 0.2198927 0.0010620415 0.1763833
000080 aa be 02 be 2c 46 17 3e 16 24 aa bd a0 d0 87 bd
       -0.12768045 0.14772862 -0.08307664 -0.06631589
000090 45 dc 82 be 59 73 00 bd 9a dc 9b be 1e ef 8b be
       -0.25558677 -0.031360004 -0.30441743 -0.2733087
0000a0 a8 03 9b be 98 a0 37 3c 41 4c 0c bd 98 e9 28 be
       -0.30276227 0.011207722 -0.03425241 -0.16495359
0000b0 49 d7 81 3d 95 06 e2 3c ef 06 ea bc ff 7a 12 3d
       0.063398905 0.02759103 -0.02856776 0.03576183
0000c0 f3 3f 07 be 25 a8 78 3d 8b 03 97 3e ae d9 41 3e
       -0.13207988 0.06070723 0.2949489 0.18930694
0000d0 61 84 da 3d 3e fe 83 3c 29 bb c6 3e d3 9f 99 3d
       0.106697805 0.016112443 0.38814667 0.07501187
0000e0 54 70 99 be be f6 05 3f 89 81 a2 3d 7a 09 40 3e
       -0.29968512 0.52329624 0.07934863 0.18753615
0000f0 40 7c 46 bd 0c ee 35 be c7 d7 69 be 25 c4 a9 be
       -0.048458338 -0.17766589 -0.22836219 -0.3315746
000100 8e 96 1d bd fb 00 44 3d 55 60 61 be d0 99 7a 3e
       -0.03847366 0.047852498 -0.22009404 0.24472737
000110 9c 27 1a bd 21 b2 37 3c 9c 7a 41 be f8 69 35 3d
       -0.03763543 0.011211903 -0.18894428 0.044290513
000120 84 88 ed be 0e 9b 24 bd b0 1f 02 bd 41 53 01 3e
       -0.46393216 -0.040186934 -0.0317685 0.12629415
000130 f6 fe 9f bd 7c c9 4c bd 3f a4 a5 3d 8d 67 3f bd
       -0.07812302 -0.049996838 0.08087968 -0.046729613
000140 90 8f 35 bd ed a8 56 3e 2c c4 a0 bd 88 65 61 3b
       -0.044326365 0.20962878 -0.07849917 0.0034392793
000150 be 6f 9e bd 8f 18 1a be 24 58 d4 bd 8d 77 eb 3c
       -0.07736157 -0.15048431 -0.10368374 0.02874353
000160 ac f9 fa 3d 12 96 61 bd 94 e8 86 be ad ba 45 be
       0.122546524 -0.05507476 -0.26349318 -0.19309492
000170 47 de a9 bd 69 d0 e5 bc 72 98 34 3d 45 46 48 be
       -0.08294349 -0.02805348 0.044090696 -0.19558056
000180 c0 e2 08 3e 5b 6a aa 3d bb 54 07 3e 6d 1a 04 be
       0.13367748 0.08321067 0.13215916 -0.12900706
000190 9b c3 b4 be 4e 77 f1 3d 1b 28 18 3d 4f 19 00 3f
       -0.35305485 0.11790334 0.037147623 0.5003862
0001a0 9e 7a 43 bb 8f 3f 82 3d 43 8a 9a 3d 8d 60 11 bd
       -0.0029827724 0.06359779 0.075459026 -0.03549247
0001b0 9a 28 17 bd f7 6d 91 be f3 74 a1 3d c9 67 5f 3d
       -0.036903955 -0.2840421 0.078836344 0.054542337
0001c0 72 13 00 be 5b 20 cc bd 37 c9 e1 be 5e 5e 24 bd
       -0.12507418 -0.09967109 -0.44098827 -0.040129058
0001d0 c6 7d 02 bc d6 6b 89 be cb fe 1e 3e 98 c1 90 3d
       -0.007964557 -0.26840085 0.15526883 0.07068175
0001e0 93 f6 d5 bd a6 3a 34 bd a7 09 1b 3e 23 cc 09 bd
       -0.10447421 -0.044001244 0.15140401 -0.033641946
0001f0 a2 19 18 be 18 1a 94 bc 92 75 0b 3e e6 2e d0 3c
       -0.14853528 -0.018078849 0.13619068 0.025412988
000200 84 55 85 be b7 e4 55 be c0 d5 99 bd 72 4b ae 3b
       -0.26041806 -0.20888029 -0.07511473 0.0053190524
000210 40 30 6a be 3f 81 03 be da 0d df bd e2 76 aa be
       -0.22869968 -0.12842272 -0.10891314 -0.33293825
000220 83 ed 5f bd de 49 88 3e c6 8a 8a 3e 35 de 03 3e
       -0.05466987 0.26618856 0.27059 0.12877734
000230 98 6b 37 be 9c b1 1a bd cb 80 f2 be 68 0d 2e be
       -0.17912138 -0.037767038 -0.47363886 -0.16997302
000240 cb a2 62 bd 9c 37 91 3c bc 05 7c 3c 64 2e 31 3e
       -0.055331033 0.017726712 0.015382227 0.17302853
000250 80 3f 08 3e 25 17 30 3e aa 14 1c be 6a 22 60 3e
       0.13305473 0.17196329 -0.15242258 0.21888128
000260 0c c7 e0 3d 3e 29 54 bd cf 0d d7 3d c6 8b 0a 3e
       0.10975465 -0.051797144 0.10500681 0.13529882
000270 09 4b c9 3d 14 c6 01 3e 45 c1 82 3d 32 1b 3c 3d
       0.09828765 0.12673217 0.063845195 0.045924373
000280 ea 43 24 3e b2 7b 4b be 2d 82 53 3d 70 5f 32 be
       0.16041532 -0.19871405 0.051637817 -0.17419219
000290 ae d2 68 3c 32 0d 89 3e 63 5f db 3e 08 37 ea 3e
       0.014210386 0.2676788 0.42846212 0.4574511
0002a0 de 8f 31 3d 6d c7 97 3e b4 88 cd 3d 98 16 7f 3e
       0.043350093 0.29644337 0.1003584 0.24910963
0002b0 e4 1b ee bb cf 27 76 3d ec 9c 32 3e 81 93 9b 3c
       -0.0072665084 0.06009656 0.17442673 0.018991234
0002c0 03 a9 11 3e 31 af 10 be 24 8e 94 be 8c ca fb bd
       0.14224629 -0.1412933 -0.29014695 -0.12294492
0002d0 00 3d b0 bd b6 18 bb bd 9c 26 e6 be 71 06 d8 3c
       -0.08605385 -0.091355726 -0.44951332 0.026370259
0002e0 68 a7 24 3e ce 19 fd be 3b fe 7f 3c af 76 e6 3d
       0.16079485 -0.4943375 0.015624578 0.11253106
0002f0 c9 cb 2b bd 9d 1d f4 3d 57 d2 5b be b5 0f 7f 3e
       -0.04194239 0.11919711 -0.21466957 0.24908336
000300 ac 6e 28 3d 7f 21 9d 3c fc c6 15 be fa bc 5c be
       0.04112117 0.019181011 -0.14626688 -0.21556464
000310 cb 0f 54 3e ad 87 9c bd 1f 73 4b 3d b7 ff ef 3d
       0.2070915 -0.076430656 0.049670335 0.117186956
000320 c3 52 8d 3d 60 5f 2e be fe 06 9e 3d f4 e3 e8 3d
       0.06900551 -0.1702857 0.077161774 0.113716036
000330 1c be 32 3e 34 65 a8 bc 52 46 ef bd 69 46 1b be
       0.17455333 -0.02055607 -0.116833344 -0.15163578
000340 a2 dc 3b 3e 89 65 3d bd 49 d5 b3 bd e0 92 70 bd
       0.18345883 -0.04623941 -0.08780915 -0.05873382
000350 56 47 52 bc af 83 94 bc ad c2 7c 3d 23 f9 8e bb
       -0.012834391 -0.018129198 0.061709095 -0.0043631955
000360 50 cc 3e 3e 32 38 33 3e 7a 7d d4 bd 02 16 3d 3d
       0.18632627 0.17501906 -0.10375495 0.046163566
000370 51 d7 67 3e b0 45 3f 3e 8f 63 ce 3d 38 69 e5 3c
       0.2264073 0.18678927 0.10077583 0.028004274
000380 01 35 a0 3e e4 52 08 be 92 10 98 bc 14 49 0a bd
       0.3129044 -0.1331287 -0.018562589 -0.0337611
000390 26 66 60 3e f6 69 a2 be 83 9a 15 bd 93 a6 e6 be
       0.21913967 -0.31721467 -0.036524307 -0.4504896
0003a0 e9 f3 8d 3d 7d bd 2f 3c 96 d8 5e 3d 32 fe 94 be
       0.06931288 0.01072633 0.05440577 -0.29100186
0003b0 6d 2a 62 bd 06 a7 86 3e b7 87 66 3e 2f 1b 8e bd
       -0.05521624 0.26299304 0.22512709 -0.069387786
0003c0 70 f0 81 3d 6a bc 09 3e 0c 0e fc bd 91 f8 1b 3e
       0.06344688 0.1345078 -0.12307367 0.1523154
0003d0 01 24 00 3b 02 32 94 3e 9f 20 6e bc 71 5b 61 3d
       0.001955271 0.28944403 -0.014534145 0.055018846
0003e0 41 f4 cf 3b 81 e7 a9 bd de de d5 bd 4c da 0c 3e
       0.006346256 -0.08296109 -0.10442899 0.13755149
0003f0 55 ab ad 3d d0 e7 89 bd 5c 39 25 be 68 92 6e be
       0.084799446 -0.06733668 -0.16135162 -0.23298037

conv2.bias f4 [16]
000000 0a b5 89 3e fe a2 4e 3e 85 24 50 3e 57 f0 6b 3e
       0.26895934 0.20179364 0.20326431 0.23040901
000010 40 ca 17 3e b9 af 95 3d ce 0b 2f 3e 17 bf 17 3e
       0.14823246 0.07308907 0.17094347 0.14818989
000020 41 49 f0 3d 47 dd 63 3e 08 2d 40 3e b4 0f 5e 3d
       0.11732722 0.2225238 0.18767178 0.054214194
000030 56 6b 30 3e 09 10 59 3e 4f 57 3a 3e a4 ae 5b 3e
       0.17228445 0.21197523 0.18197368 0.21453339

conv2.lin.weight f4 [16, 16]
000000 03 f4 1a bf 9c 2d 09 3f 54 4f a0 3e 3f ac 2d be
       -0.6052858 0.5358522 0.31310523 -0.16960238
000010 b8 c7 d1 3e ad be 13 3f ed d7 1d bf 40 ce 47 bc
       0.40972686 0.57712823 -0.616576 -0.01219517
000020 38 7e 4c be a8 93 94 bd d4 14 c4 3d 03 72 67 3d
       -0.19970024 -0.07254726 0.09574285 0.056505214
000030 73 c3 b3 3e d6 62 11 3e 96 d7 96 be c2 0d 92 be
       0.35110053 0.14197859 -0.29461354 -0.2852612
000040 43 8f c3 be dd 95 3f 3e 48 94 a1 3e 11 7d fc 3c
       -0.38195238 0.18709512 0.31558442 0.030821355
000050 c5 a3 84 bc 4c 80 c6 3e fa cd ed be 25 51 8f 3e
       -0.016191373 0.38769758 -0.4644621 0.27991596
000060 21 a4 94 3d a1 b2 9b be ec 0c e0 be a5 18 b3 be
       0.072578676 -0.3040972 -0.4375986 -0.3497974
000070 00 62 9a 3e e2 a8 00 3f 18 55 78 bd 2e 52 54 bd
       0.30152893 0.50257695 -0.060628027 -0.051836185
000080 b2 2b 2a 3d d3 61 2e be 63 54 0a bf 10 d2 0b bf
       0.041545577 -0.17029504 -0.54035014 -0.54617405
000090 26 57 27 3e 4c 99 fd 3e 13 dd b1 be c1 6a 1c bd
       0.16341838 0.4953102 -0.3473898 -0.038187746
0000a0 bc 09 f0 3e 85 2d 87 bd 1f ef 35 3e c3 c5 c2 3e
       0.46882427 -0.06600479 0.17766999 0.38041505
0000b0 b2 fb f6 3a e0 c6 f7 3d eb e0 fe be 36 7b 82 3d
       0.0018843322 0.12098479 -0.49780974 0.06371157
0000c0 5b 23 40 bf 7c 17 27 3d 26 cd f8 be bb 28 f4 be
       -0.7505395 0.04079388 -0.48594016 -0.47687325
0000d0 dc b3 ee bc 98 c9 af 3e 23 25 61 be 3d 7e 9a 3d
       -0.029138498 0.3433349 -0.21986823 0.07543609
0000e0 04 80 ba 3e 4d 94 b5 3e 40 c0 91 3e 5c 4b e3 3e
       0.36425793 0.35464707 0.28466988 0.44393432
0000f0 00 ba 88 be 6d 88 50 3d 88 e2 ee be fa 5c 93 3d
       -0.26704407 0.050911356 -0.46657205 0.07195468
000100 d6 84 b0 3e 54 4f c4 be 89 bb 43 be ab 26 fa bd
       0.34476346 -0.38341773 -0.19114508 -0.122144066
000110 99 d8 12 bf b9 a5 85 3d 72 c6 64 be a3 a7 52 3e
       -0.5736175 0.0652575 -0.22341326 0.20571761
000120 f0 ee 46 3f 86 3e 44 3e 7c 1b 19 bd d4 10 77 3d
       0.7770834 0.19164476 -0.037379727 0.060318783
000130 92 8f d7 be a4 a0 bf 3e d5 c4 fb 3d 9d 92 2d 3f
       -0.42101723 0.37427247 0.12293402 0.6780184
000140 24 4b fa 3d be 4c 3e bc 3d 53 e2 3e 37 27 29 3f
       0.12221363 -0.011614976 0.4420413 0.6607546
000150 e7 0e 9f bc f7 95 30 be 65 39 f2 3d 01 0b 47 3e
       -0.019416286 -0.17244707 0.118273534 0.19437791
000160 5c 58 87 be bc 21 b8 3c f2 a6 8b be 86 59 41 be
       -0.264346 0.022477023 -0.27275807 -0.18881807
000170 85 34 92 3e 65 cd b6 3e 2a 15 e4 3e 79 8a e6 3d
       0.28555694 0.3570358 0.44547397 0.1125688
000180 73 0b 08 3e 52 0f ad bc c7 93 17 be ed 64 cf 3d
       0.13285618 -0.02112547 -0.14802466 0.10126672
000190 f4 93 aa 3d d0 7a bd be 8e 63 6e 3e bc 25 5b bf
       0.08329001 -0.3700776 0.23280165 -0.85604453
0001a0 c0 d6 21 bd 71 3f 39 3f 86 cb 0e 3f 1f 2b 03 3f
       -0.039511442 0.7236243 0.557793 0.5123767
0001b0 53 26 01 bd 72 75 f4 be c8 d1 a9 3e 14 32 5c 3d
       -0.03153069 -0.47745854 0.33167863 0.053758696
0001c0 32 95 6e 3e df 21 17 3e 44 85 b6 be 2a 8f a9 be
       0.23299101 0.14759015 -0.3564855 -0.33117038
0001d0 29 cd 9b 3e 98 cf be bc ea 26 5f 3d 30 5c 52 bf
       0.30429962 -0.023292348 0.05448047 -0.82171917
0001e0 39 74 aa bd 4f d6 23 3f e0 e3 ef 3e 87 11 b2 3e
       -0.08322949 0.63998884 0.46853542 0.34778997
0001f0 4d e8 89 bc e6 61 1d bf d3 1b a6 bd 0d b7 9a be
       -0.016834402 -0.61477506 -0.08110776 -0.30217782
000200 6e cb 1e 3e 84 8c 1d bf 7a 4d cf 3e 23 66 01 3f
       0.1550729 -0.61542535 0.40488797 0.50546473
000210 c4 c3 3a be c0 04 88 be dd 78 41 3e dd 3e 02 bf
       -0.18238741 -0.26566124 0.18893762 -0.5087717
000220 1a 2d e3 bc 97 5f ad 3e 39 d4 c9 3d b9 ed 23 3d
       -0.027731467 0.33861992 0.098549314 0.040021632
000230 80 9f 8f bd 73 67 0a 3d 41 11 c5 3e 6d cc 0d 3d
       -0.07012844 0.033790063 0.38489726 0.034618784
000240 22 2b d2 3d c8 9f c7 be 12 71 93 be 9c 47 97 be
       0.10262133 -0.3898909 -0.28797203 -0.2954682
000250 dc a3 0c bf 6b 8f 61 3e 91 d1 40 3d 4e 30 80 3e
       -0.5493753 0.22027366 0.047074858 0.25036854
000260 77 c0 42 3f 9a 9a 56 3e 6a 09 21 be 70 9b d6 3d
       0.7607493 0.20957413 -0.15726247 0.10478866
000270 c2 27 d0 be f7 c2 d3 3e 40 8e a2 3d 39 66 e6 3e
       -0.40655333 0.41359684 0.07937288 0.44999865
000280 d0 59 ee 3e 92 93 b1 be df c8 64 be 48 c0 9d 3d
       0.46552896 -0.346829 -0.22342251 0.0770269
000290 88 03 b8 be 3e ce 1c be 0f c9 3d 3e eb 42 ef 3c
       -0.35940194 -0.1531305 0.18533729 0.029206714
0002a0 18 83 10 3f 2c c3 1d 3e b0 76 a5 3b 0b f8 a0 3d
       0.56450033 0.15406483 0.005049549 0.078598104
0002b0 75 5e c4 be 52 5b 8c 3e d2 f1 b6 3e eb 73 0b 3f
       -0.38353315 0.27413422 0.3573137 0.5447375
0002c0 b9 9e 7c be ab bb 1b 3e b4 ce 8d 3e cc 6a b4 3e
       -0.24669923 0.15208308 0.27696764 0.3523773
0002d0 ed a4 d9 bb 41 a5 bf 3e 25 48 d6 bd f4 1b a9 3e
       -0.006641975 0.37430766 -0.10462979 0.3302914
0002e0 0a c6 e1 3d 2f 0d f2 be 83 66 f0 be bd c0 b8 bd
       0.11024101 -0.47275683 -0.4695321 -0.09021137
0002f0 2d fa a7 3e 87 be 28 3f fc 23 b7 bd 8b 83 84 be
       0.32808056 0.6591572 -0.0894241 -0.2588161
000300 31 20 05 3f b2 85 49 bd fb f2 71 bd 99 1a 1e 3d
       0.52002245 -0.049199767 -0.059069615 0.038599584
000310 85 0c ce 3d 8a 72 b0 be 69 d7 e5 3e ba 44 45 bf
       0.10060982 -0.34462386 0.44890907 -0.77057993
000320 96 b8 93 3d e0 fc 3d 3f 76 b4 08 3f 37 9a f8 3e
       0.07212941 0.7421398 0.5340036 0.48555157
000330 a4 76 cd bd 5f 7f ff be 2b 66 f0 3d c2 e6 26 bd
       -0.100323945 -0.49901864 0.11738237 -0.04074741
000340 fe 11 d3 be 46 5d 05 3f f9 2f b7 3e b1 1f 28 bc
       -0.41224664 0.5209545 0.35778788 -0.010261462
000350 b6 30 2e 3f f4 a9 77 bb fb 45 a2 be a8 5d 64 be
       0.68043077 -0.003779051 -0.31694016 -0.22301352
000360 5f 11 32 be 8a 32 80 bd 9b 62 fd 3e af 6b 82 3c
       -0.17389439 -0.062596396 0.49489293 0.015920488
000370 9a 82 0d 3f cf 34 93 be e6 e9 45 be de d0 28 bf
       0.5527741 -0.28751227 -0.19327506 -0.65943706
000380 95 dc 5f 3e aa 0a 9b be 73 ad ad be 4b a3 1f be
       0.21861489 -0.30281574 -0.33921394 -0.15589635
000390 66 ed c5 be 68 c4 ae 3d d9 e8 f4 3e 5d 52 4b 3d
       -0.38657683 0.08533555 0.478339 0.049639095
0003a0 db 53 40 3f be e2 bf 3d bf 02 a3 bd ac 3f 86 3d
       0.75127953 0.093694195 -0.07959508 0.06555113
0003b0 03 e7 97 be 60 ea 97 3e 99 65 05 3f 1a 18 dd 3e
       -0.29668435 0.29671 0.5210815 0.4318245
0003c0 35 d0 d2 be f6 6b 53 bd b6 49 f8 be 0e fb 30 bf
       -0.41174474 -0.05161663 -0.48493737 -0.6913308
0003d0 f8 34 6f bc 07 bd f1 3e 2c 1a 1c 3d d9 bd 3f 3d
       -0.014600031 0.4721453 0.038110897 0.046811912
0003e0 91 a2 e3 3e d4 30 6b 3e 04 80 93 3e 82 26 fa 3e
       0.44459966 0.22967845 0.28808606 0.48857504
0003f0 aa 75 af be da 1e b3 3d 3c 64 ca be ac 50 1f 3d
       -0.34269458 0.08746119 -0.39529598 0.038895294

conv3.bias f4 [4]
000000 a3 be a5 be 8a fe b7 bc a6 b9 fa 3d 1e 76 17 3f
       -0.32372007 -0.02246024 0.12242441 0.5916461

conv3.lin.weight f4 [4, 16]
000000 80 d1 3e 3e 41 fb be 3e 2c 85 80 3e 03 ec 1b 3f
       0.18634605 0.37301067 0.25101602 0.60907
000010 55 39 2f 3f 93 be da bd f4 01 37 bf 2b e5 81 bf
       0.68446857 -0.106808804 -0.71487355 -1.0148062
000020 e3 22 d3 be 84 78 08 3f 42 5f 59 3e b9 c4 3e 3e
       -0.41237554 0.5330889 0.21227744 0.18629731
000030 63 0e be be 22 f4 05 bf 81 04 f2 3e 97 5a 33 3f
       -0.3712035 -0.5232564 0.4726906 0.70060104
000040 48 fe 78 bf b0 7d d6 be 27 01 eb be 49 0f aa be
       -0.97263 -0.41892767 -0.45899317 -0.33214787
000050 56 4e 1f 3f f9 80 86 3e 4b 5b 19 3f c6 a3 35 3e
       0.62228906 0.26270273 0.59904927 0.17738256
000060 f1 a1 35 3f b9 bc d8 3e 4b ba 94 3e 96 26 2f be
       0.7095023 0.42331484 0.2904838 -0.17104563
000070 ff f1 18 3f e0 b3 8f be 5e d3 04 3f bb 24 e6 3c
       0.59744257 -0.2806692 0.5188502 0.028093686
000080 47 25 26 3f bc 30 e6 be f7 b4 98 3e 0f d5 12 3f
       0.6490063 -0.44959056 0.29825565 0.5735635
000090 16 e2 4a bf bf d7 21 bf 71 04 1e 3f aa 6c 52 3f
       -0.7925123 -0.6321983 0.6172553 0.8219706
0000a0 5b 95 ee be 55 c6 4d bf e3 d0 2c bf 88 1e ee be
       -0.46598324 -0.80380756 -0.67506236 -0.46507668
0000b0 d4 e3 10 3f d6 72 1a 3f 0e 39 bb be 9b 7b 00 3f
       0.5659764 0.60331476 -0.36566967 0.50188607
0000c0 22 7b 5c 3f e9 77 48 3f 13 96 31 bf 2a cb 27 bf
       0.86125386 0.7830797 -0.6936962 -0.6554438
0000d0 6d ff 2c bf 70 c7 d0 3e fb d2 f5 be f0 60 91 be
       -0.6757725 0.4077716 -0.48012528 -0.2839427
0000e0 8c f3 63 bb 81 a3 4d bf 54 8c 8c bf 95 ec 27 3f
       -0.0034782616 -0.8032761 -1.0980325 0.6559537
0000f0 4b 97 e3 be 92 f1 35 3f b8 d0 4a bf fd 6f 2a bf
       -0.44451365 0.7107173 -0.7922473 -0.6657713
