models/SKY_Pretrained/facebook_gin_model.pth (torch, 26210 bytes, 26 tensors)

conv1.nn.0.weight f4 [16, 128]
0.038755924 0.0010977896 -0.11562842 0.0805598 0.09459184 -0.032439537 -0.16154282 -0.14823285
0.07075209 -0.124184504 -0.15094273 0.017122842 -0.031574126 0.15487452 0.041616656 -0.15789415
-0.058713574 0.05660135 -0.17090508 -0.01680047 -0.08567556 0.0121218925 0.0010027451 -0.11159564
-0.09920035 -0.084836066 0.056955256 -0.070821196 -0.010593835 0.05254697 -0.17379613 0.008878699
-0.14497219 0.1072525 -0.12197446 0.009848816 -0.1376039 -0.21468414 -0.027207207 -0.06085353
-0.16128395 0.024717676 -0.1409974 0.088844255 -0.051909175 -0.20401664 -0.039778233 -0.20531096
-0.011193083 0.055185247 0.13338734 0.03646553 -0.029742926 0.19837967 -0.1562601 -0.13507093
-0.043864917 -0.085897766 -0.108840436 -0.05479756 -0.09080712 0.027429974 -0.14262109 -0.018586878
-0.006369922 -0.11150397 -0.003762699 -0.30013862 0.088357955 0.18106787 -0.025992239 -0.1549213
0.01327635 -0.037511855 -0.16146936 -0.25251618 -0.07303201 0.04573947 0.1513505 0.07586702
-0.13302796 0.02909388 0.057228155 0.011237715 0.19781709 -0.104663774 -0.08851253 0.08355673
0.067070216 -0.117504284 -0.014793764 -0.0409887 0.0266392 0.22199565 -0.08465975 -0.076472975
-0.08620515 -0.041711017 -0.18635534 0.0145419175 -0.013840355 -0.16425726 -0.059887234 0.07122426
-0.17610137 -0.070797145 0.06616599 0.020849459 0.19709533 -0.07006114 -0.098876856 -0.0437377
0.042773336 0.1703592 0.0027322161 -0.079474166 0.09026993 -0.39585328 -0.11696563 -0.18688957
-0.013788077 0.003758143 0.0074239434 -0.15241402 0.009636141 -0.024720794 0.12104311 0.14789839
-0.00859344 -0.011523807 0.15505937 -0.07391383 0.27222916 -0.012029806 0.120104745 -0.0011528353
0.21106724 -0.12778218 0.17235026 0.009692129 0.09941187 -0.14130431 0.021794971 -0.031883992
-0.027527047 -0.09084977 0.1622008 -0.07426787 0.16418362 -0.22477648 -0.045346003 0.071195066
0.07953678 -0.08061928 -0.005148267 -0.018002886 0.0024704663 -0.07739757 0.05838181 -0.05031902
-0.040550023 0.1810883 0.03707103 -0.03649362 0.1635042 0.17818926 -0.06467324 -0.22604215
-0.13621782 0.008852936 -0.21946777 0.105383426 -0.06467699 -0.0921789 -0.11761446 0.101600476
-0.058051094 0.13158876 0.08935628 -0.10553921 0.026207997 0.006385271 0.28522354 -0.054683376
0.038641583 0.1261063 -0.015766384 0.025962286 0.06794333 0.16566576 0.12631314 -0.029215807
-0.014294159 0.26298133 0.27864724 -0.08657524 0.108749874 -0.053693198 0.10813915 -0.12322259
0.16493635 0.007982491 -0.0014757992 -0.13435803 0.09432793 -0.11382644 -0.06652878 0.046408277
0.10428493 -0.15126084 -0.07708195 -0.061159194 0.029434506 0.030409178 0.15503345 -0.16195923
0.04067748 -0.06832489 0.046550512 -0.092177644 -0.07037007 0.16611229 0.017391218 0.027711473
-0.0395643 0.15130807 0.12844172 0.008611666 -0.031088768 0.087660864 0.040776473 0.33973244
0.13245058 -0.091441125 -0.0023395778 0.08445477 0.016240884 0.007137723 -0.21945724 0.078865215
-0.17928745 -0.06397794 -0.19621183 -0.07021107 0.07465016 0.40443286 0.23378737 0.027149253
0.096974075 0.113802664 -0.06401566 -0.14257364 0.13178986 0.13723998 -0.13385342 0.044252295
00000000: 88be 1e3d b5e3 8f3a 98ce ecbd 89fc a43d
00000010: 5eb9 c13d 52df 04bd 7b6b 25be 5aca 17be
00000020: 79e6 903d 7254 febd bb90 1abe 3445 8c3c
00000030: df53 01bd 6d97 1e3e 3a76 2a3d 01af 21be
00000040: a57d 70bd d1d6 673d be01 2fbe 24a1 89bc
00000050: ab76 afbd e79a 463c 8b6e 833a 418c e4bd
00000060: 8e29 cbbd 88be adbd ea49 693d b40a 91bd
00000070: c491 2dbc 7e3b 573d 9df7 31be f677 113c
00000080: 9773 14be 33a7 db3d bfcd f9bd ee5c 213c
00000090: 09e8 0cbe 29d6 5bbe a6e1 debc 8d41 79bd
000000a0: 9f27 25be b97c ca3c 9f61 10be faf3 b53d
000000b0: b79e 54bd bde9 50be 80ee 22bd 093d 52be
000000c0: 3163 37bc ed09 623d b196 083e e15c 153d
000000d0: 70a7 f3bc 0a24 4b3e a602 20be 0950 0abe
000000e0: b3ab 33bd 2beb afbd bce7 debd 6873 60bd
000000f0: 15f9 b9bd d3b4 e03c 430b 12be 8243 98bc
00000100: c7ba d0bb 325c e4bd 9d97 76bb c5ab 99be
00000110: 04f5 b43d db69 393e aded d4bc b0a3 1ebe
00000120: 0c85 593c 08a6 19bd 3958 25be cd49 81be
00000130: ce91 95bd 4f59 3b3d a0fb 1a3e 2b60 9b3d
00000140: 7b38 08be 4a56 ee3c 1268 6a3d 651e 383c
00000150: 9090 4a3e f659 d6bd 0f46 b5bd ca1f ab3d
00000160: 1c5c 893d 16a6 f0bd 8b61 72bc c4e3 27bd
00000170: 743a da3c d452 633e 1762 adbd dd9d 9cbd
00000180: 538c b0bd 2cd9 2abd efd3 3ebe 3941 6e3c
00000190: a8c2 62bc 0e33 28be 514c 75bd 06de 913d
000001a0: eb53 34be 18fe 90bd 0982 873d 7ccc aa3c
000001b0: 5cd3 493e 377c 8fbd f37f cabd 4d26 33bd
000001c0: 1833 2f3d a472 2e3e fb0e 333b 5ac3 a2bd
000001d0: 71df b83d 48ad cabe ad8b efbd fb5f 3fbe
000001e0: 63e7 61bc 2d4b 763b 8d44 f33b 6c12 1cbe
000001f0: e8e0 1d3c 4383 cabc 73e5 f73d ad72 173e
00000200: 80cb 0cbc 5ace 3cbc e2c7 1e3e 2260 97bd
00000210: 9f61 8b3e aa18 45bc 7af9 f53d bc1a 97ba
00000220: 0322 583e 55d9 02be 967c 303e bccb 1e3c
00000230: 7398 cb3d 14b2 10be 5e8b b23c ca98 02bd
00000240: 6780 e1bc 720f babd f717 263e c119 98bd
00000250: c01f 283e ce2b 66be bbbc 39bd b8ce 913d
00000260: 2ee4 a23d b91b a5bd cbb2 a8bb ca7a 93bc
00000270: 8ce7 213b 9e82 9ebd c421 6f3d 511b 4ebd
00000280: c817 26bd 366f 393e cbd7 173d 567a 15bd
00000290: a56d 273e 3f77 363e 6773 84bd 9877 67be
000002a0: af7c 0bbe e80b 113c 29bc 60be 44d3 d73d
000002b0: 5f75 84bd 4bc8 bcbd dadf f0bd e913 d03d
000002c0: fcc6 6dbd 34bf 063e 6d00 b73d f124 d8bd
000002d0: 27b2 d63c 893b d13b d208 923e adfb 5fbd
000002e0: a346 1e3d 0322 013e 8128 81bc dcae d43c
000002f0: df25 8b3d 49a4 293e 3b58 013e fd55 efbc
00000300: 0c32 6abc 7da5 863e daaa 8e3e 5c4e b1bd
00000310: 41b8 de3d 66ed 5bbd 0f78 dd3d 205c fcbd
00000320: 13e5 283e fec8 023c 9b6f c1ba 2795 09be
00000330: 002f c13d d61d e9bd 3e40 88bd 9b16 3e3d
00000340: 5693 d53d 1fe4 1abe 24dd 9dbd 1082 7abd
00000350: a220 f13c ab1c f93c 17c1 1e3e a4d8 25be
00000360: 6e9d 263d eced 8bbd c0ab 3e3d a2c7 bcbd
00000370: 2f1e 90bd 5719 2a3e 0778 8e3c 2c03 e33c
00000380: 2d0e 22bd 81f0 1a3e 3a86 033e f217 0d3c
00000390: dfad febc 8a87 b33d 3b05 273d 69f1 ad3e
000003a0: 20a1 073e 7c45 bbbd 9a53 19bb 9ff6 ac3d
000003b0: 9a0b 853c 8fe3 e93b 66b9 60be 1684 a13d
000003c0: 2197 37be de06 83bd c1eb 48be d2ca 8fbd
000003d0: 2fe2 983d d311 cf3e f565 6f3e 1c68 de3c
000003e0: 589a c63d 5f11 e93d a41a 83bd d3fe 11be
000003f0: ecf3 063e a388 0c3e df10 09be e541 353d

conv1.nn.0.bias f4 [16]
-0.09138711 -0.06462518 -0.1678086 -0.23140098 0.017630136 -0.032104492 0.03566247 0.53034323
0.11266026 -0.24258429 -0.07235852 0.18069872 -0.17995627 -0.03640152 0.014214482 0.25945058
00000000: 2a29 bbbd 355a 84bd 05d6 2bbe 61f4 6cbe
00000010: 136d 903c 0080 03bd cf12 123d 93c4 073f
00000020: 6cba e63d 0468 78be b430 94bd 1609 393e
00000030: 7546 38be c319 15bd dce3 683c b5d6 843e

conv1.nn.2.weight f4 [16, 16]
-0.23907053 0.042228904 0.005650749 0.15069228 -0.16776322 0.10328657 0.16968037 0.22210602
0.07788069 0.29482564 -0.10574642 0.088278666 -0.025285095 0.20675297 0.016853223 -0.009001875
0.047794294 -0.24685706 -0.08815748 -0.09848247 -0.1632352 -0.12977 -0.09514791 0.24687459
0.024384782 -0.14332226 -0.063756675 -0.23582089 -0.2177637 -0.03326941 -0.300544 0.2916697
-0.10369931 -0.1153047 -0.42359114 -0.04433349 0.055194326 -0.095333345 0.072025366 0.060082212
-0.29613164 0.09306457 -0.074930154 0.087546825 0.18958648 0.00930884 0.2192354 0.29218417
-0.19954321 -0.1862628 -0.21415986 0.00274377 -0.0860247 -0.25813353 -0.21435043 -0.21908464
-0.061463498 0.15447861 -0.15312064 0.025778107 -0.07679576 -0.07169377 -0.3770397 -0.025367497
-0.09814788 0.17080243 -0.2560304 -0.07983546 0.27668768 0.044592824 0.15070117 -0.32462057
0.048389435 -0.056978248 0.016140858 0.10537033 -0.053881787 -0.14998811 -0.13718021 0.0431086
-0.05173044 -0.39218375 0.15610133 0.06740327 -0.24800973 -0.041088298 0.18144102 -0.035602983
-0.25463516 0.0046355645 -0.3029785 0.1310393 -0.099704735 0.06267319 0.33264548 0.0702661
-0.17006463 -0.18149458 -0.2720589 0.16109864 -0.0346415 -0.056517277 0.34208864 -0.15673022
0.081550166 -0.10205721 -0.051018108 0.1487606 -0.30247232 0.05010387 0.090971686 0.00030853643
-0.12187503 -0.05199755 -0.24201296 -0.19980314 -0.13066101 -0.077560395 -0.12730032 0.14311735
-0.112316065 -0.099395506 -0.16325918 -0.41705224 -0.079742625 -0.085935675 0.060543537 0.023427546
-0.051237073 -0.06744034 -0.14940596 0.07734804 0.12897858 0.29480037 0.10404971 0.19029568
0.3387378 -0.17261463 -0.2604611 -0.23772816 0.08770997 0.009057023 -0.010032508 -0.07111709
0.1441555 -0.05670979 0.16227356 -0.11143061 -0.20490192 0.20695768 0.21263218 -0.16141078
-0.027851105 0.24850382 0.054868817 0.27757362 -0.031183878 -0.18878923 0.01829409 -0.025693739
-0.06848379 0.14182912 0.24292967 -0.23282918 0.15731591 0.018121071 -0.023736272 -0.16181067
0.049271815 -0.19771183 0.22827008 -0.11153298 -0.033722315 -0.06110004 0.21475202 -0.31040224
-0.04515832 -0.1767762 -0.38950884 -0.15712772 -0.047623616 0.07695066 0.04011917 -0.2503757
0.19069725 -0.10537912 -0.022621125 -0.23666334 -0.18467797 0.19071363 0.07624669 0.11379695
-0.52368903 -0.04454603 -0.3084898 -0.034103267 -0.009212719 0.28102908 0.17435561 -0.03787225
0.092406504 -0.21112755 0.034595445 0.18684953 -0.09309168 -0.03534678 0.007349371 -0.065601
-0.047497585 -0.25731152 -0.14046752 -0.22485283 0.026831709 0.16431363 -0.038683675 -0.20722724
-0.37194157 -0.24142161 -0.1658908 -0.17606457 0.15980451 0.2844585 0.17551951 0.2301492
-0.0688092 -0.034714784 0.024891093 -0.069677696 -0.24542281 -0.048228968 0.08237191 0.11222483
-0.12599796 -0.13574485 -0.46651104 0.107164145 0.30030435 0.12145225 -0.03209752 0.22963771
-0.07463509 0.14638342 0.07437087 -0.12380757 0.15650395 0.12527192 -0.033126816 0.26742706
0.34053156 0.1836828 0.15732025 0.01855294 -0.1691156 0.026004037 -0.104176305 0.07537204
00000000: e8ce 74be 37f8 2c3d eb29 b93b 144f 1a3e
00000010: 1fca 2bbe e987 d33d b1c0 2d3e c36f 633e
00000020: e97f 9f3d 63f3 963e 9491 d8bd 72cb b43d
00000030: b022 cfbc 0db7 533e c50f 8a3c 9a7c 13bc
00000040: f3c3 433d 19c8 7cbe e98b b4bd 2db1 c9bd
00000050: 2127 27be 6de2 04be e8dc c2bd b1cc 7c3e
00000060: 98c2 c73c 12c3 12be dc92 82bd 087b 71be
00000070: 73fd 5ebe 8145 08bd e7e0 99be bb55 953e
00000080: 4e60 d4bd df24 ecbd f0e0 d8be 0997 35bd
00000090: 7213 623d 213e c3bd 0982 933d c418 763d
000000a0: 919e 97be a398 be3d fb74 99bd c04b b33d
000000b0: f522 423e 1b84 183c 3f7f 603e 2a99 953e
000000c0: 0e55 4cbe adbb 3ebe b94c 5bbe d2d0 333b
000000d0: b82d b0bd 142a 84be ae7e 5bbe b957 60be
000000e0: 26c1 7bbd a42f 1e3e a8cb 1cbe 9c2c d33c
000000f0: 1847 9dbd 2fd4 92bd 590b c1be 7fcf cfbc
00000100: c101 c9bd d5e6 2e3e 6b16 83be c680 a3bd
00000110: 02aa 8d3e f7a6 363d 6851 1a3e ab34 a6be
00000120: 0034 463d 0662 69bd d539 843c 66cc d73d
00000130: 26b3 5cbd 7c96 19be f878 0cbe a592 303d
00000140: 4ce3 53bd 4fcc c8be 07d9 1f3e ba0a 8a3d
00000150: 43f6 7dbe 344c 28bd adcb 393e 6fd4 11bd
00000160: 8a5f 82be efe5 973b ff1f 9bbe 2b2f 063e
00000170: ff31 ccbd cd5a 803d 8250 aa3e ace7 8f3d
00000180: 6c25 2ebe b7d9 39be 4e4b 8bbe 0bf7 243e
00000190: 3fe4 0dbd a97e 67bd 3e26 af3e e37d 20be
000001a0: c603 a73d 5f03 d1bd 5df8 50bd b354 183e
000001b0: a7dd 9abe b739 4d3d 5d4f ba3d 0fc3 a139
000001c0: 9e99 f9bd 62fb 54bd 3fd2 77be 3299 4cbe
000001d0: 00cc 05be fcd7 9ebd 045b 02be 5b8d 123e
000001e0: f705 e6bd df8f cbbd 6a2d 27be df87 d5be
000001f0: 1a50 a3bd 0bff afbd 80fc 773d 20eb bf3c
00000200: f7dd 51bd 291e 8abd e0fd 18be a668 9e3d
00000210: f612 043e 13f0 963e 0418 d53d dfdc 423e
00000220: 0a6f ad3e e4c1 30be 285b 85be 036f 73be
00000230: 49a1 b33d e863 143c 635f 24bc d6a5 91bd
00000240: 809d 133e 8648 68bd 0a2b 263e bb35 e4bd
00000250: cfd1 51be b7ec 533e 40bc 593e de48 25be
00000260: 0028 e4bc c977 7e3e 20be 603d 211e 8e3e
00000270: 5575 ffbc f751 41be 7ddd 953c ad7b d2bc
00000280: 3b41 8cbd a73b 113e 8ec2 783e c66a 6ebe
00000290: 6c17 213e a472 943c 9272 c2bc b2b1 25be
000002a0: 3ed1 493d f874 4abe a2bf 693e 676b e4bd
000002b0: 6920 0abd 0944 7abd f4e7 5b3e 0bed 9ebe
000002c0: eef7 38bd d204 35be b46d c7be 17e6 20be
000002d0: fb10 43bd 4f98 9d3d 0054 243d 3e31 80be
000002e0: 2446 433e 02d1 d7bd f04f b9bc e057 72be
000002f0: 391c 3dbe 6f4a 433e 3927 9c3d 600e e93d
00000300: 7c10 06bf e675 36bd 60f2 9dbe deaf 0bbd
00000310: f2f0 16bc 0be3 8f3e 478a 323e ef1f 1bbd
00000320: 9f3f bd3d d231 58be f4b3 0d3d 7c55 3f3e
00000330: daa6 bebd c9c7 10bd fed2 f03b d159 86bd
00000340: d48c 42bd 56be 83be b8d6 0fbe d23f 66be
00000350: 2cce db3c d541 283e c672 1ebd 6133 54be
00000360: 206f bebe 3a37 77be 47df 29be 454a 34be
00000370: cba3 233e 8ba4 913e 63bb 333e 3bac 6b3e
00000380: d6eb 8cbd 1731 0ebd 68e8 cb3c 2eb3 8ebd
00000390: 1e50 7bbe bd8b 45bd 9bb2 a83d 22d6 e53d
000003a0: 9c05 01be b300 0bbe 89da eebe e078 db3d
000003b0: 7ec1 993e f5bb f83d b078 03bd 2626 6b3e
000003c0: 48da 98bd 89e5 153e c14f 983d d38e fdbd
000003d0: 9242 203e 4847 003e fcaf 07bd 33ec 883e
000003e0: 275a ae3e 5817 3c3e 8f18 213e 56fc 973c
000003f0: a42c 2dbe 6b06 d53c 635a d5bd a85c 9a3d

conv1.nn.2.bias f4 [16]
0.031085389 0.41030845 0.12374605 -0.063828155 0.8589459 0.1156801 0.011934137 0.98412186
0.26537272 0.014045372 0.38569728 0.19313227 -0.069803074 0.12644316 0.0820813 0.0004873432
00000000: c9a6 fe3c f313 d23e 926e fd3d 56b8 82bd
00000010: e1e3 5b3f b0e9 ec3d 6687 433c 69ef 7b3f
00000020: efde 873e 8f1e 663c 1d7a c53e 77c4 453e
00000030: eaf4 8ebd 517a 013e 3e1a a83d 1982 ff39

conv1.nn.4.weight f4 [16]
0.8134483 0.73543924 0.8791946 0.712069 0.9100238 0.6548969 0.7265311 1.0879049
0.8320536 0.7102694 0.92029977 0.84586686 0.88321877 1.07567 0.77621245 0.83431005
00000000: 263e 503f bf45 3c3f e612 613f 274a 363f
00000010: 52f7 683f 53a7 273f f1fd 393f 7840 8b3f
00000020: 7701 553f 37d4 353f c498 6b3f bb8a 583f
00000030: a01a 623f 8eaf 893f dcb5 463f 5895 553f

conv1.nn.4.bias f4 [16]
0.2696272 0.13357311 0.2648059 -0.09546651 0.4162401 -0.023810234 -0.10339292 0.19028243
0.29594123 -0.021994349 0.42045227 0.12150012 -0.16472292 0.25155112 -0.08991662 -0.17775145
00000000: 940c 8a3e 64c7 083e a494 873e f283 c3bd
00000010: 6c1d d53e ae0d c3bc abbf d3bd 66d9 423e
00000020: 9c85 973e 7e2d b4bc 8545 d73e 0ed5 f83d
00000030: 20ad 28be 4fcb 803e 3426 b8bd 7a04 36be

conv1.nn.4.running_mean f4 [16]
5.0845833 0.5854259 2.012792 0.003464021 1.4572355 1.6918385 0.75372136 0.059549816
2.9724507 5.1505284 3.1055746 0.38329634 0.82657 0.42654106 1.3733617 6.5607944
00000000: e8b4 a240 79de 153f 96d1 0040 a104 633b
00000010: b186 ba3f 2a8e d83f e2f3 403f 82ea 733d
00000020: a23c 3e40 21d1 a440 bcc1 4640 6b3f c43e
00000030: 179a 533f 9763 da3e 51ca af3f 07f2 d140

conv1.nn.4.running_var f4 [16]
107.292946 5.3518276 24.609077 0.10155359 11.854267 20.849842 5.494598 0.08074
54.991753 130.44463 69.30574 6.973106 11.064358 2.799306 13.774458 131.82025
00000000: fd95 d642 2c42 ab40 64df c441 54fb cf3d
00000010: 14ab 3d41 7acc a641 bfd3 af40 035b a53d
00000020: 8ef7 5b42 d371 0243 8a9c 8a42 af23 df40
00000030: 9c07 3141 d427 3340 2e64 5c41 fcd1 0343

conv2.nn.0.weight f4 [16, 16]
0.22933029 -0.12944508 -0.2547477 -0.014956465 0.17767222 0.10288904 0.23468395 -0.015488523
-0.13024633 -0.0027643624 0.17773472 -0.22189246 0.2369886 -0.0068470556 -0.22043061 0.003156663
-0.16415277 0.13583365 -0.1546493 -0.04240572 -0.10951733 0.013256067 -0.07190478 0.20173556
0.19156471 -0.110955276 -0.21123444 0.004299569 -0.16709203 -0.07776888 0.06660933 0.011212199
0.022559104 0.24503487 0.14706697 0.1938789 0.22966363 0.12992717 0.13605197 0.4467588
-0.042342342 0.07618573 -0.05562472 -0.19184446 0.14526546 0.063588016 0.039537784 -0.22283326
-0.20310552 -0.102024585 0.13990901 -0.21566156 -0.09356025 0.057265 0.11357211 -0.12525429
-0.12352044 -0.0796394 0.3049298 -0.08193395 -0.17561376 -0.28984493 0.08480528 -0.02363116
-0.087665856 -0.10428419 0.29987288 -0.040013395 -0.11719039 -0.014186351 0.15878443 0.13536547
-0.1454638 0.12686756 -0.353867 0.04754445 0.17617196 0.15500407 -0.11964925 0.1251983
0.098519884 -0.05198144 -0.16313301 0.0030781408 0.08420465 0.032667384 -0.052001704 -0.1400635
0.038260583 0.041424867 -0.244171 0.19270486 0.09633791 0.3171726 0.044054512 -0.19215816
-0.046337433 -0.024111956 0.20783143 -0.27603796 -0.5007448 0.04070263 -0.039087705 0.15195577
0.13699518 -0.11526799 -0.32741198 0.2118986 -0.11603743 0.17706122 0.040915992 -0.27176195
0.032287523 -0.12444623 -0.04288004 -0.014748702 0.2987751 -0.026530443 0.21618417 0.07826081
-0.22586468 0.1576511 0.047404032 0.054792143 -0.2955646 -0.02605718 -0.39442277 0.050007585
0.14478692 0.036655057 0.25810203 0.039262727 0.3196637 0.15690134 -0.011046485 -0.09400776
-0.29943788 0.01906246 0.10946648 0.0945961 -0.049664866 -0.019039582 -0.16391331 -0.06332209
0.003791955 -0.26615992 0.20802079 -0.17167327 0.12553564 0.28997648 -0.15937267 -0.44089705
-0.12347443 -0.06415564 0.07440344 -0.0067059784 0.35976914 0.42041752 0.1802862 -0.19997002
-0.2391948 -0.1648383 -0.053967778 0.07367986 0.16307291 0.1705059 -0.20131083 -0.1061034
-0.012892166 0.029198179 0.25326654 0.20158954 0.1355396 0.12002314 0.19620682 0.17773238
-0.027243497 -0.0045286193 0.23491259 -0.05420964 -0.08201062 0.03402198 -0.033491123 0.22409327
-0.018578243 0.0003460714 0.2897049 -0.091265865 -0.040825926 -0.13686432 -0.1866188 0.0444345
-0.26088575 0.18342051 0.026355438 0.01350368 0.2122088 -0.04108705 0.22116339 0.09369975
0.022650314 -0.27489495 -0.38144332 -0.012474346 -0.029177919 -0.21721713 -0.057342127 -0.38309324
0.0025557992 0.22245136 0.17874072 -0.072126016 0.13974564 0.05448261 0.04873773 0.15138702
-0.13083443 -0.087732434 -0.27147228 -0.20185846 0.043092463 0.38797542 0.012381468 -0.27876055
-0.1102771 -0.11133176 -0.03317182 -0.012684355 0.11515795 0.043109234 -0.15629992 -0.04038721
0.16243961 0.15130144 0.12185991 -0.11281015 0.22389643 0.06191543 0.06754677 0.17493653
-0.201281 0.07481858 0.12390272 -0.3168486 -0.17013066 0.009658192 0.01040558 0.35214227
0.11344883 -0.2337812 -0.15172046 0.051088672 -0.13796559 0.031503327 -0.2982973 0.11083488
00000000: 8fd5 6a3e 408d 04be 4a6e 82be f60b 75bc
00000010: b5ef 353e 7db7 d23d fd50 703e 93c3 7dbc
00000020: 4b5f 05be 4e2a 35bb 1700 363e c737 63be
00000030: 24ad 723e 445d e0bb 90b8 61be 04e0 4e3b
00000040: aa17 28be fa17 0b3e 635c 1ebe 9fb1 2dbd
00000050: 9f4a e0bd fa2f 593c d042 93bd c493 4e3e
00000060: 8a29 443e 853c e3bd d74d 58be 66e3 8c3b
00000070: 2c1a 2bbe 4a45 9fbd 796a 883d 5fb3 373c
00000080: dfcd b83c 6cea 7a3e b998 163e 3188 463e
00000090: f12c 6b3e a10b 053e 3551 0b3e 92bd e43e
000000a0: 2a6f 2dbd 4407 9c3d bfd6 63bd e072 44be
000000b0: 78c0 143e 6f3a 823d 5ff2 213d 672e 64be
000000c0: e5fa 4fbe 44f2 d0bd 4f44 0f3e 62d6 5cbe
000000d0: 849c bfbd b48e 6a3d 7f98 e83d a942 00be
000000e0: 49f8 fcbd fb19 a3bd c21f 9c3e fdcc a7bd
000000f0: 18d4 33be 8e66 94be 64ae ad3d 2296 c1bc
00000100: 288a b3bd f392 d5bd f088 993e 16e5 23bd
00000110: 8401 f0bd de6d 68bc 6398 223e 3f9d 0a3e
00000120: 76f4 14be 92e9 013e 0e2e b5be f8bd 423d
00000130: 6c66 343e 63b9 1e3e aa0a f5bd fc33 003e
00000140: cbc4 c93d 7eea 54bd 570c 27be a2ba 493b
00000150: 7d73 ac3d 3cce 053d bdff 54bd ce6c 0fbe
00000160: 21b7 1c3d 1fad 293d f607 7abe 6c54 453e
00000170: cf4c c53d 7264 a23e 8172 343d 1cc5 44be
00000180: 52cc 3dbd 7086 c5bc c3d1 543e d954 8dbe
00000190: d030 00bf cdb7 263d 6e1a 20bd 4b9a 1b3e
000001a0: 7748 0c3e a011 ecbd 8ba2 a7be f2fb 583e
000001b0: 08a5 edbd 894f 353e 8797 273d 6224 8bbe
000001c0: ec3f 043d aadd febd fba2 2fbd 8aa4 71bc
000001d0: 0df9 983e 5f56 d9bc 625f 5d3e 3447 a03d
000001e0: 1249 67be 4a6f 213e bb2a 423d ba6d 603d
000001f0: 3e54 97be de75 d5bc c8f1 c9be c1d4 4c3d
00000200: 0643 143e 9d23 163d f325 843e f4d1 203d
00000210: f6aa a33e bfaa 203e 51fc 34bc 2487 c0bd
00000220: ec4f 99be e028 9c3c f62f e03d 9abb c13d
00000230: 636d 4bbd e6f8 9bbc e4d8 27be 03af 81bd
00000240: 7382 783b 1d46 88be 6703 553e 1ecb 2fbe
00000250: 6a8c 003e cc77 943e 9732 23be 42bd e1be
00000260: 29e0 fcbd 0864 83bd d560 983d d3bd dbbb
00000270: a933 b83e f740 d73e f29c 383e f1c4 4cbe
00000280: 7bef 74be 5fcb 28be 510d 5dbd 77e5 963d
00000290: 96fc 263e 1999 2e3e 6d24 4ebe bd4c d9bd
000002a0: aa39 53bc 0531 ef3c 27ac 813e 7d6d 4e3e
000002b0: e5ca 0a3e b1ce f53d 71ea 483e 7aff 353e
000002c0: c12d dfbc d064 94bb ed8c 703e ed0a 5ebd
000002d0: 2ff5 a7bd a25a 0b3d fd2d 09bd b578 653e
000002e0: 6631 98bc eb70 b539 3354 943e 99e9 babd
000002f0: 1639 27bd 2926 0cbe 0019 3fbe f300 363d
00000300: d192 85be 96d2 3b3e 5ce7 d73c 8a3e 5d3c
00000310: 434d 593e e54a 28bd a878 623e a8e5 bf3d
00000320: 278d b93c 08bf 8cbe 8a4c c3be 3361 4cbc
00000330: 8806 efbc 2b6e 5ebe 94df 6abd cc24 c4be
00000340: 327f 273b 4aca 633e cf07 373e ceb6 93bd
00000350: 7b19 0f3e 2829 5f3d 37a1 473d 3305 1b3e
00000360: 76f9 05be 10ad b3bd 6afe 8abe fcb3 4ebe
00000370: b981 303d b7a4 c63e a4db 4a3c b4b9 8ebe
00000380: f6d8 e1bd e801 e4bd 2ddf 07bd 0ad2 4fbc
00000390: eed7 eb3d 4f93 303d 160d 20be 0f6d 25bd
000003a0: 9256 263e c4ee 1a3e b091 f93d 0209 e7bd
000003b0: 1b45 653e 099b 7d3d f655 8a3d 9022 333e
000003c0: 9b1c 4ebe 7c3a 993d b6c0 fd3d fb39 a2be
000003d0: bb36 2ebe 653d 1e3c 2a7c 2a3c fe4b b43e
000003e0: dc57 e83d 5764 6fbe 9c5c 1bbe 5b42 513d
000003f0: da46 0dbe a209 013d 6cba 98be 66fd e23d

conv2.nn.0.bias f4 [16]
0.38751894 0.4441631 -0.55659395 0.15564552 0.23813815 0.59539056 0.69868505 0.40105036
0.4295554 0.4548558 -0.97039247 -0.04289862 0.5457719 0.4433943 -0.8660418 0.547116
00000000: e268 c63e 5969 e33e f17c 0ebf 8a61 1f3e
00000010: 7dda 733e 846b 183f 06dd 323f 7956 cd3e
00000020: afee db3e dce2 e83e a46b 78bf 77b6 2fbd
00000030: b5b7 0b3f 9404 e33e eab4 5dbf cb0f 0c3f

conv2.nn.2.weight f4 [16, 16]
-0.26661578 0.21518296 -0.215132 -0.041677542 -0.100653924 0.20308878 0.032647386 -0.13919654
-0.068861105 0.18068531 0.18034254 -0.37891734 -0.0145157045 0.34944877 0.12438778 0.09797195
0.061832704 -0.044892702 -0.30609775 0.2612005 -0.025942968 -0.021596061 -0.1874069 -0.14770184
-0.09319359 0.059639458 0.31824338 0.06264267 -0.12940118 -0.13295616 0.033554286 -0.12729867
-0.03619195 -0.11535881 -0.26939422 -0.1362299 0.0909223 0.2858707 0.30673912 -0.03257987
-0.0016521063 0.015167228 -0.11617334 -0.12797993 0.012579188 0.056565266 0.05702573 0.10952386
-0.22817227 0.28486452 0.22693764 -0.17417997 0.0912779 0.36451665 -0.041105825 -0.07710413
-0.035182368 0.19723083 -0.0021010758 0.07758828 0.105634496 0.15401481 0.15094317 0.07553777
-0.40500972 -0.061020274 -0.19485877 -0.3021637 -0.16826607 0.027933823 0.112270646 -0.01768716
0.057822734 -0.03338263 0.22048686 -0.22510868 -0.187188 -0.08481443 -0.1248967 0.2545849
0.0558209 -0.056711283 -0.04300407 -0.13214818 0.25598073 0.05059658 0.20327286 0.18372549
0.018076152 0.22297496 0.04470706 -0.28061378 -0.21160387 0.19983175 -0.18073343 0.0882858
0.25875893 -0.09842654 0.13255653 0.038465876 0.19570987 0.13847561 0.196821 -0.25842518
0.07206243 0.19288056 0.09780466 -0.22912775 0.01828956 0.32587743 0.20727395 -0.09800984
0.111754745 -0.17842583 -0.18056382 0.2326191 0.012693337 -0.096724674 0.13392974 -0.3417438
-0.16502178 0.2482121 -0.23125464 0.102051325 -0.37030983 -0.0860925 -0.26170403 -0.06478736
-0.27637696 0.08775453 0.07340877 -0.039343495 -0.093158714 0.005716569 0.22104873 -0.11511487
-0.056071945 -0.38127857 -0.071013145 0.061664715 0.17555842 0.07223676 -0.07746497 0.29826024
0.0947246 -0.098227344 -0.31140792 0.013963996 -0.09293357 0.14927167 -0.01092571 -0.12975061
-0.1509701 0.025837652 0.10387383 -0.24783541 -0.055907305 0.21031137 0.14222135 0.13284005
0.016462566 -0.090914354 -0.14154784 0.10744784 0.009122248 0.2319585 0.12110559 0.18493491
0.15515241 0.43113512 0.11455829 -0.26603317 -0.121763505 -0.030260684 0.03689175 -0.107067816
0.1056042 0.2919699 0.12484738 0.16209671 0.13043267 0.13551623 0.061412323 0.0982562
-0.012604951 0.23734382 0.22568949 -0.019139867 0.20049524 0.26194525 -0.05902044 0.21493258
0.071322516 -0.1758704 -0.18576573 0.044613346 -0.27667344 -0.017636571 -0.62847066 0.14394453
0.051133767 0.07676312 -0.09108292 -0.09581254 0.13678893 0.07328853 -0.12977526 -0.06556623
-0.116218485 0.11823717 0.15815286 -0.11241925 -0.09714497 0.2441931 0.1493576 0.17634636
-0.2949631 -0.011235348 -0.27981192 -0.014791193 0.12863123 -0.13084847 -0.07960986 0.20695941
0.10143585 -0.026329393 0.27579287 -0.08451684 -0.06516996 0.21912685 0.12786175 0.19209047
0.08404092 0.35936674 -0.08845986 -0.027196422 -0.08926563 0.22419535 0.16543368 -0.15759078
-0.051596705 -0.027520187 -0.07115222 -0.1851845 -0.1318194 0.021337898 0.022100836 0.018214745
-0.5630142 0.048281975 -0.07853838 -0.15097791 0.30803952 -0.012473439 -0.06261878 0.08388967
00000000: dd81 88be ec58 5c3e 904b 5cbe 12b6 2abd
00000010: a523 cebd 81f6 4f3e 44b9 053d 8a89 0ebe
00000020: 0d07 8dbd 9205 393e b7ab 383e 7401 c2be
00000030: 47d3 6dbc f3ea b23e 05bf fe3d 85a5 c83d
00000040: 4a44 7d3d 69e1 37bd d8b8 9cbe 12bc 853e
00000050: 5986 d4bc 39ea b0bc 98e7 3fbe 273f 17be
00000060: 48dc bebd 8148 743d ccf0 a23e cd4a 803d
00000070: be81 04be a925 08be 3870 093d 955a 02be
00000080: 033e 14bd 3d41 ecbd 0aee 89be da7f 0bbe
00000090: 7935 ba3d a55d 923e e90c 9d3e 7872 05bd
000000a0: 7d8b d8ba f77f 783c 4aec edbd 2c0d 03be
000000b0: f018 4e3c fbb0 673d d093 693d 0c4e e03d
000000c0: fea5 69be c3d9 913e 5762 683e 3c5c 32be
000000d0: e8ef ba3d eda1 ba3e 955e 28bd c5e8 9dbd
000000e0: 631b 10bd e1f6 493e 34b2 09bb 9be6 9e3d
000000f0: e656 d83d 0fb6 1d3e d990 1a3e 8cb3 9a3d
00000100: 6f5d cfbe 65f0 79bd 0f89 47be 33b5 9abe
00000110: f14d 2cbe 79d5 e43c 27ee e53d aae4 90bc
00000120: 88d7 6c3d 3abc 08bd 4fc7 613e e482 66be
00000130: 36ae 3fbe 30b3 adbd d7c9 ffbd f458 823e
00000140: 75a4 643d 174a 68bd 0925 30bd da51 07be
00000150: e80f 833e 5c3e 4f3d c326 503e 8922 3c3e
00000160: 7014 943c 8c53 643e c01e 373d 9cac 8fbe
00000170: afae 58be b2a0 4c3e 2f12 39be 2fcf b43d
00000180: 0d7c 843e db93 c9bd e6bc 073e 658e 1d3d
00000190: 2b68 483e 8dcc 0d3e 728b 493e 4e50 84be
000001a0: 7895 933d 7b82 453e cf4d c83d 77a0 6abe
000001b0: fdd3 953c 68d9 a63e 9f3f 543e 62b9 c8bd
000001c0: acdf e43d 43b5 36be b9e5 38be b433 6e3e
000001d0: b7f7 4f3c 9617 c6bd e124 093e 0bf9 aebe
000001e0: 78fb 28be 502b 7e3e 04ce 6cbe 4900 d13d
000001f0: 4099 bdbe 4451 b0bd 12fe 85be 3caf 84bd
00000200: 4881 8dbe a6b8 b33d 5657 963d a526 21bd
00000210: ffc9 bebd 0e52 bb3b 995a 623e 58c1 ebbd
00000220: b2ab 65bd f236 c3be 576f 91bd 2494 7c3d
00000230: 96c5 333e def0 933d f4a5 9ebd 91b5 983e
00000240: f9fe c13d 6b2b c9bd dc70 9fbe 3fc9 643c
00000250: f553 bebd acda 183e c001 33bc 58dd 04be
00000260: e897 1abe 7ca9 d33c cdbb d43d 91c8 7dbe
00000270: 0fff 64bd dd5b 573e 79a2 113e 3907 083e
00000280: 81dc 863c 4e31 babd ebf1 10be 9d0d dc3d
00000290: 7b75 153c 8786 6d3e 3506 f83d 945f 3d3e
000002a0: 46e0 1e3e bebd dc3e 899d ea3d 8035 88be
000002b0: 255f f9bd 41e5 f7bc ce1b 173d 5f46 dbbd
000002c0: 0447 d83d 147d 953e fcaf ff3d aefc 253e
000002d0: 2490 053e c4c4 0a3e 7d8b 7b3d 8c3a c93d
000002e0: ff84 4ebc 420a 733e 251b 673e 36cb 9cbc
000002f0: a04e 4d3e b01d 863e 6bbf 71bd 4917 5c3e
00000300: 8a11 923d 5f17 34be 5f39 3ebe 7cbc 363d
00000310: 24a8 8dbe 927a 90bc 74e3 20bf 3266 133e
00000320: a471 513d fc35 9d3d af89 babd 5d39 c4bd
00000330: 6612 0c3e 4c18 963d cee3 04be 9647 86bd
00000340: f503 eebd 5426 f23d d3f2 213e 103c e6bd
00000350: f1f3 c6bd c20d 7a3e 33f1 183e 2494 343e
00000360: 6705 97be 7714 38bc 8243 8fbe c356 72bc
00000370: e8b7 033e 24fd 05be 7f0a a3bd 2bed 533e
00000380: 99bd cf3d bdb0 d7bc b934 8d3e 2a17 adbd
00000390: d477 85bd ca62 603e 31ee 023e 5db3 443e
000003a0: a51d ac3d ebfe b73e 712a b5bd 08cb debc
000003b0: e6d0 b6bd 7793 653e 7267 293e 7a5f 21be
000003c0: 1157 53bd 0472 e1bc 41b8 91bd 01a1 3dbe
000003d0: aafb 06be d1cc ae3c d00c b53c 1737 953c
000003e0: b321 10bf 52c3 453d bbd8 a0bd f499 1abe
000003f0: 5bb7 9d3e 655d 4cbc 463e 80bd 59ce ab3d

conv2.nn.2.bias f4 [16]
0.066134885 0.52227944 0.6467019 -0.0052923327 0.1922603 0.48799506 0.0005461127 0.40510607
0.62822795 -0.00428185 0.0055045947 -0.0005093383 0.54678 0.24875356 0.0011369264 0.27309555
00000000: ba71 873d 1bb4 053f 418e 253f 4e6b adbb
00000010: e2df 443e 7dda f93e 0129 0f3a 106a cf3e
00000020: 8cd3 203f c34e 8cbb e35f b43b 1d85 05ba
00000030: c6f9 0b3f 41b9 7e3e eb04 953a 2ed3 8b3e

conv2.nn.4.weight f4 [16]
0.7909091 0.70037544 0.7985147 0.7380257 0.7038691 0.8417868 0.7081272 0.7353537
0.806033 0.64674276 0.7678229 0.81501055 0.79376584 0.8011435 0.61743206 0.6589632
00000000: 0579 4a3f ce4b 333f 766b 4c3f 41ef 3c3f
00000010: c430 343f 577f 573f d347 353f 2440 3c3f
00000020: 2e58 4e3f ef90 253f 0b90 443f 88a4 503f
00000030: 3d34 4b3f be17 4d3f 0710 1e3f d0b1 283f

conv2.nn.4.bias f4 [16]
-0.05125414 0.31373137 0.19254339 -0.25616089 0.11381815 0.4041204 -0.228158 0.40293518
0.3828421 -0.14083666 -0.13723658 0.024992952 0.5215913 0.23221293 0.2051352 0.043846253
00000000: dcef 51bd 66a1 a03e 182a 453e 8527 83be
00000010: 7d19 e93d dee8 ce3e 40a2 69be 854d ce3e
00000020: e103 c43e 7c37 10be bf87 0cbe 05be cc3c
00000030: 0287 053f 3ac9 6d3e f60e 523e 2198 333d

conv2.nn.4.running_mean f4 [16]
2.2688324 1.9223477 1.1369839 5.8007674 0.16383573 4.2373996 7.2075725 0.18669578
0.60087574 0.8917964 5.5457253 7.939446 0.38613316 0.5435174 8.358098 0.046440482
00000000: 8d34 1140 7d0f f63f b088 913f e39f b940
00000010: 8ec4 273e c798 8740 6fa4 e640 2e2d 3f3e
00000020: fed2 193f c54c 643f 9576 b140 f10f fe40
00000030: 3fb3 c53e f523 0b3f c5ba 0541 6038 3e3d

conv2.nn.4.running_var f4 [16]
161.56738 122.41198 23.553688 269.57828 1.8328499 88.05375 353.87885 0.14455245
3.0684538 58.70268 342.71814 289.94846 0.27528644 2.4042675 337.69247 0.03853772
00000000: 4091 2143 efd2 f442 f46d bc41 05ca 8643
00000010: d39a ea3f 851b b042 7ef0 b043 8f05 143e
00000020: 8c61 4440 8bcf 6a42 ec5b ab43 67f9 9043
00000030: 58f2 8c3e 85df 1940 a3d8 a843 bad9 1d3d

conv3.nn.0.weight f4 [16, 16]
0.06739667 -0.20233656 0.056264646 0.1931973 -0.16011125 0.17313705 -0.20799 0.060336284
-0.08336104 0.17231745 -0.19724919 -0.095175944 -0.41613066 -0.16738194 0.03622733 0.18571664
-0.028658122 -0.12671062 0.095956266 -0.1086241 0.0024603521 -0.23528872 0.16613097 -0.29973122
-0.020418651 -0.16941287 0.11615129 -0.17266808 -0.08035544 0.15404364 0.21102083 0.20306753
0.017222723 -0.0705032 0.10476273 0.13496512 0.048782535 0.0017044262 -0.11214861 -0.22064854
0.17828852 0.12219903 -0.2661861 -0.21909791 -0.17231715 -0.034631014 -0.040347587 -0.020775374
-0.092083246 -0.08706386 0.27373055 0.0012932316 0.03974705 -0.017142951 0.16081905 -0.13348372
-0.022376232 0.003134048 -0.027314873 -0.09165947 -0.48834598 0.09594644 0.07827281 0.059025273
0.25464606 0.02026353 -0.26595807 -0.06754057 -0.05591823 -0.22538145 -0.021901717 0.056821186
-0.08779864 0.19569948 -0.09110933 0.1693526 0.2607999 -0.11370697 0.20997256 -0.19320793
0.17141424 -0.2474431 0.08398847 0.038915858 0.052495014 0.16326553 -0.1508251 -0.005969259
0.13424863 -0.03325606 -0.15269652 -0.020692788 -0.21882932 -0.010884165 0.009204261 0.11054213
0.15750365 -0.1745124 0.23363991 -0.07724842 -0.1842232 0.15217538 -0.1277199 -0.5969406
-0.1544569 -0.23917733 0.00973384 -0.08873593 0.20399092 -0.14328486 0.15053716 -0.30656832
0.11202377 -0.034000613 -0.058286145 0.10904288 -0.031273555 -0.15325989 0.13771352 -0.22906286
0.25004253 0.06850441 0.11760256 0.040696904 0.15250584 -0.13341285 -0.16174214 0.09369004
-0.124234006 -0.1725836 -0.0686357 0.016198255 0.24146129 -0.23123273 -0.09791798 -0.24572223
0.013648865 0.14230137 -0.17692427 -0.07453916 -0.05454736 -0.12447636 0.066033 -0.06264126
-0.009579674 0.023367655 -0.08386428 0.06964286 0.06470474 -0.19299023 -0.0187556 -0.15131159
0.018654682 -0.109450564 0.123230614 -0.1228387 0.17084569 -0.32201087 0.040480666 0.037831906
-0.08363356 0.004367761 0.12609626 -0.020172346 -0.11630986 -0.08791402 0.08822152 0.21744278
0.09416948 0.10142078 0.03723983 -0.15874086 0.056158777 -0.12165439 -0.09515993 -0.032301787
-0.118371435 0.17324477 0.016513504 -0.3296806 0.13750044 -0.20468988 -0.11174071 -0.21565734
0.057239413 0.04167494 0.08786288 -0.28803807 -0.39042675 0.061744742 -0.08618235 -0.002096976
0.2435916 -0.17686406 0.10873421 0.0044398345 0.04730619 0.18779318 0.058235433 0.023235682
-0.35752076 0.12959397 -0.23507112 0.09165514 0.023476277 -0.2865115 0.054973047 0.16601783
0.043527815 -0.20036969 0.30651343 -0.29512078 0.035605624 0.22309218 -0.06736081 0.092595726
-0.040619254 0.24953683 0.18520974 -0.020684125 -0.04353091 0.026128769 0.09778523 -0.071417004
0.23128796 0.0954168 0.018169435 -0.07841074 0.0022185126 -0.017186437 0.023755025 0.14328809
0.1792783 0.034305036 -0.03640724 0.1523133 0.18820164 0.10493064 0.010895245 -0.04082753
-0.3388644 -0.13102701 0.06716997 0.06317619 -0.16082282 -5.8883976e-05 -0.10579043 0.14414513
0.14714065 -0.15543987 -0.15612175 0.09129065 -0.5503671 -0.07131063 -0.016116561 0.008004052
00000000: 4407 8a3d 5131 4fbe c275 663d 83d5 453e
00000010: 34f4 23be d74a 313e 55fb 54be 2e23 773d
00000020: 31b9 aabd fc73 303e b1fb 49be 9beb c2bd
00000030: 140f d5be 2c66 2bbe 1c63 143d 812c 3e3e
00000040: 70c4 eabc 6ec0 01be b884 c43d 5076 debd
00000050: dc3d 213b 87ef 70be 3d1e 2a3e 5f76 99be
00000060: 0445 a7bc 917a 2dbe bae0 ed3d e7cf 30be
00000070: 6591 a4bd 9ebd 1d3e d815 583e eff0 4f3e
00000080: ab16 8d3c fb63 90bd d88d d63d 4c34 0a3e
00000090: 32d0 473d 0e67 df3a 2cae e5bd b1f1 61be
000000a0: 4491 363e 7c43 fa3d 8b49 88be 345b 60be
000000b0: e873 30be 40d9 0dbd 8343 25bd 1e31 aabc
000000c0: 2496 bcbd 894e b2bd 6926 8c3e a781 a93a
000000d0: cdcd 223d 606f 8cbc c0ad 243e f5af 08be
000000e0: 5c4e b7bc 9a64 4d3b 71c3 dfbc f6b7 bbbd
000000f0: 7c08 fabe 917f c43d 7f4d a03d 7cc4 713d
00000100: f860 823e b4ff a53c a82b 88be b652 8abd
00000110: 840a 65bd 65ca 66be 3b6b b3bc 55bd 683d
00000120: c6cf b3bd 7265 483e 8797 babd c56a 2d3e
00000130: 9187 853e 33df e8bd 0c03 573e 4dd8 45be
00000140: 3787 2f3e b961 7dbe 2602 ac3d 3c66 1f3d
00000150: 0305 573d 142f 273e e571 1abe c699 c3bb
00000160: 7978 093e 8237 08bd 7a5c 1cbe ec83 a9bc
00000170: cb14 60be 7f53 32bc 78cd 163c ea63 e23d
00000180: a348 213e 61b3 32be 4d3f 6f3e 6b34 9ebd
00000190: 02a5 3cbe ddd3 1b3e 01c9 02be 19d1 18bf
000001a0: f329 1ebe e7ea 74be af7a 1f3c 2fbb b5bd
000001b0: ffe2 503e 44b9 12be 6a26 1a3e 86f6 9cbe
000001c0: b86c e53d 3a44 0bbd 74bd 6ebd e051 df3d
000001d0: b318 00bd 29f0 1cbe c604 0d3e 748f 6abe
000001e0: 9305 803e 0a4c 8c3d 9cd9 f03d ccb1 263d
000001f0: 7e2a 1c3e 619d 08be bb9f 25be 90e0 bf3d
00000200: 666e febd c1b9 30be e090 8cbd 34b2 843c
00000210: a141 773e 46c8 6cbe 3989 c8bd 9c9e 7bbe
00000220: 7d9f 5f3c 73b7 113e a32b 35be fda7 98bd
00000230: 0d6d 5fbd 76ed febd 4f3c 873d 104a 80bd
00000240: 11f4 1cbc 866d bf3c 09c1 abbd eaa0 8e3d
00000250: eb83 843d 3b9f 45be 58a5 99bc 6df1 1abe
00000260: b4d1 983c 9e27 e0bd 5560 fc3d db92 fbbd
00000270: 2cf2 2e3e 9cde a4be 0ecf 253d a1f5 1a3d
00000280: 1248 abbd 6f1f 8f3b 611f 013e 7a40 a5bc
00000290: dd33 eebd 440c b4bd 7cad b43d 52a9 5e3e
000002a0: eedb c03d b3b5 cf3d cb88 183d f78c 22be
000002b0: bf06 663d f025 f9bd 36e3 c2bd e14e 04bd
000002c0: b96c f2bd 1467 313e 5447 873c e5cb a8be
000002d0: eacc 0c3e 399a 51be 50d8 e4bd 47d5 5cbe
000002e0: e073 6a3d 58b3 2a3d 74f1 b33d ba79 93be
000002f0: 04e6 c7be 0ee8 7c3d 5f80 b0bd 6b6d 09bb
00000300: 1470 793e da1b 35be 0bb0 de3d 087c 913b
00000310: 23c4 413d db4c 403e 4788 6e3d c258 be3c
00000320: f60c b7be 48b4 043e 7cb6 70be b1b5 bb3d
00000330: 5251 c03c a3b1 92be 6b2b 613d 9400 2a3e
00000340: 394a 323d b62d 4dbe 54ef 9c3e 121a 97be
00000350: 34d7 113d 4772 643e 77f4 89bd d4a2 bd3d
00000360: 6060 26bd 9586 7f3e 9fa7 3d3e c171 a9bc
00000370: 784d 32bd 000c d63c 9f43 c83d 1443 92bd
00000380: c0d6 6c3e e269 c33d 11d8 943c cf95 a0bd
00000390: 7764 113b 92ca 8cbc e699 c23c 1dba 123e
000003a0: bb94 373e 7083 0c3d c21f 15bd 05f8 1b3e
000003b0: eeb7 403e e0e5 d63d f881 323c c53a 27bd
000003c0: a27f adbe f22b 06be 6990 893d 8562 813d
000003d0: bdae 24be 30fa 76b8 a7a8 d8bd c89a 133e
000003e0: 0aac 163e a12b 1fbe 61de 1fbe 98f6 ba3d
000003f0: dce4 0cbf 4f0b 92bd e106 84bc 6d23 033c

conv3.nn.0.bias f4 [16]
0.4811752 0.24857113 0.094999574 0.53523576 0.31563833 0.34808522 0.644446 0.70880795
0.09768616 -0.2715757 0.24740359 0.45837447 -0.29759195 0.19943568 -0.26305494 0.6382789
00000000: 995c f63e 6e89 7e3e 238f c23d 3605 093f
00000010: 599b a13e 3a38 b23e 6afa 243f 7074 353f
00000020: ae0f c83d f80b 8bbe 5e57 7d3e 0fb0 ea3e
00000030: f95d 98be de38 4c3e 23af 86be 3f66 233f

conv3.nn.2.weight f4 [16, 16]
0.09553098 0.0677966 -0.08759791 0.080356084 -0.32443416 0.16284932 0.21382643 -0.24317329
0.024799239 -0.11297967 -0.1167266 -0.053841546 0.04554788 0.17051761 -0.07788437 0.31127968
0.1325386 0.0073754075 0.19639646 0.01422973 -0.021152182 0.038503528 -0.0059139645 0.007121251
0.25098848 -0.03514196 -0.17879963 -0.020955391 -0.21662356 0.109613486 -0.12333066 -0.004494636
-0.25876606 0.11873102 0.06032723 0.13659354 -0.016467055 0.04218759 -0.6521643 0.17617546
0.060512464 -0.0039033655 0.16156079 0.05964155 -0.33669537 -0.07291542 -0.22767778 -0.043804307
-0.16499278 0.2552973 -0.14532027 0.26463798 -0.040999938 0.13511442 -0.47476137 0.023961078
0.2829876 0.025986547 -0.19480436 0.22917166 0.019053398 -0.11711095 -0.05665354 0.17956968
-0.12138191 0.019165507 -0.14127956 0.18404114 -0.15668602 -0.15668339 -0.7436228 0.050046936
-0.11431721 -0.075424716 -0.0027897365 0.1982247 -0.0722287 -0.07843843 0.034396466 -0.029837599
0.10866065 0.093839005 0.09887113 0.060744565 -0.16416101 0.20535263 0.18419982 0.003963624
-0.034243148 -0.013054207 -0.1440164 -0.019790668 0.093535796 0.17845078 0.096566066 0.13389821
0.056580987 -0.3274817 -0.11688628 0.2290505 -0.13769083 0.24631685 -0.0024020297 -0.5135332
-0.011215656 -0.1959949 -0.06661381 -0.113678396 0.09836758 -0.1250498 -0.2561293 0.21225247
0.076879546 -0.06938992 -0.110443026 0.2907621 -0.55564535 0.09997185 -0.10424049 -0.05774932
-0.10110968 -0.19210723 0.1468587 -0.030574191 -0.1993115 0.16091053 -0.0064580236 0.05554628
-0.06596977 0.20699435 0.15602425 0.07407483 -0.114705734 0.17563114 -0.10286225 0.1560819
-0.055075362 -0.024610681 0.08046503 0.07470655 -0.20474714 -0.14093848 -0.069642626 0.19960521
0.11026018 -0.2940211 -0.06633815 -0.33495566 -0.028744143 -0.43153432 -0.27242112 -0.12941644
0.018805763 0.07055735 0.3234742 0.090006545 -0.176377 -0.25587595 0.06078274 -0.41021284
-0.16541179 0.08392538 0.07804891 0.29991043 -0.13295239 -0.057348005 -0.32912236 0.22947423
0.08407406 -0.16876486 -0.18242314 0.13122508 -0.26177984 -0.15798825 -0.34014076 0.28196055
0.0003146439 -0.07898731 -0.03877185 -0.35636115 0.080900595 -0.32062078 -0.5087071 -0.2947053
-0.0106612565 -0.21286567 -0.04032431 0.07144046 0.081666574 -0.06544319 -0.075057894 -0.06368132
0.023196805 -0.1672806 -0.2515508 0.0082185725 -0.11432696 -0.18110013 -0.047279023 -0.4050491
0.055161063 -0.120502196 0.005827148 -0.13925487 0.059026714 0.101275206 -0.15033673 0.0574381
-0.14283115 0.17440006 -0.075746715 0.058395397 0.20969355 0.03788636 -0.5281784 0.13164333
0.07259906 -0.10393657 -0.10181291 0.025191268 0.03835317 -0.35774037 -0.08343406 0.15513696
-0.3259689 -0.08937365 -0.08233231 -0.29555044 0.10796527 -0.14275411 0.078193836 0.16773526
0.009089959 -0.1440377 -0.029297126 -0.04309041 -0.06983467 -0.13945784 -0.08008809 -0.52322763
0.15330178 0.03324777 -0.120292716 0.034053423 -0.19470625 0.07239263 0.043487497 -0.42361495
0.016874302 -0.04880515 -0.14042412 -0.13115326 -0.18426792 0.18395203 -0.04779977 0.10980584
00000000: bfa5 c33d f2d8 8a3d 8866 b3bd bb91 a43d
00000010: 3c1c a6be f9c1 263e 51f5 5a3e 6b02 79be
00000020: c627 cb3c e361 e7bd 5b0e efbd f488 5cbd
00000030: 6a90 3a3d 2b9c 2e3e d781 9fbd 0d60 9f3e
00000040: 33b8 073e 67ad f13b 271c 493e d023 693c
00000050: 5747 adbc e0b5 1d3d eec9 c1bb 6259 e93b
00000060: 9081 803e 04f1 0fbd 4017 37be a4aa abbc
00000070: 91d2 5dbe 097d e03d c994 fcbd bd47 93bb
00000080: fc7c 84be 4029 f33d af19 773d 2ddf 0b3e
00000090: ebe5 86bc e5cc 2c3d 3df4 26bf 5767 343e
000000a0: ebdb 773d 9bcf 7fbb 3170 253e b34a 743d
000000b0: 5663 acbe ae54 95bd 5d24 69be 256c 33bd
000000c0: def3 28be 54b6 823e d6ce 14be a17e 873e
000000d0: 8def 27bd 6f5b 0a3e ec13 f3be 064a c43c
000000e0: c0e3 903e bde1 d43c cb7a 47be faab 6a3e
000000f0: df15 9c3c ded7 efbd 8b0d 68bd 1de1 373e
00000100: 1497 f8bd fb00 9d3c 97ab 10be 4875 3c3e
00000110: 4d72 20be 9c71 20be 105e 3ebf 04fe 4c3d
00000120: 241f eabd 4678 9abd 03d4 36bb 6afb 4a3e
00000130: a4ec 93bd 54a4 a0bd 4fe3 0c3d fb6d f4bc
00000140: 7a89 de3d aa2e c03d f27c ca3d 4bcf 783d
00000150: d319 28be f647 523e e19e 3c3e 4ae1 813b
00000160: 8b42 0cbd 50e1 55bc 0979 13be 0a20 a2bc
00000170: b28f bf3d cdbb 363e 6ec4 c53d 9d1c 093e
00000180: 77c1 673d aeab a7be 1362 efbd 378c 6a3e
00000190: d3fe 0cbe 7c3a 7c3e 5f6b 1dbb e976 03bf
000001a0: dfc1 37bc e3b2 48be d26c 88bd 38d0 e8bd
000001b0: f174 c93d 0e0d 00be 6123 83be b658 593e
000001c0: 0673 9d3d 4d1c 8ebd f42f e2bd c5de 943e
000001d0: c63e 0ebf 0bbe cc3d 0a7c d5bd 8d8a 6cbd
000001e0: 9812 cfbd c2b7 44be 2162 163e ba76 fabc
000001f0: 5018 4cbe bbc5 243e d49d d3bb 7f84 633d
00000200: 291b 87bd 54f6 533e d2c4 1f3e 8bb4 973d
00000210: d7ea eabd a6d8 333e 71a9 d2bd efd3 1f3e
00000220: b496 61bd 579c c9bc daca a43d bfff 983d
00000230: 3ca9 51be 2d52 10be cba0 8ebd 4f65 4c3e
00000240: 17d0 e13d ef89 96be 4cdc 87bd 4f7f abbe
00000250: d678 ebbc 11f2 dcbe c87a 8bbe be85 04be
00000260: 8b0e 9a3c 5f80 903d 699e a53e 5a55 b83d
00000270: 2c9c 34be 2c02 83be 53f7 783d 6b07 d2be
00000280: b561 29be 12e1 ab3d 1bd8 9f3d dc8d 993e
00000290: ac24 08be bee5 6abd ba82 a8be 4bfb 6a3e
000002a0: 052f ac3d b2d0 2cbe 22cd 3abe de5f 063e
000002b0: 0208 86be acc7 21be ee26 aebe 225d 903e
000002c0: caf6 a439 19c4 a1bd 3bcf 1ebd f874 b6be
000002d0: 36af a53d 6828 a4be a13a 02bf 9de3 96be
000002e0: 8dac 2ebc 75f9 59be 1b2b 25bd 604f 923d
000002f0: ce40 a73d 1407 86bd f4b7 99bd 5a6b 82bd
00000300: 3a07 be3c 9b4b 2bbe 44cb 80be 31a7 063c
00000310: 4124 eabd 5072 39be a6a7 41bd 9862 cfbe
00000320: 91f0 613d dbc9 f6bd a9f1 be3b d498 0ebe
00000330: ffc5 713d 6069 cf3d dff1 19be 3744 6b3d
00000340: 5442 12be ee95 323e 1821 9bbd 0330 6f3d
00000350: e8b9 563e ba2e 1b3d b336 07bf 82cd 063e
00000360: d1ae 943d b2dc d4bd 4983 d0bd eb5d ce3c
00000370: 3718 1d3d bf29 b7be 7adf aabd 39dc 1e3e
00000380: 65e5 a6be 8809 b7bd d89d a8bd 6352 97be
00000390: e51c dd3d 222e 12be 1724 a03d cbc2 2b3e
000003a0: 0dee 143c 9e7e 13be 8700 f0bc 927f 30bd
000003b0: 7b05 8fbd 09ce 0ebe 3905 a4bd 3ff2 05bf
000003c0: 24fb 1c3e d02e 083d 075c f6bd 9a7b 0b3d
000003d0: 1361 47be 9642 943d f21f 323d 0fe4 d8be
000003e0: fa3b 8a3c e9e7 47bd 57cb 0fbe 0a4d 06be
000003f0: bbb0 3cbe ec5d 3c3e b1c9 43bd e2e1 e03d

conv3.nn.2.bias f4 [16]
0.19783957 0.0015208094 0.36000142 0.8099739 0.5827569 0.026676346 0.55697715 0.4164191
0.19556037 0.43268606 0.3220002 0.7504285 0.6916168 0.43584022 0.6713473 0.6466448
00000000: 7596 4a3e e555 c73a 1b52 b83e 735a 4f3f
00000010: 8e2f 153f 5a88 da3c 0e96 0e3f e234 d53e
00000020: fa40 483e 0789 dd3e 36dd a43e 151c 403f
00000030: cc0d 313f 7326 df3e 6bdd 2b3f 838a 253f

conv3.nn.4.weight f4 [16]
1.2330148 0.75018096 1.287741 1.3065147 1.1578096 0.61706513 1.2540675 1.3206713
0.7009875 1.6083851 1.1769733 0.9877849 1.2359085 1.1058899 1.8456757 1.2731063
00000000: 6ed3 9d3f dc0b 403f b2d4 a43f e03b a73f
00000010: 1b33 943f fbf7 1d3f 4985 a03f c20b a93f
00000020: eb73 333f 90df cd3f 10a7 963f 79df 7c3f
00000030: 4032 9e3f cd8d 8d3f 1a3f ec3f 26f5 a23f

conv3.nn.4.bias f4 [16]
0.5701814 0.05909554 0.39303026 0.46084198 0.56530434 0.37133056 0.532555 0.69526446
0.25655386 0.42058524 0.32632542 0.4531208 0.57389545 0.3426648 0.9606862 0.5369618
00000000: 69f7 113f 2a0e 723d 433b c93e 7bf3 eb3e
00000010: c9b7 103f 0a1f be3e 8655 083f dafc 313f
00000020: 075b 833e f356 d73e 2014 a73e 73ff e73e
00000030: d0ea 123f c371 af3e 88ef 753f 5476 093f

conv3.nn.4.running_mean f4 [16]
1.3771499 0.13953067 0.19727637 1.091103 0.26100045 3.0783377 0.31513146 0.6002031
0.67563 0.1605879 0.1793934 0.10245128 0.20213795 0.40225822 0.41668224 0.440578
00000000: 7346 b03f 21e1 0e3e d102 4a3e 43a9 8b3f
00000010: daa1 853e 7c03 4540 e958 a13e e9a6 193f
00000020: 16f6 2c3f 2871 243e e7b2 373e fad1 d13d
00000030: 40fd 4e3e caf4 cd3e 6057 d53e 7193 e13e

conv3.nn.4.running_var f4 [16]
11.396054 1.5317676 0.1621977 8.837358 0.14250244 93.49439 0.9098769 0.94155645
2.956802 0.1882767 0.14967953 0.04816487 0.09610515 1.1332875 0.27826208 0.59156823
00000000: 3d56 3641 f610 c43f 2717 263e d265 0d41
00000010: 29ec 113e 21fd ba42 b1ed 683f d809 713f
00000020: 3e3c 3d40 9bcb 403e 9745 193e 8748 453d
00000030: c7d2 c43d 910f 913f 5e78 8e3e 0471 173f

lin.weight f4 [4, 16]
-0.43423676 0.16307843 0.09554493 -0.09605278 0.1506248 -0.3254887 -0.31748885 -0.5615835
-0.23762907 0.710153 -0.3864464 0.35970053 -0.12777062 -0.017260391 0.17768803 -0.43504083
-0.13828315 -0.17212325 -0.45444638 -0.6688818 -0.80320084 -0.13002373 -0.13132271 -0.6103501
-0.1837219 -0.3657346 -0.0056569157 -0.2672168 -0.10636018 -0.455597 1.122609 -0.39377293
0.36451757 -0.072776265 -0.49333125 -0.31028986 -0.3801652 0.02424233 0.63555104 0.30579934
-0.053107515 -0.12786876 -0.11643632 -9.191445e-05 0.5201553 -0.37973252 -0.8389694 0.432894
-0.18871538 0.11831596 0.5027261 0.722593 0.26729777 -0.2595497 -0.1108061 0.6478735
0.29137093 -0.8587762 0.59022546 -0.6742355 -0.78232265 0.47982547 -0.5891688 -0.24498385
00000000: 4854 debe 08fe 263e 0fad c33d 52b7 c4bd
00000010: 633d 1a3e 74a6 a6be e68d a2be f0c3 0fbf
00000020: 0955 73be 96cc 353f 4ddc c5be ab2a b83e
00000030: 4dd6 02be aa65 8dbc daf3 353e acbd debe
00000040: 199a 0dbe 1441 30be 32ad e8be d63b 2bbf
00000050: 929e 4dbf f124 05be 7679 06be e73f 1cbf
00000060: 9821 3cbe 9141 bbbe a65d b9bb a4d0 88be
00000070: 5ed3 d9bd 0344 e9be a7b1 8f3f 9b9c c9be
00000080: 0ca2 ba3e b90b 95bd ea95 fcbe 50de 9ebe
00000090: 03a5 c2be da97 c63c 79b3 223f bb91 9c3e
000000a0: 4487 59bd 07f0 02be 2a76 eebd 32c2 c0b8
000000b0: e628 053f 4d6c c2be b3c6 56bf 48a4 dd3e
000000c0: 9b3e 41be a34f f23d a8b2 003f dbfb 383f
000000d0: 41db 883e b3e3 84be 4fee e2bd 0adb 253f
000000e0: 922e 953e c2d8 5bbf 0419 173f b39a 2cbf
000000f0: 4c46 48bf afab f53e c4d3 16bf 0cdd 7abe

lin.bias f4 [4]
-0.44246933 0.81760734 0.28532198 -0.13216327
00000000: 578b e2be b74e 513f b915 923e cf55 07be
