models/SKY_Pretrained/pubmed_gcn_model.pth (torch, 36258 bytes, 6 tensors)

conv1.bias f4 [16]
00000000: cec0 a13c 3603 c93c abd3 513d 9dbc 263d
00000010: 34f7 f43d 0a9b 4f3d 1766 ef3c d035 b93c
00000020: 5003 373d d259 e73c 8f7d 7b3d f933 653d
00000030: 4848 f93d ee14 f33d df74 2c3d 9764 df3c
0.019745257 0.024537664 0.051227253 0.04070722 0.11961213 0.050684966 0.029223485 0.022608668
0.044680893 0.028241072 0.06139904 0.055957768 0.1217199 0.118692264 0.042103644 0.027269645

conv1.lin.weight f4 [16, 500]
00000000: 7798 0ebb 8419 06be 760b b83d b7b0 0bbc
00000010: fcf4 983b ba4f b3bc 5f7d 683d 6701 89bc
00000020: c906 7dbb 58cc 9fbd 490d 0ebd c461 673d
00000030: fe5f 8cbd 7aca ed3d 6f68 91bd cbd6 d5bc
00000040: 50cf 76bf 7dc9 da3d fbe0 403a d057 333b
00000050: 7a0d debd d66f 333e b14d 7a3b e3de e23d
00000060: 56a2 823d 5674 57bd 4e29 87bc 715c 94b9
00000070: 6317 6abc 599b d7bd 0b1b 19bd efd0 603c
00000080: 9dc8 163c 4cb8 4abc 8fa7 393c 441f 9d3d
00000090: 171d 9f3d ba34 f3bc 52eb 7bbd 1dad 013d
000000a0: 97c6 20bd 7fb3 88bd d72c f03d 528b 693b
000000b0: 7823 fdbd e164 9dbd 0f04 e1bd e16e 5cbd
000000c0: 5799 f63d 1764 67bd d0d2 11bc c1a5 23bd
000000d0: 753b 263d 4bff 143e ed0d dabd 753c 7b3e
000000e0: f24f fb3d 7009 04bd b541 8abd 21e0 af3d
000000f0: 2ad6 943d 467a 0c3e 072b bd3d 2dbe f03d
00000100: e3c5 00bd 69a5 07bd 3da5 e239 a3cc 19be
00000110: abf7 9cbd df60 85be 2eca 983d c79e bbbd
00000120: 9dbb 44bd d9ba 56be 0892 b43c 71fa 5b3e
00000130: 3974 32bd 703e a53d 6323 6c3c b382 b1bc
00000140: 71e6 0d3b 55b8 9bbd 7c54 b23d b44a e33d
00000150: 92e8 2a3d 3886 9dbc 40ac fb3d b16e e5bd
00000160: c524 c8bd 4663 883c 35a3 cfbc a79f 013e
00000170: 3503 b83d b119 51bd d36e 5b3d e9e1 3a3d
00000180: 2657 c7bd abf0 203d 453d 9f3d ac54 07bd
00000190: 3ebb 71bc efb3 47bd d944 af3c e5f7 833d
000001a0: e0bd a63d 9732 50bd 8caa d73c fe2d d7bd
000001b0: ad66 ec3d b738 5fbb 32a8 6fbd 6f54 7a3d
000001c0: ae4b 9f3d 5f75 36ba 8abf 8b3c e775 473c
000001d0: e9b8 4ebd 26ca 03bd ace8 a8bd ccfd 6b3d
000001e0: a13a fe3c 029f 213e e816 623d 83c7 20be
000001f0: ab1b 8a3c aea9 97bc b92d 89bb 8de2 b03d
00000200: 694d ba3d d5dd adbd c9ec cc3c 9ca5 3c3d
00000210: d6ab 963d dae7 b63c 7a8c 823d 2cf7 973d
00000220: 2e04 913d 1310 a9bd ce04 68bb a565 6d3f
00000230: 7117 d73d 8b50 cc3d 168a 37bc 2fee ccbc
00000240: 7cee 223d 77c4 563d f0c6 e73d 09b0 903b
00000250: 22d8 19be 2824 5c3d 4565 b5bb cc57 9bbb
00000260: c106 0dbe 0caa 403e 6aed 913d c74a 613d
00000270: bc47 7f3d f8be 2a3c 8946 69bd 46c6 9f3c
00000280: 5eb9 d3bd 92fe 913c db94 bc3d 4395 833d
00000290: 3a9d ff3c 2100 a1bc 0fa3 433e 7e8c 2abe
000002a0: fd20 ee3d 82eb a63d 8597 b83d f0a7 af3d
000002b0: 9f29 75bd e9c5 0cbd c9f4 323c 279c 0abe
000002c0: 8ba6 983d a6c5 423d 4054 08bc ce6e b6bc
000002d0: ebd9 31bd af34 16bd f942 7dbc 8ceb 503d
000002e0: d94f 333e 6526 f03d ffd2 3fbd 3cba bd3c
000002f0: 3670 81bc bd27 0fbd 2385 753c 7e09 b93c
00000300: 9f5b 643d cbdf 2f3d 4931 18be 4490 4e3d
00000310: 5886 323d 9a9e b23a d825 86bd 96d5 083e
00000320: 79c4 1f3e 376b 5ebb f54b 41bc 428c 9b3c
00000330: 3cea 9b3d 30e1 1fbc c99e ecbd 7877 a63d
00000340: e7c7 d53c a858 99bc 581d bf3b 91a7 43be
00000350: 329c 623d 3a28 34be 8517 abbc e2df 993c
00000360: 6039 f2bc a36e bbbd f11c 03bd 7982 a5bd
00000370: f2ae ddbb c33e 91bc b5db 513d 8ba8 c2bb
00000380: 2a39 41bc 5f7e 17bd f9d6 11be fad0 173d
00000390: c7d0 af3c f09d 71bd 22b3 55bc a565 30be
000003a0: 80f2 e93c 2aa9 1e3d 3d95 a8bc b307 bfbe
000003b0: a216 33bd a309 4cbe e001 f83b b712 06bf
000003c0: 709f 2b3d 0c68 9abd 1095 76bd 47ec 0ebd
000003d0: a076 d6bd 5324 d0bc 110c 91bc fd73 6d3e
000003e0: 5d91 6cbc cfef c3bd dcca cd3d ae3d 7bbd
000003f0: 8770 fd3d 6654 9dbe 7eed c53d 0b0e 193d
-0.0021758357 -0.13095671 0.08986561 -0.008526019 0.0046678763 -0.021888603 0.05676019 -0.016724302
-0.003860878 -0.07802647 -0.03468064 0.05648972 -0.068542466 0.11610885 -0.07099997 -0.026103398
-0.96410084 0.10682962 0.00073577435 0.0027365573 -0.10842414 0.17523131 0.003819328 0.110776685
0.063786194 -0.05260118 -0.016499188 -0.00028297634 -0.014287802 -0.10527677 -0.037379306 0.013721689
0.009203103 -0.012373041 0.011331453 0.07671979 0.0776922 -0.029688228 -0.061503716 0.031659234
-0.03925189 -0.06674861 0.117273025 0.003563602 -0.12360281 -0.07685257 -0.10987102 -0.05381668
0.12040966 -0.056491937 -0.008900359 -0.039952997 0.040584046 0.14550512 -0.106471874 0.24534781
0.12271108 -0.032235563 -0.06750814 0.08587671 0.07267411 0.13718519 0.092367224 0.11755023
-0.03143872 -0.03311673 0.0004322919 -0.15019469 -0.076644264 -0.2605047 0.07460438 -0.09161144
-0.048030484 -0.20969714 0.02204229 0.21482255 -0.04356787 0.0806855 0.014412734 -0.021668768
0.0021652246 -0.07603518 0.0870752 0.11098233 0.041725703 -0.01922904 0.122887135 -0.11202753
-0.09772638 0.0166489 -0.025346378 0.12658559 0.08984987 -0.05104989 0.053572487 0.0456256
-0.09733419 0.03929202 0.07775358 -0.033039734 -0.014754115 -0.048755582 0.021395134 0.064437665
0.081416845 -0.050829496 0.02632644 -0.10506819 0.11543021 -0.0034060904 -0.058510013 0.06111568
0.07778107 -0.00069602387 0.017059106 0.012174106 -0.050469313 -0.032175206 -0.08247504 0.057615086
0.031033816 0.15783313 0.055197626 -0.15701108 0.016858896 -0.018513527 -0.004186359 0.08636961
0.09096796 -0.08489577 0.025015252 0.046056375 0.07356994 0.022327352 0.0637445 0.07420191
0.07080875 -0.08255019 -0.0035403254 0.9273322 0.10502518 0.099763 -0.011202356 -0.025015919
0.039778218 0.052433457 0.11317241 0.0044155163 -0.15023854 0.05374542 -0.005535754 -0.004740691
-0.13772108 0.18814868 0.07125361 0.055002954 0.06232427 0.010421507 -0.056952033 0.019503724
-0.1033809 0.017821584 0.092080794 0.06424954 0.031202901 -0.019653382 0.1910517 -0.16655156
0.11627386 0.08150388 0.09013275 0.085769534 -0.059854146 -0.03436843 0.010922619 -0.1353613
0.074536406 0.047551773 -0.008320868 -0.022269633 -0.043420713 -0.036671337 -0.015457862 0.051005885
0.17510928 0.11726073 -0.04683208 0.023160093 -0.015800577 -0.034950007 0.014985356 0.022587534
0.05575144 0.042938035 -0.14862551 0.05043055 0.04358515 0.0013627589 -0.06550187 0.13362727
0.15602292 -0.0033938417 -0.011797895 0.018987779 0.07613036 -0.009758279 -0.11553723 0.081282556
0.026096297 -0.018719032 0.0058323555 -0.1910689 0.05532474 -0.1759347 -0.020885238 0.018783513
-0.029568374 -0.09151962 -0.032010023 -0.08081526 -0.00676524 -0.017730122 0.05123492 -0.005940502
-0.011793414 -0.03698575 -0.14242162 0.03706453 0.021461857 -0.05898851 -0.013043197 -0.17226274
0.028558016 0.038735546 -0.020578975 -0.37310562 -0.043722756 -0.19925551 0.007568583 -0.52372307
0.0419001 -0.075393766 -0.06020075 -0.0348933 -0.10471845 -0.025407946 -0.017705949 0.23188777
-0.014438954 -0.09567224 0.10048458 -0.06133812 0.123749785 -0.30728453 0.09664439 0.037366908

conv2.bias f4 [16]
00000000: 7f75 c73d 3f35 bb3d e8fb 153e 348d 963d
00000010: 2d5b 2e3c ed4a 093d efd8 353e cda8 1bb8
00000020: b8b7 d03d e1ec b13d 4f9f 8aba ab8e 3c3e
00000030: 37d6 0d3e ad96 8e3d f621 c63d d399 033d
0.097392075 0.09141015 0.14646876 0.07351151 0.010641855 0.03351872 0.17758535 -3.7112088e-05
0.101912916 0.08687759 -0.0010576042 0.18413799 0.13851248 0.06962333 0.09674446 0.03212912

conv2.lin.weight f4 [16, 16]
00000000: e69c 14bf e768 3cbf 8cec 4b3f 5b24 11be
00000010: 4ae5 0a3e 4124 043f 1e4c 57bf 0c09 d8be
00000020: 98c4 91be c07c d5be 2b7c 563f d863 2a3f
00000030: c25d 5f3e f661 903e 0152 d3bd bdee 54bf
00000040: 68b0 50bf 8284 26bf b405 493f b995 2abe
00000050: f9f9 cb3e 5788 263e f870 2abf 9978 0bbf
00000060: 26f0 87be 4b95 35bf 4fc5 f33e fac4 4e3f
00000070: 286f d43e 051c fa3e 23c3 51be 9ea9 24bf
00000080: c071 39bf bd32 43bf f3aa 423f 6493 29bf
00000090: 3d76 e6bd b8cd 5b3f 782f 89be fe7b 5dbf
000000a0: 9095 3b3f bd07 1dbe 7c90 d13e 4f19 853f
000000b0: e404 a9bd bf65 1ebd ea56 4c3f 4c44 e3be
000000c0: 9b65 08bf 9a78 1dbf 55e6 693f 5055 e0be
000000d0: 2845 c93e bef0 9e3e 1915 f4be b161 39bf
000000e0: fb1e a2be 571d 15bf 8268 6a3f 0410 503f
000000f0: 2939 9a3e 529d 5a3e 9eab f7bd 8350 3abf
00000100: fa59 383f 43cb 5d3f aa5b f5be c611 7a3f
00000110: 0e05 623e bdd6 59bf ac9d 1c3f 8892 803f
00000120: d2a6 cbbe e520 c53e 7fb4 e4be dcb5 3cbf
00000130: 3eef cc3e b7bf d73e 3098 00bf 4845 3c3f
00000140: 773f 7c3f e652 533f c6af 2fbf 3765 743f
00000150: bd32 ce3c fb60 6fbe 4c20 4d3f e172 3f3f
00000160: 4951 673e a5b9 793f 0d9e 1abf 1206 16bf
00000170: 088e 993b 2bac 5c3e 4e07 1a3e c635 433f
00000180: 7792 c33c 42f5 313f a175 c83e 29f3 393f
00000190: 15d2 8c3f bfec 2dbf 149d abbe 70db 2c3f
000001a0: 4117 39bf 54bd cfbe 8848 0e3f 5d0e 02bf
000001b0: c973 a13f 60bd 9b3f 11c2 3ebf 682f 76be
000001c0: bd78 6fb5 b165 25b6 6de5 aa36 28ef 0137
000001d0: d227 38b7 16ba f9b6 067e 8534 85af 5ab6
000001e0: bf99 d436 759f 42b7 3523 71b6 e4d6 36b7
000001f0: f17a 6337 a650 72b7 c31e 4e36 6a85 1836
00000200: 8a48 51bf ac8a 3abf 8c11 763f 7c10 cabe
00000210: 9908 cc3e 4a98 f43e 4e47 2fbf 5bc8 3dbf
00000220: eb20 54be a58e 2abf a103 2b3f 26c2 143f
00000230: fe23 813e 3ffe aa3e df00 07be c14b 0cbf
00000240: 76d8 223e 58da c6be 2708 75be 2357 0abf
00000250: 348e 30bf 0aea 113f 2168 2a3f fcf4 cabe
00000260: 5b00 333f 52f7 d23e e7ec 11bf 9aad 1b3f
00000270: 0fe7 25bf a932 f8be 3a6e 273f def2 e63e
00000280: 701c 653e 70b4 abbe 4eab 66be bf72 dfbe
00000290: d373 0bbf 42d6 4d3f 69d7 063f fb19 babe
000002a0: 4487 763f b319 053f 4d49 a8be 7f4c 453f
000002b0: df95 05bf b1b1 04bf 7b84 6b3f b070 ff3e
000002c0: 448e 2b3d 9d8b 383f e519 303f d32c 0b3f
000002d0: fe03 783f 0ba5 46bf 9402 77be 5d7c 363f
000002e0: c1b3 3dbf e26a e7be 9993 2b3f 0b27 dcbe
000002f0: 8ce5 4e3f 3b63 3f3f 172e 57bf 871b 6cbe
00000300: c1d1 543e 490e 3e3f 2d9f d13e b130 413f
00000310: 9736 613f b723 f5be ab3b a6be 48de 163f
00000320: 4375 08bf 31d1 c3be 732a 213f 03a6 cebe
00000330: 8cfb 893f bacc 853f 5d06 0bbf 5b43 28be
00000340: 321e 723e bb2e d5be 20d2 a2be 6496 23bf
00000350: 6ce4 36bf 97fe 213f 75a1 683e c9ab a8be
00000360: 3744 133f df6e 023f 6c4b 7cbe c017 213f
00000370: a7bc e9be fba9 04bf 6887 433f 0d87 0d3f
00000380: 21e6 3ebf f392 33bf d5ec d53e 8332 bbbe
00000390: 07ba 063f b23c 083f b8c3 3abf a6fe 37bf
000003a0: d9a8 89be 5e18 30bf 8e63 0e3f b168 ff3e
000003b0: 7b63 a73e ddc7 8c3e 5c95 e8bd 6d93 48bf
000003c0: c4b3 913f d6ed 243f d6d4 1fbf 3dc8 593f
000003d0: 229d 6cbb e198 9fbe a706 9b3f f2c2 743f
000003e0: 619d dc3e e036 903f 4a26 0dbf f5fc 17bf
000003f0: bcb2 4f3d d241 b03d f027 723e 333b 973f
-0.5805191 -0.7359757 0.79657817 -0.14174025 0.1356403 0.5161782 -0.8410052 -0.42194402
-0.28470302 -0.4169674 0.83783215 0.665586 0.2181311 0.28199738 -0.103183754 -0.83176786
-0.81519175 -0.6504594 0.7852433 -0.16658677 0.39839152 0.16262947 -0.66578627 -0.5448089
-0.26550406 -0.7093093 0.47611472 0.8076931 0.41491055 0.48849502 -0.20484595 -0.64321315
-0.72439194 -0.76249295 0.760421 -0.66240525 -0.11253021 0.85860777 -0.26794028 -0.8651732
0.7327509 -0.15334983 0.40930545 1.0398349 -0.08252886 -0.03867125 0.7982012 -0.44388044
-0.5328004 -0.6151215 0.91367084 -0.43815088 0.39310575 0.31043047 -0.47672346 -0.7241469
-0.3166426 -0.58247894 0.91565716 0.8127444 0.30121735 0.21349075 -0.1209328 -0.727791
0.72012293 0.8663828 -0.47921497 0.9768337 0.2207224 -0.8509329 0.6117809 1.0044718
-0.3977571 0.3850166 -0.44668958 -0.73714995 0.40026277 0.42138454 -0.5023222 0.73543215
0.9853434 0.8254837 -0.68627584 0.9546694 0.025170678 -0.23376839 0.80127406 0.74784666
0.22589602 0.97548896 -0.60397416 -0.5860301 0.004686121 0.21550052 0.15041849 0.76253927
0.02387355 0.6951486 0.39152244 0.7263666 1.1001612 -0.6793937 -0.3351828 0.67522335
-0.7230111 -0.40574133 0.55579424 -0.50803167 1.261346 1.2167168 -0.7451487 -0.24041522
-8.9210135e-07 -2.4646108e-06 5.0931035e-06 7.744682e-06 -1.0976526e-05 -7.4424415e-06 2.4864875e-07 -3.2586697e-06
6.3359907e-06 -1.1600428e-05 -3.5932292e-06 -1.08980785e-05 1.3558879e-05 -1.44431015e-05 3.0714298e-06 2.2727422e-06
-0.8175131 -0.72867846 0.96120524 -0.39465702 0.3985031 0.47772437 -0.6846818 -0.74133843
-0.20715682 -0.6662391 0.6680241 0.58108747 0.25222772 0.333971 -0.13183926 -0.5480309
0.15902886 -0.38838458 -0.23928891 -0.5403921 -0.68966985 0.5699774 0.6656514 -0.39640033
0.6992242 0.41204315 -0.5700211 0.6081177 -0.6480569 -0.4847615 0.6540257 0.45107168
0.2237413 -0.335361 -0.22526285 -0.43642232 -0.5447361 0.80405056 0.5267244 -0.36347947
0.9630015 0.5199234 -0.32868424 0.7706985 -0.5218181 -0.51833636 0.91999024 0.4989066
0.041883722 0.7208803 0.6878951 0.5436527 0.9688109 -0.77595586 -0.24122077 0.71283513
-0.7410241 -0.45198733 0.6702209 -0.42998537 0.8081901 0.7476079 -0.840547 -0.23057376
0.2078314 0.7424055 0.40941754 0.7546492 0.8797392 -0.4787881 -0.32467398 0.58932924
-0.5330393 -0.38245538 0.629554 -0.40361032 1.0779891 1.0453103 -0.54306585 -0.16431944
0.23644331 -0.41637215 -0.31800938 -0.6390135 -0.71442294 0.632791 0.22717841 -0.32943562
0.5752596 0.50950426 -0.24638146 0.62926865 -0.45651743 -0.5182187 0.7637849 0.55284196
-0.745699 -0.701461 0.4178225 -0.36561975 0.52627605 0.53217614 -0.72954893 -0.7187294
-0.26886633 -0.6878718 0.5562066 0.4988456 0.32693085 0.27496234 -0.11356613 -0.78349954
1.1382985 0.6442541 -0.62434137 0.85071164 -0.00361044 -0.31171325 1.2111405 0.9560996
0.4308882 1.1266747 -0.5513655 -0.59370357 0.050707564 0.08606304 0.23648047 1.1814941

conv3.bias f4 [3]
00000000: c678 683e a282 8cbe 547b 53bc
0.22702321 -0.27443415 -0.012907822

conv3.lin.weight f4 [3, 16]
00000000: 2341 2bbf 52e0 3dbf 5b57 5d3f 57e2 57bf
00000010: 9d51 22bf 6c0a f43e 882b bcbf 5be8 a535
00000020: 6510 31bf d835 723f be10 943f eac8 9abf
00000030: d2d8 a9bf 04e1 8c3f fa70 72bf 7588 563f
00000040: 9345 a03f b165 a23f f525 5f3f e14a 9a3f
00000050: 1148 89bf 7b01 b4bf 0432 ee3e 650c 8cb5
00000060: 95a7 913f 47ab 68bf 37a5 8dbf 8a65 693f
00000070: 5039 2b3f e490 57bf 7012 b63f 6cc4 85bf
00000080: 44f7 94bf 78db 14bf cceb a3bf c80d 87bf
00000090: 9478 a13f 2984 833f 7571 2b3f eaf1 b0b6
000000a0: 9928 82bf 7d30 5bbf 337b 82bf 7e53 903f
000000b0: 9cc0 753f 74ed 74bf 6019 94bf 3b92 943f
-0.66896266 -0.7417041 0.8646142 -0.8432974 -0.6340578 0.476642 -1.4700785 1.2361082e-06
-0.6916564 0.9461341 1.1567609 -1.2092564 -1.3269293 1.1006169 -0.9470364 0.83801967
1.2521232 1.2687284 0.8716729 1.2054101 -1.0725118 -1.4062952 0.46522534 -1.043442e-06
1.1379267 -0.9088635 -1.1066045 0.9117056 0.66884327 -0.8420546 1.4224377 -1.0450568
-1.163796 -0.5814738 -1.2806334 -1.0551081 1.2614923 1.0274707 0.66969997 -5.2733712e-06
-1.016864 -0.8562086 -1.0193847 1.127548 0.95997024 -0.95674825 -1.1570244 1.1607126
