models/SKY_Pretrained/pubmed_gin_model.pth (torch, 49082 bytes, 26 tensors)

conv1.nn.0.weight f4 [16, 500]
0	0xbd61cc8d	-0.055126715
1	0x3df978ed	0.12181268
2	0x3cc7214d	0.024307871
3	0x3d8647e3	0.0655668
4	0x3e157051	0.14593627
5	0x3d8c7948	0.0685907
6	0x3c948f78	0.018134817
7	0xbcc41d58	-0.023939773
8	0xbe413c3a	-0.18870631
9	0xbcbce072	-0.023056243
10	0xbd745c4c	-0.059658334
11	0x3cb6e6be	0.022326823
12	0x3e04b121	0.12958194
13	0xbd9b3d71	-0.075800784
14	0xbdee4366	-0.11633949
15	0xbc2d93da	-0.010594333
16	0x3b3106a7	0.0027012022
17	0xbc9fc1f9	-0.019501673
18	0x3d68bd87	0.056821372
19	0x3cde6dbb	0.027151933
20	0x3d8a4efc	0.06753346
21	0xbe65bf87	-0.22436343
22	0x3c2b53c7	0.010456986
23	0xbd87ce9b	-0.06631204
24	0xbc65fadb	-0.014036859
25	0xbdddf6d4	-0.10838094
26	0xbd68bd6d	-0.056821276
27	0x3d90afdd	0.07064793
28	0xbd86f96d	-0.06590543
29	0x3d83cf9a	0.06436081
30	0xbd1cacd3	-0.038250756
31	0x3d6c746a	0.05772821
32	0x3ca2ccfb	0.019873133
33	0x3d489e22	0.048978932
34	0xbe50e642	-0.20400336
35	0xbd5a1c48	-0.053249627
36	0x3d60fd13	0.05492885
37	0xbc96bb10	-0.018399745
38	0xbdfbfcf2	-0.12304105
39	0x3db8dac0	0.09026098
40	0x3cfc01ec	0.030762635
41	0x3de4e624	0.11176708
42	0x3df5dc57	0.12004917
43	0xbe5510f0	-0.20807242
44	0x3de2576d	0.110518314
45	0x3e04bd34	0.129628
46	0xbc412e9a	-0.011790896
47	0x3d773a84	0.06035854
48	0xbd9d116e	-0.0766934
49	0x3dcde4d2	0.1005341
50	0x3e5c4880	0.21512032
51	0xbd87f0b9	-0.06637711
52	0xbd7abb30	-0.061213672
53	0x3e708197	0.23486935
54	0xbd53e5b1	-0.051732723
55	0x3d916ca5	0.071008004
56	0x3deea76b	0.11653026
57	0xbcc8b300	-0.024499416
58	0xbe3c57f5	-0.18392928
59	0xbcb448f6	-0.022007447
60	0x3c7e2c55	0.015513499
61	0x3cd57fe4	0.02606196
62	0x3c729220	0.014805347
63	0xbdc425b8	-0.09577507
64	0xbe1f721d	-0.15570875
65	0xbe099c64	-0.13438565
66	0x3d8cd7d7	0.06877106
67	0x3d84b536	0.06479876
68	0x3d66d95d	0.056359638
69	0xbe1cd7cf	-0.153167
70	0xbe007f87	-0.12548648
71	0xbe68e82f	-0.22744821
72	0xbddee93d	-0.108843304
73	0xbd44bb25	-0.048030037
74	0xbc8035a7	-0.015650583
75	0xbe1bc049	-0.1521007
76	0xbd1290df	-0.03578269
77	0xbca470aa	-0.020073254
78	0x3c2eff6f	0.010681017
79	0x3db57be0	0.08861518
80	0x3daa044b	0.083016
81	0xbd8a76f0	-0.06760967
82	0xbdf21e9e	-0.11822246
83	0x3de3edaf	0.11129319
84	0xbdec334f	-0.11533224
85	0x3da0838f	0.07837593
86	0x3d5f7266	0.05455246
87	0x3d8762ad	0.06610618
88	0xbd71f576	-0.05907198
89	0xbdaecfd9	-0.085357375
90	0x3dbc0662	0.09180905
91	0x3d94e881	0.07270909
92	0xbe7111fb	-0.23542015
93	0xbe8a2cd3	-0.26987323
94	0x3d8b4550	0.0680033
95	0x3d0951ca	0.033525266
96	0x3d0734c2	0.0330093
97	0xbca27a03	-0.01983357
98	0x3dcf90fb	0.10135075
99	0x3e5e435b	0.21705382
100	0x3d83e756	0.06440608
101	0x3e52c1ce	0.20581743
102	0x3d849c5b	0.06475135
103	0xbdf043fd	-0.11731718
104	0x3e612dc4	0.21990114
105	0xbb7bd38c	-0.0038425652
106	0xbd14ad08	-0.036297828
107	0x3b39d964	0.0028358335
108	0x3e0aac08	0.13542187
109	0x3e06fcf5	0.13182433
110	0xbbe5c3fe	-0.0070118895
111	0xbe505814	-0.20346099
112	0x3d431e8d	0.047636557
113	0x3cc7af2b	0.024375519
114	0xbb1d1974	-0.002397147
115	0x3bf7d268	0.007562924
116	0xbe07ff2f	-0.13280939
117	0xbe89c9c7	-0.26911756
118	0xbd37403f	-0.044739004
119	0xbd0f0d33	-0.034924697
120	0xbe0a1cce	-0.1348755
121	0x3cc24164	0.023712821
122	0xbd407fac	-0.046996757
123	0xbe16e4c0	-0.14735699
124	0x3d692c0d	0.056926776
125	0xbd90e65e	-0.07075189
126	0xbdcff052	-0.10153259
127	0xbd683d02	-0.056698807
128	0x3d1e78bf	0.03868937
129	0x3e2eb3a1	0.1706071
130	0x3dbfce76	0.09365551
131	0x3db06853	0.08613648
132	0x3d3ddd08	0.04635337
133	0xbd28f67f	-0.041250702
134	0xbe2d1564	-0.16902691
135	0xbda238eb	-0.079210125
136	0x3ccb2326	0.024797034
137	0x3d3cfcb0	0.04613942
138	0x3d5560e1	0.052094344
139	0x3de50672	0.1118287
140	0x3e3ee3db	0.18641607
141	0xbe5b946a	-0.21443334
142	0x3e03cbc0	0.12870693
143	0xbd181143	-0.037125837
144	0xbd98a35c	-0.07453033
145	0xbe21b644	-0.15792185
146	0x3db8008b	0.089844786
147	0x3c36b9f2	0.011152731
148	0xbc4e5f63	-0.012595984
149	0x3c924ca6	0.017858814
150	0xbcf0aad7	-0.029378338
151	0x3da12c4a	0.078697756
152	0x3d66ed07	0.05637839
153	0xbd7c98ac	-0.061669037
154	0xbd090f3a	-0.033461787
155	0x3d8b6856	0.0680701
156	0x3e6e600e	0.2327883
157	0xbdaee1fc	-0.08539197
158	0x3c8010da	0.015633035
159	0xbd133a67	-0.03594437
160	0xbdbd5c34	-0.09246102
161	0xbdb656f4	-0.08903304
162	0xbe1e373f	-0.15450762
163	0xbc457822	-0.012052568
164	0xbd81f968	-0.063463986
165	0x3c304b95	0.010760208
166	0x3e18cc58	0.14921701
167	0xbe8be343	-0.27321824
168	0xbbcebdee	-0.0063092625
169	0xbd46779c	-0.048453912
170	0xbe0095b1	-0.12557103
171	0x3e0b8355	0.13624318
172	0xbdb652ee	-0.08902536
173	0x3e1897a8	0.14901602
174	0x3d8c2a8e	0.06844054
175	0xbd2a7bfc	-0.041622147
176	0x3c37f19f	0.011227041
177	0xbce3366a	-0.027735908
178	0xbc0e57ca	-0.008687923
179	0xbcd41c9b	-0.025892546
180	0x3dba0297	0.09082525
181	0x3e5cda3d	0.21567626
182	0x3cdeb2e6	0.027184915
183	0xbdd396af	-0.10331475
184	0xbae8c483	-0.001775876
185	0x3e5263ce	0.20545885
186	0x3d66e03e	0.056366198
187	0xbda29c63	-0.07939985
188	0xbde10df1	-0.10988987
189	0xbd887184	-0.066622764
190	0xbd5d0472	-0.053959318
191	0x3cf20f48	0.029548302
192	0x3d76657f	0.060155388
193	0x3e11b8d7	0.14230667
194	0x3d332708	0.043738395
195	0x3e323d80	0.17406273
196	0x3cf44848	0.029819623
197	0xbdef306e	-0.11679159
198	0xbe3387e3	-0.17532305
199	0xbe018f17	-0.1265224
200	0x3bcc0eac	0.006227335
201	0xbab7f372	-0.0014034344
202	0xbcce25a9	-0.025164442
203	0xbcfa45ca	-0.030550856
204	0xbce2bc00	-0.027677536
205	0x3df32b0f	0.11873447
206	0x3d890821	0.066910036
207	0x3e517adc	0.20457023
208	0x3d602262	0.05472029
209	0x3e2fbcc8	0.17161858
210	0x3dba2cd3	0.09090581
211	0x3dbdabd0	0.09261286
212	0xbcac1f6f	-0.021011082
213	0xbd3159d4	-0.043298557
214	0x3d492aee	0.049113207
215	0xbe06daeb	-0.13169448
216	0x3d900c03	0.07033541
217	0x3dc7b35b	0.09751006
218	0xbe0412f6	-0.12897858
219	0x3d97741a	0.073951915
220	0xbd32a65f	-0.043615695
221	0xbbd42cbb	-0.006475059
222	0xbcdb8909	-0.026798742
223	0xbdbf53ed	-0.093421794
224	0x3da9bf6b	0.08288463
225	0xbd0fd224	-0.035112515
226	0xbd326083	-0.043549072
227	0x3d20b05b	0.039230686
228	0x3e12f296	0.14350352
229	0x3d0feaac	0.03513591
230	0x3e385322	0.18000463
231	0xbd553cce	-0.05205994
232	0x3df85dec	0.12127289
233	0xbcf64e28	-0.030066565
234	0x3b4c43d8	0.0031168368
235	0xbea499d5	-0.32148615
236	0x3d43d09f	0.04780638
237	0xbe72577d	-0.23666187
238	0x3de24c41	0.110497005
239	0xbd9caad5	-0.07649771
240	0xbdece093	-0.11566272
241	0xbde861ee	-0.113468036
242	0x3d6b53d4	0.05745299
243	0x3d2c2fa3	0.042037617
244	0x3ddd0b61	0.10793186
245	0xbd7adca9	-0.061245594
246	0xbd7c8928	-0.06165424
247	0x3dde2b7c	0.10848138
248	0x3cfca5bb	0.030840745
249	0x3e123103	0.14276509
250	0x3e6b20b4	0.22961694
251	0xbdbd7c70	-0.0925225
252	0xbc7aa531	-0.015298174
253	0xbd897003	-0.06710818
254	0x3de685f1	0.11256016
255	0x3eb705d1	0.35746625

conv1.nn.0.bias f4 [16]
0	0x3e04bb50	0.12962079
1	0x3c21256a	0.00983558
2	0xbd20f912	-0.039300032
3	0x3e11be8d	0.14232846
4	0xbe472c65	-0.19450529
5	0x3dd1a723	0.10236957
6	0xbde73563	-0.112894796
7	0xbd5c6067	-0.053802874
8	0xbd0582be	-0.03259539
9	0xbdd0dcb7	-0.10198348
10	0xbdab36ab	-0.083600365
11	0x3daec2d1	0.08533252
12	0xbd33fd63	-0.04394282
13	0xbd117535	-0.035512168
14	0x3dfa150c	0.122110456
15	0xbe3829e7	-0.17984734

conv1.nn.2.weight f4 [16, 16]
0	0x3e8631ee	0.26209968
1	0x3c922087	0.017837776
2	0x3bf27d09	0.0074001593
3	0x3df52ee5	0.11971835
4	0x3e4ba6d7	0.19887863
5	0xbe617a81	-0.22019388
6	0x3e58ca2d	0.21170874
7	0xbe5e9884	-0.21737868
8	0x3d193be8	0.037410647
9	0x3d9afd78	0.075678766
10	0x3e1cead5	0.15323956
11	0x3e7ebfca	0.24877849
12	0x3d80af63	0.06283452
13	0xbdb0d7a4	-0.0863488
14	0x3e0dcfc5	0.13848789
15	0x3c16300a	0.009166727
16	0x3e11efa6	0.14251575
17	0x3de8cfbd	0.11367748
18	0xbc762579	-0.015023583
19	0x3e4cfece	0.20019075
20	0xbdc63f3e	-0.09680031
21	0xbe2437a8	-0.16036856
22	0x3dfd4577	0.12366765
23	0x3e68b590	0.2272551
24	0x3cf8b716	0.03036074
25	0x3d413ec9	0.047179017
26	0xbe0fc3b0	-0.14039493
27	0xbcda56a8	-0.026652649
28	0x3d55dd9c	0.052213296
29	0x3d4cad53	0.049969982
30	0x3e14081e	0.14456221
31	0x3e88cd60	0.2671919
32	0xbdd15228	-0.10220748
33	0x3e5ede83	0.21764569
34	0xbce2c9ec	-0.027684174
35	0x3e5c2df1	0.215019
36	0x3e027711	0.12740733
37	0xbe9858a0	-0.29755116
38	0x3e07ff16	0.13280901
39	0xbc5c5917	-0.013448975
40	0xbda3bb2e	-0.07994686
41	0x3e21f3bc	0.15815634
42	0xbe122b17	-0.1427425
43	0xbe01bf54	-0.12670642
44	0xbd88db22	-0.06682421
45	0x3dabffe1	0.083984144
46	0xbd6b1ac4	-0.057398573
47	0xbcea53a8	-0.028604344
48	0x3e229972	0.15878847
49	0xbd77ce33	-0.06049938
50	0x3c0f521e	0.008747606
51	0xbeb59ff5	-0.354736
52	0x3d0c203d	0.034210432
53	0xbe3c3182	-0.1837826
54	0xbdb940ad	-0.09045539
55	0xbd3f72c0	-0.046740294
56	0x3cc500d3	0.024048245
57	0xbe46437d	-0.19361682
58	0xbe7a7f3d	-0.244626
59	0xbe717f41	-0.235837
60	0x3d8f2d51	0.06991065
61	0x3df468f9	0.119340844
62	0xbe3fd74d	-0.18734474
63	0x3d708a4f	0.05872565
64	0x3e3632c5	0.17792805
65	0x3e0b0bbd	0.13578697
66	0x39aebb40	0.00033327378
67	0xbda42f99	-0.08016891
68	0xbe7bca96	-0.24588999
69	0xbeb99b01	-0.3625107
70	0xbd56aa8f	-0.05240875
71	0xbd90aab1	-0.07063807
72	0xbd8ec2a2	-0.06970717
73	0x3e202610	0.1563952
74	0xbd9625b1	-0.07331408
75	0xbd9cf12d	-0.07663188
76	0x3c4c0750	0.012452915
77	0xbdad3fbe	-0.084594235
78	0x3dd95810	0.106125
79	0xbe46ce84	-0.19414717
80	0xbe96de18	-0.2946632
81	0xbe90119e	-0.2813844
82	0x3d51a8be	0.051186316
83	0x3a573f16	0.00082109997
84	0x3da771ae	0.081759796
85	0xbe27485f	-0.16336201
86	0xbe59e89d	-0.21280141
87	0xbd879465	-0.06620101
88	0x3dbe2dce	0.0928608
89	0xbe464fcb	-0.19366376
90	0xbd0f8d14	-0.035046652
91	0xbe12c37b	-0.14332382
92	0xbd433a17	-0.04766282
93	0x3cbb4e79	0.022864567
94	0xbc340bb2	-0.0109891165
95	0x3e24f269	0.16108097
96	0xb68fe7b6	-4.288707e-06
97	0xbe040365	-0.1289192
98	0x36c83a23	5.9672325e-06
99	0xb65b3879	-3.2666414e-06
100	0x36a492f3	4.904688e-06
101	0xbb16e2a4	-0.0023023272
102	0x3dd5e5bb	0.10444208
103	0xbc81f572	-0.015864108
104	0x3d13cc2b	0.03608338
105	0x351659da	5.6010106e-07
106	0x3559658b	8.0986564e-07
107	0x3a5e1946	0.0008472394
108	0xbd800ef6	-0.062528536
109	0x34a16236	3.0060045e-07
110	0x3c825aea	0.015912492
111	0x36ecd7f4	7.0584883e-06
112	0xbe01eac0	-0.12687206
113	0x3dce9446	0.10086875
114	0xbc92a7c7	-0.017902268
115	0x3d89d22a	0.06729539
116	0x3db88e68	0.09011537
117	0x3ebbbdd5	0.36668268
118	0xbe74f1f7	-0.23920427
119	0xbdd4530d	-0.10367403
120	0xbbb77b6f	-0.005599431
121	0xbe2ab387	-0.16670047
122	0x3e87b0f4	0.26502192
123	0xbdb2c870	-0.08729637
124	0xbc21633d	-0.00985032
125	0x3c200787	0.00976742
126	0x3e942b8b	0.2893947
127	0x3e790f96	0.24322352
128	0xbe2a29aa	-0.16617456
129	0x3e563d4a	0.20921817
130	0x3d0ca3ee	0.034336023
131	0xbd0d1e18	-0.034452528
132	0x3e043fcd	0.12914963
133	0xbdba0c1f	-0.09084343
134	0x3e8578cf	0.26068732
135	0x3e147d3f	0.14500903
136	0x3cd7c4ba	0.026338924
137	0xbe0f66c4	-0.14004046
138	0x3e8d9bce	0.27657932
139	0xbdcadcda	-0.09905405
140	0xbbec0a76	-0.0072033955
141	0x3d01a136	0.031647883
142	0xbe5c2a07	-0.21500407
143	0x3df87203	0.12131121
144	0x3df4335e	0.1192386
145	0x3e37f110	0.17963052
146	0x3dec1790	0.11527932
147	0x3e53cc91	0.20683505
148	0x3e5c90be	0.2153959
149	0xbe2dc347	-0.16969024
150	0xbdcaa2f0	-0.09894359
151	0x3ca9ab46	0.020711552
152	0xbc79e10c	-0.015251409
153	0xbdfbef09	-0.12301452
154	0x3e158de3	0.14604907
155	0x3e324688	0.17409718
156	0x3e3ed3bc	0.18635458
157	0x3dd44505	0.10364727
158	0xbe081bad	-0.13291807
159	0xbd31ae5b	-0.04337917
160	0xbd9a39b0	-0.07530534
161	0x3c48b89d	0.0122510465
162	0xbb8d1931	-0.0043059816
163	0xbdee954c	-0.1164957
164	0xbe8a2286	-0.26979464
165	0x3e95437d	0.29153052
166	0xbda70ff1	-0.081573375
167	0x3e9901c2	0.29884154
168	0xbb7b97f1	-0.0038390125
169	0x3db2fde3	0.08739831
170	0x3e58b6f5	0.21163543
171	0x3d35a9bf	0.044351336
172	0x3dd698f9	0.10478396
173	0x3927a8b2	0.00015989205
174	0x3ea4ddb5	0.322004
175	0xbd7a1fcb	-0.061065476
176	0xbdf1ba72	-0.1180314
177	0xbcc55ba0	-0.024091542
178	0x3b2d0e7b	0.0026406336
179	0xbc0dacd1	-0.00864716
180	0xbdbde886	-0.09272866
181	0x3dac44d1	0.08411563
182	0x3ddddee5	0.108335294
183	0xbe030fab	-0.12798946
184	0xb5dd15b8	-1.6472104e-06
185	0xbd607e1d	-0.05480777
186	0xbd90d8be	-0.0707259
187	0x3def68c6	0.11689906
188	0x3aff9326	0.001949881
189	0x37804a44	1.5293372e-05
190	0xbef3c29f	-0.47609422
191	0x3beee9d8	0.00729106
192	0x3dfe3f7b	0.12414452
193	0xbe4e5465	-0.20149381
194	0x3ba89c17	0.0051455605
195	0x3e35622b	0.1771323
196	0x3df10211	0.11767972
197	0xbdf927a8	-0.12165767
198	0x3eb3ba8a	0.35103256
199	0x3d485119	0.048905466
200	0x3d3a3def	0.04546922
201	0x3d39863e	0.04529404
202	0x3d2d1eaf	0.04226559
203	0xbe2fa375	-0.17152198
204	0x392c4dba	0.00016432154
205	0xb6b4fc14	-5.393764e-06
206	0xbd35b9c2	-0.044366606
207	0x3e2a12f7	0.16608797
208	0xbd8b4202	-0.06799699
209	0xbe0379de	-0.12839457
210	0x3b8e1013	0.0043354123
211	0x3dfdcb73	0.123923205
212	0x3ba6546c	0.005075982
213	0xbe39fd94	-0.18163139
214	0x3e3e2a8b	0.18570916
215	0xbe926f5b	-0.28600582
216	0x3d88d092	0.06680407
217	0xbe02fe67	-0.1279236
218	0x3d8df3fe	0.069313034
219	0x3db4cdb3	0.088282965
220	0x3d4b78fe	0.049675934
221	0xbc85d756	-0.016338032
222	0xbeb1fa12	-0.347611
223	0xbc22efb0	-0.009944841
224	0xbe1e4949	-0.15457644
225	0xbd3d0583	-0.046147835
226	0xbd194019	-0.037414644
227	0x3caefba6	0.02136023
228	0x3dfb4f8a	0.1227103
229	0x3c5bdb92	0.013419049
230	0x3e106e1f	0.14104508
231	0xbe5bfa87	-0.21482287
232	0xbaf85d41	-0.001894869
233	0xbe0a82db	-0.1352648
234	0x3c6337a4	0.013868246
235	0xbdcc3e86	-0.09972863
236	0x3dc6d189	0.097079344
237	0x3c3ab516	0.011395713
238	0x3dd6596f	0.10466277
239	0x3dd85515	0.10563103
240	0xbdc188a5	-0.09449891
241	0x3e305272	0.1721895
242	0xbdb7dce2	-0.08977677
243	0x3e01732e	0.12641594
244	0xbe80c6dd	-0.2515172
245	0xbdc4ac1e	-0.09603141
246	0xbe00fcc2	-0.1259642
247	0xbea1c9a2	-0.31599146
248	0xbe11af72	-0.14227083
249	0xbe45898e	-0.19290754
250	0xbe10d3db	-0.14143316
251	0xbdf84a6b	-0.12123569
252	0x3cb2bce4	0.021818586
253	0x3c72fd60	0.014830917
254	0x3dc3d578	0.095622
255	0xbd303039	-0.04301474

conv1.nn.2.bias f4 [16]
0	0x3db51b19	0.08843059
1	0xbd3270c9	-0.04356459
2	0x3e08135c	0.13288635
3	0x3dd706d7	0.104993515
4	0xbd24edd8	-0.040265888
5	0x3e122912	0.1427348
6	0xbe432d12	-0.19060162
7	0x3e5fbae4	0.21848637
8	0x3daa6aaa	0.08321126
9	0x3e402b9d	0.18766637
10	0x3c9d0fcb	0.01917257
11	0x3d9b08a0	0.075700045
12	0xbde845ec	-0.113414615
13	0x3eb1af64	0.34704125
14	0xbe5c4b95	-0.21513207
15	0x3dc7e93a	0.09761281

conv1.nn.4.weight f4 [16]
0	0x3f6b8670	0.9200201
1	0x3f378c79	0.7169872
2	0x3f350542	0.7071115
3	0x3f882285	1.0635535
4	0x3f3f6374	0.7476113
5	0x3f7476bf	0.9549369
6	0x3d66b9aa	0.056329407
7	0x3f83caba	1.0296242
8	0x3f4d064c	0.80087733
9	0x3f5567a7	0.83361286
10	0x3f33ebb5	0.70281535
11	0x3f3e81fd	0.74417096
12	0x3f098be5	0.5372909
13	0x3f56ffd8	0.83984137
14	0x3f3d99be	0.74062717
15	0x3f660e49	0.8986555

conv1.nn.4.bias f4 [16]
0	0x3eaf264f	0.34208915
1	0xbd4b5a6f	-0.04964679
2	0xbd9e3855	-0.07725588
3	0x3e49895a	0.19681302
4	0xbdef86bf	-0.11695623
5	0xbafcfe4c	-0.0019301861
6	0xbd9082d9	-0.07056207
7	0x3ea76eb6	0.32701653
8	0x3d9fd5c9	0.07804448
9	0x3e2b04be	0.16701028
10	0x3eca3f34	0.39501345
11	0x3dd9818f	0.106204145
12	0xbc4fd170	-0.012684211
13	0x3e2732ac	0.16327924
14	0xbb7faf44	-0.0039014379
15	0x3dd7f5b1	0.10544909

conv1.nn.4.running_mean f4 [16]
0	0x3e232bed	0.15934725
1	0x3e4aba60	0.19797659
2	0x3e40d54d	0.18831368
3	0x3cbec8f7	0.023289187
4	0x3d2bf400	0.041980743
5	0x3c47bc9d	0.012190965
6	0x260d403d	4.900626e-16
7	0x3e0fb3c9	0.14033426
8	0x3dd5516b	0.1041592
9	0x3e81542f	0.2525954
10	0x3e451982	0.19248012
11	0x3c836b71	0.016042443
12	0x3d1c79b6	0.03820201
13	0x3e2f3cea	0.1711308
14	0x2d86680e	1.5280246e-11
15	0x3c20dd4b	0.009818385

conv1.nn.4.running_var f4 [16]
0	0x3d0623e8	0.032749087
1	0x3dc55de5	0.096370496
2	0x3d7698e3	0.060204398
3	0x3a995b34	0.0011700154
4	0x3c3c2aa6	0.011484778
5	0x3a13ac9c	0.0005633326
6	0x3041ed6d	7.0550393e-10
7	0x3bddebcc	0.006772494
8	0x3cac7835	0.021053413
9	0x3ce93bf7	0.028470976
10	0x3d6dc90d	0.058053065
11	0x39dcd98d	0.00042123758
12	0x3cf30ca7	0.029669119
13	0x3c3f7c2c	0.01168732
14	0x3043b2c1	7.119461e-10
15	0x39daae80	0.00041710213

conv2.nn.0.weight f4 [16, 16]
0	0x3ea30e71	0.31846955
1	0x3c9689d1	0.018376263
2	0xbc949483	-0.018137222
3	0xbe0d4374	-0.13795263
4	0xbe3183a8	-0.17335379
5	0xbeb0af58	-0.34508777
6	0xbcafce29	-0.02146061
7	0x3e1755c0	0.14778805
8	0x3c898cd2	0.016790781
9	0x3e8de762	0.27715594
10	0xbbbbab0e	-0.0057271784
11	0x3e39d109	0.18146147
12	0x3e03bb71	0.12864472
13	0x3da20f63	0.07913091
14	0x3d79b5b9	0.06096432
15	0x3e10ba9c	0.14133686
16	0x3e3cad40	0.18425465
17	0x3d987c4c	0.07445583
18	0xbd0caade	-0.03434264
19	0x3e3962ed	0.18104143
20	0x3e548dc1	0.207572
21	0x3dcf150d	0.10111437
22	0x3dbb5d13	0.09148612
23	0xbd5da507	-0.05411246
24	0xbe53844c	-0.20655936
25	0x3e07fe18	0.13280523
26	0xbe11e5f8	-0.14247882
27	0x3e405ed0	0.18786168
28	0xbdc2ec02	-0.09517671
29	0x3dc6b4ac	0.09702429
30	0x3d22f650	0.039785683
31	0x3e4dc5c3	0.20094971
32	0xbe03668f	-0.12832092
33	0x3db7e323	0.0897887
34	0x3de406cd	0.1113411
35	0x3e719018	0.23590124
36	0x3e2dc11a	0.16968194
37	0x3e361721	0.1778226
38	0x3ce7aa3c	0.028279416
39	0xbe9179ab	-0.28413138
40	0x3d55db1b	0.05221091
41	0x3b5c7118	0.0033636745
42	0xbdf5444c	-0.11975917
43	0xbd472543	-0.04861952
44	0xbc982803	-0.018573767
45	0xbe57861a	-0.2104725
46	0xbdbb15e4	-0.09135035
47	0x3e7d742c	0.24751347
48	0xbe4c1873	-0.19931202
49	0xbe0135fc	-0.1261825
50	0xbca13905	-0.01968051
51	0x3eb40d69	0.3516648
52	0x3e039148	0.12848389
53	0x3c845dd4	0.016158022
54	0xbce6fcd7	-0.028196735
55	0x3e01ebb4	0.1268757
56	0xbe31e263	-0.17371516
57	0x3ccfa8b7	0.025349004
58	0xbd6839a6	-0.056695603
59	0xbcb21b1a	-0.021741439
60	0x3e0ec036	0.1394051
61	0x3cc0d290	0.023537904
62	0xbd4fbb15	-0.050715525
63	0xbb8e1d2e	-0.0043369746
64	0x3d9bd4a5	0.07608918
65	0xbdd1654d	-0.102244
66	0x3e0ad311	0.13557078
67	0x3e59429b	0.21216814
68	0x3e154ca8	0.14580023
69	0x3cec3202	0.02883244
70	0xbd12c0f8	-0.03582856
71	0xbe02438e	-0.12721083
72	0x3dfb060b	0.12257012
73	0xbec546aa	-0.38530475
74	0xbe19ba01	-0.15012361
75	0xbe18e28c	-0.14930171
76	0xbe92421f	-0.2856607
77	0xbdc7c58d	-0.09754477
78	0xb94140c0	-0.00018430036
79	0xbe4a2dfa	-0.19744101
80	0xbe383a78	-0.17991054
81	0xbd35fc1f	-0.044429895
82	0x3ce61322	0.028085295
83	0x3e0634a5	0.1310602
84	0x3c2dae9a	0.01060071
85	0xbe48418a	-0.19556251
86	0x3d49d533	0.04927559
87	0x3e059ae3	0.13047366
88	0xbdda493a	-0.10658498
89	0x3d85aac1	0.06526709
90	0x3d18887a	0.03723953
91	0xbe921731	-0.2853332
92	0x3e3c6387	0.18397342
93	0xbe865b3b	-0.26241478
94	0x370aba9e	8.268891e-06
95	0x3cc4e162	0.024033252
96	0xbcc13f93	-0.023589885
97	0xbc244975	-0.010027279
98	0x3e07f602	0.13277438
99	0x3ce1f2ff	0.02758169
100	0x3df5ac54	0.119957596
101	0xbe59b907	-0.21261989
102	0xbd4fc84b	-0.050728124
103	0x3e316d04	0.17326742
104	0xbe30a415	-0.17250092
105	0x3cbedc1c	0.023298316
106	0x3e4b6f70	0.19866729
107	0xbe7d7607	-0.24752055
108	0xbd9acb49	-0.07558305
109	0xbe5e9b32	-0.2173889
110	0x3c7815ee	0.015141947
111	0xbe46d1d6	-0.19415984
112	0x3d5810c7	0.052750375
113	0xbddfa72c	-0.109205574
114	0xbd5e8ca2	-0.054333337
115	0xbe39d1dd	-0.18146463
116	0xbe83d030	-0.25744772
117	0xbe987df3	-0.29783592
118	0xbc5b4e83	-0.013385418
119	0x3e590202	0.21192172
120	0xbe3f98f7	-0.18710695
121	0x3e4f8842	0.20266822
122	0xbc512d91	-0.0127672115
123	0xbdb2389e	-0.08702205
124	0xbd96e5d3	-0.07368054
125	0x3bbb5092	0.005716392
126	0x3de88567	0.113535695
127	0xbe7a14bf	-0.24421977
128	0x3c6832cc	0.014172267
129	0xbe3ddfb9	-0.18542375
130	0x3d452ef0	0.048140466
131	0x3e79f1cd	0.24408646
132	0xbc50b478	-0.01273834
133	0x3dcaa798	0.09895247
134	0xbd98d77f	-0.074629776
135	0x3e99ca54	0.30037177
136	0xbe3f3cf6	-0.18675599
137	0xbe15da22	-0.14633992
138	0x3dd3d794	0.10343853
139	0xbd596f50	-0.05308467
140	0x3da451fc	0.0802345
141	0x3e0e939b	0.13923495
142	0x3e37b0c1	0.1793852
143	0xbe159b20	-0.14609957
144	0xbe02c66a	-0.12771001
145	0xbde6a3f7	-0.112617426
146	0xbe5625a3	-0.20912795
147	0x3e0f8709	0.14016356
148	0xbd69050b	-0.056889575
149	0x3ecc4bee	0.3990168
150	0xbd0cf02d	-0.034408737
151	0xbe883db1	-0.26609567
152	0x3e37e615	0.17958863
153	0xbe108703	-0.14114003
154	0xbe19a0f4	-0.15002805
155	0xbd7ae2e5	-0.06125154
156	0x3e3a9475	0.18220694
157	0x3d094e79	0.033522103
158	0x3d42a199	0.047517393
159	0x3e22b029	0.15887512
160	0x3d385794	0.045005396
161	0x3dd4569e	0.103680834
162	0x3e349b00	0.17637253
163	0xbe5b36c7	-0.21407615
164	0xbd1a2e50	-0.037641823
165	0xbdcaf8d3	-0.09910741
166	0x3bf6e5ae	0.007534704
167	0x3e738f9f	0.23785256
168	0xbdd255cc	-0.10270271
169	0x3dbff0f6	0.093721315
170	0x3d4a5efb	0.049406987
171	0x3c5f598e	0.013632191
172	0xbe091d4d	-0.13390084
173	0xbd8e3c2c	-0.069450706
174	0xbe1712f4	-0.14753324
175	0x3e051631	0.12996747
176	0xbda868bf	-0.08223104
177	0xbd4559de	-0.048181407
178	0x3d6581fd	0.05603217
179	0xbe3e3022	-0.18573049
180	0x3d947d03	0.072504066
181	0xbe17d8c8	-0.14828789
182	0xbcc14206	-0.023591053
183	0x3ef9b7cc	0.48773038
184	0xbac8ae89	-0.0015310805
185	0x3e5bf79b	0.21481173
186	0xbbe350c8	-0.00693712
187	0xbe467c55	-0.19383366
188	0x3e182279	0.148569
189	0xbeeafad0	-0.4589448
190	0x3d9bcf28	0.07607871
191	0xbe482ce8	-0.1954838
192	0x3e160eda	0.14654103
193	0xbbcbc7ca	-0.006218885
194	0xbd5fb313	-0.054614138
195	0xbd279803	-0.040916454
196	0xbd158e0b	-0.036512416
197	0x3eaef462	0.34170824
198	0xbd49636e	-0.04916709
199	0x3d181502	0.03712941
200	0x3e5f53c3	0.21809296
201	0x3e9ba66b	0.30400404
202	0xbd2c9b46	-0.042140268
203	0x3ddda385	0.108222045
204	0xbe24b49f	-0.16084526
205	0xbd6fb6b0	-0.058523834
206	0x3e49a955	0.19693501
207	0xbca1d6a0	-0.019755661
208	0xbe4a7665	-0.19771726
209	0xbe0134c4	-0.12617785
210	0xbd957c98	-0.07299155
211	0x3d82aacc	0.06380233
212	0x3d56e3c1	0.052463297
213	0x3eab9a4d	0.3351616
214	0x3d8d855e	0.069102034
215	0xbcaa94c8	-0.020822898
216	0xbed3595e	-0.4127912
217	0xbd94cfd2	-0.07266201
218	0xbc21ccce	-0.009875489
219	0xbd574c6c	-0.052563116
220	0xbdc67de6	-0.09691982
221	0xbd9f12ec	-0.07767281
222	0x375e86be	1.3263603e-05
223	0x3db8a69a	0.09016152
224	0xbe7b33db	-0.245315
225	0x3e67446b	0.22584693
226	0x3e40a08a	0.18811241
227	0xbeb3e205	-0.35133377
228	0xbda52d32	-0.08065261
229	0x3e1f1d83	0.15538602
230	0x3c47165d	0.012151328
231	0x3e738d5f	0.23784398
232	0xbd4c9caa	-0.049954094
233	0xbe11d557	-0.14241539
234	0x3e022090	0.12707734
235	0xbe05bfdf	-0.13061474
236	0x3e0189cf	0.12650226
237	0xbe474d46	-0.19463071
238	0x3e15e203	0.14636998
239	0xbeaef662	-0.3417235
240	0xbd51e92c	-0.05124776
241	0x3e1dced3	0.15410928
242	0x3e24aed7	0.16082321
243	0xbe28198d	-0.16415997
244	0xbe3f9e4c	-0.18712729
245	0x3d846580	0.06464672
246	0xbd5bd472	-0.0536694
247	0xbd9fca33	-0.07802238
248	0xbe2d7107	-0.16937648
249	0xbe1881d7	-0.1489328
250	0x3d0efec9	0.03491095
251	0x3e2e6a87	0.17032824
252	0xbda5f9c8	-0.081042826
253	0x3d7d1a5b	0.061792713
254	0xb4fbee24	-4.6925663e-07
255	0x3e448d99	0.1919464

conv2.nn.0.bias f4 [16]
0	0x3d61ad4a	0.055096902
1	0x3e4fbd88	0.20287144
2	0x3f05fc5a	0.5233818
3	0x3df5dccf	0.120050065
4	0x3eb85a19	0.3600624
5	0x3f027328	0.50956964
6	0xbdccbf8b	-0.099974714
7	0x3e35eaf7	0.17765413
8	0x3e05546b	0.13020484
9	0x3e835432	0.25650173
10	0x3e50330b	0.20331971
11	0x3db6dcf3	0.089288615
12	0xbea0b1e9	-0.31385735
13	0x3cfafc18	0.030637786
14	0x3e648f48	0.22320282
15	0x3eca78ae	0.39545196

conv2.nn.2.weight f4 [16, 16]
0	0x3d7aa100	0.061188698
1	0x3e5986f8	0.21242893
2	0x3e862c70	0.26205778
3	0x3e0f42a0	0.13990259
4	0x3d86d45e	0.065834746
5	0xbc9df532	-0.019281957
6	0xbd6abf56	-0.05731138
7	0x3e652d7b	0.2238063
8	0x3dfde243	0.123966716
9	0x3ec417d5	0.38299432
10	0xbded1238	-0.115757406
11	0x3e002fdc	0.12518257
12	0xbe144961	-0.14481117
13	0x3cfae3aa	0.030626137
14	0x3ceac490	0.028658181
15	0x3cd40007	0.02587892
16	0xbe8986a0	-0.26860523
17	0xbc1bc53d	-0.0095074745
18	0x3e7556e4	0.23958927
19	0x3df2043a	0.118172124
20	0x3e4b95a0	0.19881296
21	0x3d3679f5	0.0445499
22	0xbce9eff6	-0.028556805
23	0x3d78e5c3	0.060765993
24	0x3d0dfeb8	0.034666747
25	0x3e0ac351	0.1355107
26	0xbe2cbb66	-0.16868362
27	0xbe2e9b1d	-0.17051359
28	0xbdc952cc	-0.098302454
29	0x3e85b12d	0.26111737
30	0xbe23f0a5	-0.16009767
31	0xbdec819b	-0.11548158
32	0x3e57543f	0.21028231
33	0x3cc07c53	0.023496782
34	0x3e08d07e	0.13360783
35	0xbe213739	-0.15743722
36	0xbd0481fe	-0.032350533
37	0xbc142584	-0.009042148
38	0xbebfd441	-0.37466624
39	0xbe1463ad	-0.14491148
40	0x3bc7a1e3	0.0060922964
41	0x3e92a037	0.2863786
42	0x3e47693a	0.19473734
43	0xbe36a677	-0.17836939
44	0x3db755ef	0.089519374
45	0x3e5288bf	0.20559977
46	0xbda0f8b5	-0.07859937
47	0xbbc0f5f0	-0.005888693
48	0xbec1b125	-0.37830463
49	0xbe93972f	-0.2882628
50	0x3db6dcb3	0.08928814
51	0xbe136c4b	-0.14396779
52	0x3db279be	0.08714627
53	0x3d868115	0.06567589
54	0xbe6ab1bb	-0.22919361
55	0x3e03218e	0.12805769
56	0x3d8f8b1f	0.07008957
57	0xbe7ffed5	-0.24999554
58	0x3cb09693	0.021556174
59	0xbe76638f	-0.24061416
60	0xbe28e337	-0.16492926
61	0x3dc8eb96	0.098105595
62	0x3dc29ff6	0.095031664
63	0x3e4cf038	0.20013511
64	0x3e496496	0.19667277
65	0xbbb2f672	-0.0054615075
66	0xbd81b551	-0.063334115
67	0xbd41f923	-0.047356736
68	0x3ba75006	0.005105975
69	0xbdc9f0e9	-0.09860403
70	0xbe47fdf5	-0.1953047
71	0x3e1f9841	0.15585424
72	0xbe04c240	-0.12964725
73	0xbd028e82	-0.031874187
74	0x3e07095f	0.13187169
75	0x3db84aab	0.08998617
76	0x3e0f85a5	0.14015825
77	0xb9666b8c	-0.00021974574
78	0x3d769b6d	0.06020682
79	0xbd421d7c	-0.0473914
80	0xbd52a3fd	-0.051425923
81	0xbd0ea2cc	-0.034823224
82	0xbe4943b1	-0.19654728
83	0x3d737011	0.059433047
84	0xbda7f5d6	-0.08201186
85	0xbe0f6b21	-0.1400571
86	0x3c290503	0.010316136
87	0x3d90ae8f	0.070645444
88	0x3d2565ba	0.040380217
89	0x3e846c6c	0.2586397
90	0xbe77e34c	-0.242078
91	0x3d8cdbae	0.06877838
92	0xbdcc3010	-0.09970105
93	0x3c667fd8	0.014068566
94	0xbeb1db06	-0.34737414
95	0xbd9dd21f	-0.07706093
96	0xbe804ad9	-0.25057104
97	0x3e023216	0.12714419
98	0x3e291aa5	0.1651407
99	0x3e46d35c	0.19416565
100	0xbda2229e	-0.07916759
101	0x3e0bc17d	0.13648029
102	0xbcbc593d	-0.02299177
103	0x3e413e9c	0.1887154
104	0x3c8a9a6d	0.01691934
105	0x3e415d6e	0.18883297
106	0xbe733095	-0.23749001
107	0xbe13774a	-0.14400974
108	0x3ba589cd	0.0050518275
109	0x3b8fc204	0.004387142
110	0xbda977ca	-0.08274801
111	0xbe45a157	-0.19299828
112	0x3e1c8c8e	0.15287992
113	0x3e3fd477	0.18733393
114	0x3e3fd6bd	0.1873426
115	0x3deec4b8	0.11658615
116	0xbb1bcc4a	-0.0023772889
117	0x3d910b02	0.07082178
118	0xbe61fbc1	-0.22068693
119	0x3e1644d4	0.14674693
120	0xbc817c98	-0.015806481
121	0x3e79c7bb	0.24392597
122	0x3ce9ac48	0.028524533
123	0x3e1b261c	0.15151256
124	0xbe6bafbc	-0.23016256
125	0xbe05f186	-0.13080415
126	0x3e0c4059	0.13696422
127	0xbd9d8cbb	-0.07692858
128	0xbdbae847	-0.09126335
129	0xbd801bf9	-0.06255335
130	0x3e2f84a8	0.17140448
131	0xbbed39e0	-0.0072395653
132	0x3e583d99	0.21117248
133	0x3d1bf7f9	0.038078282
134	0xbe3cdb82	-0.1844311
135	0xbc23ced5	-0.009998043
136	0xbe25984e	-0.16171381
137	0x3e28db46	0.16489896
138	0xbd96e570	-0.073679805
139	0xbe1097ae	-0.14120361
140	0xbd915783	-0.0709677
141	0x3d9a4e13	0.07534423
142	0xbeb5c68e	-0.35503048
143	0x3e29fce4	0.16600376
144	0x3e47e35f	0.19520329
145	0xbe3aa550	-0.18227124
146	0xbe3e7d68	-0.18602526
147	0xbd6bdb43	-0.05758215
148	0x3e5b0314	0.21387893
149	0xbdde000d	-0.108398534
150	0xbd844979	-0.06459326
151	0xbdb77518	-0.08957881
152	0x3c94a286	0.018143903
153	0xbce73138	-0.028221712
154	0xbdac0741	-0.08399821
155	0x3e3b5617	0.1829456
156	0xbda0e55c	-0.07856247
157	0x3d13f472	0.036121793
158	0xbddf50d6	-0.1090409
159	0xbd36e0c6	-0.044647954
160	0xbe0ebdf7	-0.13939653
161	0xbe32b595	-0.1745208
162	0x3e822c7f	0.25424573
163	0x3dacfd76	0.08446781
164	0x3e9584e2	0.29202944
165	0x3c9cc703	0.019137865
166	0x3ca1cc18	0.01975064
167	0xbe945e6f	-0.28978297
168	0xbe3d13a9	-0.18464531
169	0xbce166f7	-0.027514918
170	0xbe0d2090	-0.13781953
171	0xbe24c492	-0.1609061
172	0x3e0661ff	0.1312332
173	0x3d0a75ac	0.033803627
174	0xbd461ca6	-0.048367165
175	0xbdf6d41c	-0.120521754
176	0x3e26d9fb	0.1629409
177	0xbdcf8fd6	-0.101348564
178	0xbe66c323	-0.22535376
179	0x387ee5c0	6.077229e-05
180	0x3d7617a0	0.060081124
181	0xbcfceb1e	-0.030873831
182	0x3bfa00c5	0.0076294863
183	0xbd6fd779	-0.0585551
184	0xbdc02af5	-0.093831934
185	0xbc2838fc	-0.010267492
186	0x3e5c4807	0.21511851
187	0x3e907801	0.28216556
188	0xbdf88685	-0.121350326
189	0x3d751941	0.059838537
190	0x3d895bc5	0.06706957
191	0x3e1f3994	0.15549308
192	0x3d955da8	0.07293254
193	0xbe6cc279	-0.2312106
194	0xbea49da7	-0.3215153
195	0x3e132bf1	0.14372231
196	0xbe5f945f	-0.21833943
197	0x3e544327	0.20728742
198	0x3d25f154	0.04051335
199	0x3e090ad1	0.13383032
200	0xbdcddd13	-0.10051932
201	0xbe673e1f	-0.22582291
202	0x3dd136bd	0.102155186
203	0x3e7f41c6	0.24927434
204	0x3d33a8dc	0.04386221
205	0xbbb5ca43	-0.005547793
206	0x3c08c4d4	0.008347709
207	0xbe40ab95	-0.18815453
208	0x3d8d2def	0.06893527
209	0xbe4743a0	-0.1945939
210	0x3ce02890	0.027363092
211	0xbe02dab2	-0.12778738
212	0xbdc77412	-0.097389355
213	0xbdb3027a	-0.08740707
214	0xbd921d22	-0.07134463
215	0xbb993b5b	-0.004676265
216	0x3e32e7ab	0.17471187
217	0xbe04fb6f	-0.1298654
218	0xbb8156a0	-0.003947094
219	0x3e43e41f	0.1912999
220	0x3e470a3a	0.19437495
221	0xbd4e9fbe	-0.05044531
222	0x3ea66343	0.32497606
223	0xbe983efa	-0.29735547
224	0x3e59453f	0.21217822
225	0x3d3a7a60	0.045526862
226	0x3db8c850	0.090225816
227	0xbe9f40ca	-0.31104118
228	0xbe186a17	-0.1488422
229	0xbecf3d6d	-0.40476552
230	0xbd80c5d0	-0.0628773
231	0xbea8cf89	-0.32970837
232	0xbe5d3c86	-0.21605119
233	0xbe2562c8	-0.16150963
234	0x3c6b9c71	0.01438056
235	0xbe32459d	-0.17409368
236	0xbdc3d713	-0.095625065
237	0xbeee1d92	-0.46506935
238	0xbdb9c512	-0.09070791
239	0x3e95f862	0.29291064
240	0xbd524615	-0.051336367
241	0xbdf6031a	-0.1201231
242	0xbe090baa	-0.13383356
243	0x3de0ae1d	0.109707095
244	0xbd5f988f	-0.05458885
245	0xbe444e63	-0.19170527
246	0xbddd43da	-0.10803957
247	0xb5832f25	-9.773981e-07
248	0xbe03e133	-0.12878875
249	0xbd0f65f4	-0.03500934
250	0xbdf12b44	-0.117758304
251	0xbd857ab0	-0.065175414
252	0x3bb0efec	0.0053996947
253	0x3d0aa0b4	0.033844665
254	0xbd1ea14f	-0.038728055
255	0xb708cf1e	-8.154455e-06

conv2.nn.2.bias f4 [16]
0	0x3c8fad50	0.017538697
1	0x3ec985a8	0.39359784
2	0x3d1e0211	0.03857619
3	0x3e86ec94	0.2635237
4	0xbafa0413	-0.00190747
5	0x3ea2a50e	0.31766552
6	0xbd2e75e3	-0.042592894
7	0xbc9f0fd0	-0.01941672
8	0x3ef5841f	0.47952363
9	0xbe7b54e5	-0.24544103
10	0x3ef21d48	0.47287965
11	0xbc63d19e	-0.013904957
12	0x3eb5b68a	0.3549083
13	0xbe47fcfe	-0.19530103
14	0x3f2f2471	0.6841498
15	0x3d23f48f	0.04002815

conv2.nn.4.weight f4 [16]
0	0x3ec94190	0.39307833
1	0x3f575894	0.84119534
2	0x3f5d12d3	0.8635685
3	0x3f3da4a8	0.7407937
4	0x3f62e800	0.88635254
5	0x3efbc380	0.49172592
6	0x3f2b43e6	0.6690048
7	0x3f022c4c	0.5084884
8	0x3f4c287d	0.7974928
9	0x3f58927c	0.8459852
10	0x3f3b9cb6	0.73285997
11	0x3f538d2c	0.82637286
12	0x3f3e8b2f	0.7443113
13	0x3f5a9708	0.85386705
14	0x3f74d2d0	0.95634174
15	0x3e1739ed	0.1476819

conv2.nn.4.bias f4 [16]
0	0xbcb464e8	-0.022020772
1	0x3e9a555f	0.30143258
2	0xbd9bbc29	-0.07604248
3	0x3d85eeab	0.06539663
4	0xbd723a34	-0.059137538
5	0x3e21aebb	0.1578931
6	0xbe673161	-0.2257743
7	0x3dcc974f	0.09989797
8	0x3ebcbf1e	0.3686456
9	0xbe666cf9	-0.22502507
10	0x3e95ca6a	0.29255992
11	0x3e23f9f8	0.16013324
12	0x3f07e974	0.53090596
13	0xbe335488	-0.17512715
14	0x3f11e5ce	0.5699128
15	0xbae3b74c	-0.0017373352

conv2.nn.4.running_mean f4 [16]
0	0x3f8fed1c	1.1244235
1	0x3ee29eef	0.44261882
2	0x3f824942	1.0178607
3	0x3c847195	0.016167441
4	0x3f869aac	1.0515952
5	0x3dd3478d	0.103163816
6	0x3ec14ec7	0.37755415
7	0x3f8bc860	1.0920525
8	0x3e7dd963	0.24789958
9	0x3e64f35a	0.22358456
10	0x3e3b7042	0.18304542
11	0x3f6b921a	0.9201981
12	0x3f5ec6d7	0.87022156
13	0x3f6a357e	0.9148787
14	0x3f1bb145	0.60817367
15	0x31a81d4d	4.8927746e-09

conv2.nn.4.running_var f4 [16]
0	0x3ffce38f	1.9756945
1	0x3f18f767	0.59752506
2	0x412fc9b0	10.98674
3	0x3b7d8791	0.003868554
4	0x41987940	19.059204
5	0x3d31f685	0.04344799
6	0x3f2bdd2f	0.67134374
7	0x406038c0	3.5034637
8	0x3dbf6d4e	0.0934702
9	0x4012256e	2.2835345
10	0x3d903d5d	0.07042954
11	0x41050db0	8.315842
12	0x40d221e1	6.5666356
13	0x41190c7d	9.565549
14	0x3feea239	1.8643256
15	0x30511466	7.6062745e-10

conv3.nn.0.weight f4 [16, 16]
0	0xbcc96cb2	-0.024587963
1	0xbd4e61e7	-0.050386336
2	0x3d8dea4e	0.06929456
3	0x3db903af	0.09033906
4	0x3e2cff89	0.16894354
5	0xbe4f0198	-0.20215452
6	0x3e45c9d6	0.19315276
7	0xbd370949	-0.04468659
8	0x3d95f112	0.07321371
9	0x3e08d060	0.13360739
10	0x3de82f0b	0.11337098
11	0xbe3c69c4	-0.18399721
12	0x3dfaa76b	0.12238964
13	0xbe728b1d	-0.2368588
14	0x3e505e52	0.2034848
15	0x3d7fe13b	0.062470656
16	0xbca898dd	-0.020580703
17	0x3e8f36a0	0.27971363
18	0xbdd32d67	-0.10311394
19	0xbdca70ae	-0.09884773
20	0xbe067592	-0.13130787
21	0x3e429a4a	0.19004169
22	0x3db2bb34	0.087271124
23	0xbd97ec2f	-0.07418095
24	0x3dfa121d	0.12210486
25	0x3daf1186	0.08548264
26	0xbdf32915	-0.1187307
27	0x3d046467	0.032322314
28	0x3c6b277a	0.014352674
29	0xbd9b514a	-0.07583864
30	0xbea9fc5a	-0.3320034
31	0xbc2a6a35	-0.010401298
32	0x3d1b654f	0.037938412
33	0x3d77c392	0.060489245
34	0x3e5a5eea	0.2132527
35	0xbd86ca28	-0.06581527
36	0xbd69008f	-0.0568853
37	0x3c1caa3f	0.009562074
38	0xbd54fd0c	-0.051999137
39	0xbe5ccb89	-0.21562018
40	0x3e2ac387	0.1667615
41	0xbc9383a7	-0.018007113
42	0x3dfce3d3	0.123481415
43	0x3defee58	0.11715382
44	0x3e323795	0.17404015
45	0xbe4be9f0	-0.19913459
46	0xbef6ca7a	-0.48201352
47	0x3de8ca28	0.11366683
48	0xbe2dff53	-0.1699193
49	0xbe3491bc	-0.17633718
50	0xbdc987de	-0.09840368
51	0xbe4e49d0	-0.20145345
52	0x3dfb774b	0.12278613
53	0x3e2247de	0.15847728
54	0x3e562006	0.20910653
55	0xbd4dbee0	-0.05023086
56	0xbe84478d	-0.2583584
57	0x3e3e5de2	0.18590501
58	0xbe7356e4	-0.23763615
59	0x3e16fbe8	0.14744532
60	0x3e394bee	0.18095371
61	0xbe84d1e5	-0.25941387
62	0x3e99f820	0.30072117
63	0x3d520b48	0.05128029
64	0x3e086beb	0.13322417
65	0x3e0b8584	0.13625151
66	0xbe09c910	-0.13455606
67	0x3db529cb	0.08845862
68	0xbe0be39e	-0.13661048
69	0xbba2abf4	-0.004964346
70	0xbdcb1fed	-0.09918199
71	0xbe20ee31	-0.15715863
72	0xbd2f2fb4	-0.042770103
73	0xbe55b71a	-0.20870629
74	0x3d347ff9	0.044067357
75	0xbe902fd4	-0.2816149
76	0x3ddca0ab	0.107728325
77	0x3e0b2628	0.13588774
78	0x3da403e4	0.080085546
79	0x3d9d21ce	0.07672463
80	0x3db67937	0.08909839
81	0xbd8db7d5	-0.06919829
82	0x3e641582	0.2227383
83	0x3de529d1	0.111896165
84	0x3e7eda0d	0.24887867
85	0x3d3e9ca4	0.046536103
86	0x3ce0fde4	0.027464814
87	0xbd028e97	-0.031874266
88	0x3e652fcc	0.22381514
89	0x3af5384e	0.0018708797
90	0x3d134927	0.035958435
91	0xbe7dfe83	-0.2480412
92	0x3e0c7996	0.13718256
93	0x3da9411b	0.08264371
94	0x3df7efca	0.12106283
95	0x3ded1ad4	0.11577383
96	0xbdee4fae	-0.116362914
97	0x3e890132	0.26758724
98	0xbdb48ef7	-0.08816331
99	0xbd0d0d25	-0.034436364
100	0xbc2232e6	-0.00989983
101	0xbe01abb3	-0.12663154
102	0xbd14e7c4	-0.03635384
103	0x3dddb067	0.10824662
104	0x3e0d8939	0.13821878
105	0xbca014ec	-0.019541226
106	0xbd9be84c	-0.076126665
107	0xbe14b0f9	-0.14520635
108	0xbd1c5ccc	-0.038174435
109	0xbe8a777d	-0.27044287
110	0x3e237d6e	0.15965816
111	0xbd9cf640	-0.07664156
112	0xbe7ab4ab	-0.24482982
113	0x3cc9cc58	0.024633572
114	0xbe1d95a8	-0.1538912
115	0xbe2e6c78	-0.17033565
116	0x3e945e2c	0.28978097
117	0x3dbd7ee0	0.09252715
118	0xbd4e6cf0	-0.05039686
119	0xbd797460	-0.060902
120	0x3b2c15bd	0.0026258074
121	0x3d5fb9ea	0.05462066
122	0xbe13c5f2	-0.14430979
123	0xbe677ad0	-0.22605443
124	0x3d08210a	0.033234634
125	0xbd68996c	-0.05678694
126	0x3e55ac8c	0.20866603
127	0x388906a3	6.533905e-05
128	0xbdbd0540	-0.09229517
129	0x3d50d87d	0.05098771
130	0xbd5a673d	-0.053321112
131	0xbe51568c	-0.20443171
132	0xbe0e0f57	-0.13873039
133	0x3da13ca7	0.07872897
134	0x3e2fd3a8	0.17170584
135	0x3d8aaa1d	0.06770728
136	0x3e9a04c9	0.30081776
137	0x3e0dac2a	0.13835207
138	0x3c63985e	0.013891308
139	0xbe388376	-0.18018898
140	0xbe07bd4c	-0.13255805
141	0x3dd9617a	0.10614295
142	0x3e429f54	0.19006091
143	0x3d7c780a	0.061637916
144	0x3e068dd7	0.13140045
145	0xbe219160	-0.15778112
146	0x3db3224f	0.08746778
147	0xbeb1ac70	-0.34701872
148	0x3cdc465e	0.026889022
149	0xbe3fd7ba	-0.18734637
150	0x3cd5feab	0.026122412
151	0x3c885665	0.016642759
152	0x3d4169ae	0.047219925
153	0xbe0eaf70	-0.13934112
154	0xbcc8cc3a	-0.024511445
155	0xbdd7a641	-0.10529757
156	0xbe550d03	-0.20805745
157	0x3cbd9e7a	0.023146857
158	0x3e84e8ec	0.25958955
159	0x3dc52b39	0.09627385
160	0x3e0657be	0.13119408
161	0xbcf3aca3	-0.029745406
162	0x3d320b1b	0.043467622
163	0xbd3745d5	-0.04474433
164	0x3e68b780	0.2272625
165	0x3d6928a3	0.05692352
166	0x3b43ac2e	0.0029857266
167	0x3db28ed6	0.0871865
168	0xbcc1b918	-0.02364783
169	0xbe3eca08	-0.18631756
170	0xbec50822	-0.38482767
171	0x3deab0af	0.11459481
172	0x3df9b710	0.121931195
173	0xbd9acf88	-0.07559115
174	0x3da1f042	0.07907154
175	0x3e1a448e	0.15065214
176	0x3d064299	0.032778356
177	0x3dbd858f	0.0925399
178	0x3e96550e	0.29361767
179	0x3e3917f0	0.18075538
180	0x3cc5181c	0.024059348
181	0x3db01445	0.08597616
182	0x3d8a548f	0.067544095
183	0x3d8cb46a	0.06870349
184	0xbbe1748e	-0.0068803495
185	0x3d849582	0.06473829
186	0x3e30588c	0.17221278
187	0xbdf90072	-0.12158288
188	0xbc5290fa	-0.012851948
189	0x3e1df9a5	0.15427263
190	0xbe0ef2c6	-0.13959798
191	0x3ca11166	0.019661617
192	0xbdad1734	-0.08451691
193	0x3db5b23c	0.08871886
194	0x3d44e91c	0.048073873
195	0x3e54a8a4	0.20767456
196	0x3e739ea9	0.23790993
197	0x3dbfd1b8	0.093661726
198	0xbe18960a	-0.14900985
199	0xbe45b59c	-0.1930756
200	0x3ce97fd5	0.028503338
201	0x3da579c4	0.080798656
202	0xbd1a216f	-0.03762954
203	0x3d4c085e	0.049812667
204	0xbcac9aa0	-0.021069825
205	0x3d19e510	0.037571967
206	0xbe60b4f3	-0.21944027
207	0x3cc6d59a	0.024271775
208	0x3e12e35a	0.1434454
209	0x3e67ca29	0.22635712
210	0xbe566ec9	-0.20940699
211	0x3e28238b	0.16419809
212	0x3dd02357	0.101629905
213	0x3e2367b1	0.15957524
214	0xbdfd1f09	-0.12359435
215	0x3e3fd701	0.18734361
216	0x3e17f7bf	0.14840601
217	0xbd1413e2	-0.036151774
218	0x3e2c1811	0.16806056
219	0x3d808c59	0.06276769
220	0xbe65bdac	-0.22435635
221	0x3dcd6f71	0.100310214
222	0x3e9dbcab	0.30808005
223	0xbd59fda9	-0.053220425
224	0x3e188b3c	0.14896864
225	0xbd96e30b	-0.07367524
226	0x3e9083f2	0.28225666
227	0x3dc10485	0.0942469
228	0x3ded1576	0.11576359
229	0x3e22df80	0.15905571
230	0x3e18d46d	0.14924784
231	0x3e4e3545	0.20137508
232	0x3dfd4f21	0.12368608
233	0x3d2725bd	0.040807474
234	0xbd962f1e	-0.07333206
235	0x3de9d01c	0.11416647
236	0xbd3cc948	-0.046090394
237	0x3dc49f48	0.09600693
238	0x3ecf13f4	0.4044491
239	0xbbbf828d	-0.0058444203
240	0xbd1b0fb2	-0.037856765
241	0xbe68d1cf	-0.22736286
242	0xbe44b76a	-0.19210592
243	0xbcb52092	-0.022110257
244	0xbdf5efe8	-0.12008649
245	0xbda47116	-0.08029382
246	0x3e5afe75	0.2138613
247	0x3dbd0e34	0.09231225
248	0xbe6ef122	-0.23334172
249	0x3d1f2845	0.038856763
250	0x3972448a	0.00023104451
251	0xbeb99232	-0.3624435
252	0xbc49603a	-0.012291009
253	0xbe7b5472	-0.24543932
254	0xbd071042	-0.03297449
255	0x3c849155	0.016182581

conv3.nn.0.bias f4 [16]
0	0xbec5a9ec	-0.38606203
1	0x3d8b4a77	0.068013124
2	0x3e2e34bf	0.17012309
3	0x3eff0fc2	0.4981671
4	0x3de4c60c	0.11170587
5	0xbf19e6b1	-0.6011763
6	0xbece0169	-0.4023545
7	0x3dbad9a8	0.09123546
8	0xbca6bf64	-0.020354934
9	0x3ebdd28b	0.37074694
10	0xbe771098	-0.24127424
11	0xbedd7991	-0.4325681
12	0xbea441d1	-0.32081464
13	0xbd8dc90f	-0.069231145
14	0xbbaa4f26	-0.0051974235
15	0x3eabdb88	0.33565927

conv3.nn.2.weight f4 [16, 16]
0	0x3aea216c	0.0017862744
1	0xbde802e2	-0.11328675
2	0xbc0d353c	-0.008618649
3	0xbe3c3cb9	-0.18382539
4	0xbecf89d3	-0.4053484
5	0xbe1fe917	-0.1561626
6	0xbc922cf4	-0.017843701
7	0xbda1bab9	-0.07896943
8	0x3e634cc5	0.22197254
9	0xbd9fa3b7	-0.07794898
10	0xbea175f5	-0.31535307
11	0xbd33abfa	-0.04386518
12	0x3dc748e5	0.097307004
13	0xbd0912d8	-0.033465236
14	0x3e6ee8a4	0.23330933
15	0x3d108a07	0.035287883
16	0x3ad1d6b7	0.0016009425
17	0xbb0c885e	-0.0021443586
18	0x3dcb2541	0.09919215
19	0xb96a1f20	-0.00022327574
20	0x3d8fe4a4	0.070260316
21	0x3a96da2c	0.0011509112
22	0xbe43225c	-0.19056076
23	0x3dd0a6c3	0.10188057
24	0xbd2011f5	-0.039079625
25	0x3e836839	0.25665453
26	0xbe3f9b0e	-0.18711492
27	0xbe1c2a40	-0.15250492
28	0xbe5c613f	-0.21521471
29	0x3e8dc446	0.27688807
30	0xbdd5f6fc	-0.10447499
31	0x3d5086bd	0.050909746
32	0xbbcbf65c	-0.0062244367
33	0x3beb7a4c	0.00718621
34	0xbe8327a6	-0.25616187
35	0x3d24c64f	0.040228184
36	0xbdf8dc8e	-0.121514425
37	0xbea415de	-0.32047933
38	0xbda6fbb0	-0.08153474
39	0xbd2fcbb9	-0.042918894
40	0xbc4cd5f2	-0.01250218
41	0x3e004dcd	0.12529679
42	0x3e36c4a9	0.17848457
43	0xbe9ddbb8	-0.30831695
44	0xbe92aade	-0.28645986
45	0x3c5bd331	0.013417051
46	0x3e9cfafc	0.30660236
47	0xbc070426	-0.008240735
48	0xbdd7c2bb	-0.10535189
49	0xbe151a12	-0.14560726
50	0xbea9f680	-0.33195877
51	0x3c08fd0c	0.008361112
52	0x3dd9694d	0.10615788
53	0xbe8bae1e	-0.27281278
54	0x3d228337	0.039675917
55	0xbd835807	-0.06413274
56	0x3e94ba0f	0.290482
57	0x3d355166	0.04426708
58	0xbcc958c0	-0.024578452
59	0xbe740770	-0.23830962
60	0xbdbe8006	-0.09301762
61	0x3d8bb1d5	0.06821028
62	0xb7ba23c0	-2.2189575e-05
63	0xbe5bb740	-0.21456623
64	0xbe4b466b	-0.19851081
65	0xbea7bd7d	-0.32761756
66	0xbc534b73	-0.012896406
67	0xbe03f0cd	-0.12884827
68	0xbe3b3ea8	-0.1828562
69	0xbe076c68	-0.13224947
70	0x3be9b180	0.0071317554
71	0x3e5a74a8	0.21333563
72	0xbe6c3323	-0.23066382
73	0x3e1460d9	0.1449007
74	0x3e09c05d	0.13452287
75	0xbe3ac50a	-0.18239227
76	0x3cfc4770	0.030795783
77	0xbee94449	-0.4555991
78	0xbd3de795	-0.046363432
79	0x3e2533a8	0.16132987
80	0xbd0c97be	-0.0343244
81	0x3a34c854	0.00068963063
82	0x3b8fa388	0.004383508
83	0x3d419ed6	0.04727062
84	0xbcc1f22c	-0.023675047
85	0x3dfee6d0	0.12446368
86	0xb7b2776c	-2.1274864e-05
87	0xbabab697	-0.001424509
88	0xbc3282d7	-0.010895452
89	0x3b8cec61	0.0043006395
90	0x3d373ae6	0.044733904
91	0xbadc32e7	-0.0016799838
92	0x3d2af00f	0.041732844
93	0xbcea7489	-0.028620021
94	0x3dc2c2e4	0.09509829
95	0xba279d59	-0.0006393991
96	0xbe8fd3fe	-0.28091425
97	0x3ccf2fe4	0.02529139
98	0xbe22fe00	-0.15917206
99	0xbebe354b	-0.37150034
100	0x3d62d513	0.055378985
101	0x3c86778a	0.016414423
102	0x3d529052	0.051407166
103	0x3d0bf3d9	0.034168098
104	0x3cd05ba4	0.025434323
105	0xbe3a8487	-0.18214618
106	0xbdfe08f9	-0.12404055
107	0x3e1fe8bc	0.15616125
108	0xbc0cb0d0	-0.008587077
109	0x3d7c9f57	0.061675396
110	0xbe2c501f	-0.16827439
111	0x3dbbac93	0.09163775
112	0x3dbeb77f	0.09312343
113	0x3e1abb8b	0.15110604
114	0xbaff0cec	-0.0019458807
115	0xbeac2e07	-0.33628866
116	0xbcab09ef	-0.02087876
117	0x3e72cc4b	0.23710744
118	0xbe73dbfb	-0.23814385
119	0xbe2d6936	-0.16934666
120	0xbe35f05d	-0.17767473
121	0xbe5412d2	-0.20710304
122	0xbe5d693e	-0.21622178
123	0x3da1927d	0.078892685
124	0xbe0b24c5	-0.13588245
125	0xbe1b88c3	-0.15188889
126	0xbd021b9c	-0.03176461
127	0x3e8fbd0d	0.28073922
128	0xbc6cf946	-0.014463728
129	0xbcce778d	-0.02520349
130	0xbd0a99f2	-0.03383822
131	0xbe05bf0e	-0.13061163
132	0xbd7199b1	-0.058984462
133	0xbd60eed8	-0.05491528
134	0x3ce35bd3	0.027753746
135	0x3d698ded	0.057020117
136	0x3d7cb057	0.06169161
137	0xbd12380c	-0.03569798
138	0xbe3611a3	-0.17780165
139	0xbcaea50f	-0.02131894
140	0xbd34dc1d	-0.04415523
141	0x3e5935fd	0.21212001
142	0xbd0e84ea	-0.034794725
143	0xbcc4e489	-0.024034755
144	0xbe0af118	-0.13568532
145	0xbca09d23	-0.019606179
146	0x3c6da3ae	0.014504356
147	0x3e095ef2	0.13415125
148	0x3d8ebea5	0.06969956
149	0x3def5a2c	0.11687121
150	0xbdef689d	-0.11689875
151	0x3d1e0d7c	0.03858708
152	0x3e03a723	0.12856726
153	0x3d979e71	0.07403267
154	0x3e936dac	0.2879461
155	0x3da5638d	0.080756284
156	0x3e858266	0.2607605
157	0xbea0e006	-0.31420916
158	0xbde02ebf	-0.10946416
159	0xbc9d1b36	-0.019178014
160	0xbde0c718	-0.10975474
161	0x3edee325	0.43532673
162	0xbc9bee04	-0.019034393
163	0x3e8e01e4	0.27735817
164	0xbdb0edfe	-0.086391434
165	0xbd94971c	-0.07255384
166	0xbea00dfb	-0.31260666
167	0xbe296329	-0.16541733
168	0xbe9153b6	-0.2838418
169	0xbd2aeeb2	-0.041731544
170	0x3d9ceca1	0.07662321
171	0xbdafec9e	-0.08590053
172	0xbd9ed731	-0.07755888
173	0xbe4f716a	-0.20258108
174	0xbe10e63b	-0.14150326
175	0x3dce28ac	0.10066351
176	0xbd55c7e2	-0.052192576
177	0xbe22d909	-0.15903105
178	0xba926796	-0.0011169787
179	0xbdb85dc2	-0.09002258
180	0x3d16710d	0.036728907
181	0xbe321ab3	-0.17392997
182	0xbe35f1b2	-0.1776798
183	0x3d9c207a	0.07623382
184	0xbd0239a6	-0.03179326
185	0xbd1a248e	-0.037632518
186	0x3dea6fd4	0.11447111
187	0xbe06b3fa	-0.13154593
188	0x3df3c351	0.11902488
189	0xbe47c4e9	-0.19508709
190	0x3e8f3cca	0.27976066
191	0xbcdc58cf	-0.026897816
192	0xbdcbb478	-0.09946531
193	0xbd07272c	-0.03299634
194	0xbe9bb3b9	-0.30410555
195	0x3c976a54	0.018483318
196	0x3cfcc431	0.03085527
197	0xbdb4cbb5	-0.088279165
198	0xbe2ccae0	-0.16874266
199	0x3e60fb6c	0.2197091
200	0x3db6a2ad	0.08917747
201	0x3ea374ae	0.31924957
202	0xbd730d84	-0.05933906
203	0xbdfc7c0d	-0.12328348
204	0xbd9c56eb	-0.07633766
205	0x3bafead3	0.0053685694
206	0x3ce547bf	0.027988313
207	0xbec42876	-0.3831212
208	0x3da87c38	0.08226818
209	0x3e03536f	0.12824796
210	0x3def997a	0.11699195
211	0xbe95d6b5	-0.2926537
212	0xbe49bedd	-0.19701715
213	0xbe8136d6	-0.2523715
214	0xbdc31407	-0.09525304
215	0x3d94d13d	0.072664715
216	0x3d1d36c9	0.038382325
217	0x3cb675ba	0.022272933
218	0xbe9728b2	-0.29523236
219	0xbc85787c	-0.016292803
220	0x3c69ba3d	0.014265594
221	0xbd954e70	-0.072903514
222	0xbcf635cd	-0.030054951
223	0x3d9d1489	0.076699324
224	0xbd2a5821	-0.041587953
225	0x3d77414a	0.060365
226	0x3d56aeca	0.052412786
227	0xbee84ab4	-0.45369494
228	0xbd67ba1c	-0.056573972
229	0xbdf8b2c1	-0.121434696
230	0x3d16d486	0.036823772
231	0x3d15c0a7	0.03656068
232	0xbd612ea8	-0.054976135
233	0x3d15e144	0.036591783
234	0xbea32f5d	-0.31872073
235	0x3e1d9706	0.15389642
236	0xbe8c005d	-0.27344027
237	0x3d87c951	0.06630195
238	0xbda25b97	-0.079276256
239	0x3d7c6a6c	0.06162493
240	0xbe0b7caf	-0.13621782
241	0xbdd719e1	-0.10502983
242	0xbe0ef4cd	-0.13960572
243	0xbeffd6ee	-0.49968666
244	0x3e2ec941	0.1706896
245	0xbe31eb6a	-0.1737496
246	0xbe51e7a7	-0.20498525
247	0xbcff2763	-0.03114671
248	0x3e007814	0.12545806
249	0xbd7e734e	-0.062121682
250	0xbd9e2802	-0.07722475
251	0xbe360cb1	-0.17778279
252	0xbe004280	-0.12525368
253	0x3e89c7a9	0.2691014
254	0xbe27b542	-0.16377738
255	0xbe069b7a	-0.13145247

conv3.nn.2.bias f4 [16]
0	0x3ebb7f43	0.3662053
1	0x3dafd0c8	0.08584744
2	0x3ebb0012	0.3652349
3	0x3e26bf6e	0.16283962
4	0x3e8d64be	0.27615923
5	0xbc9d0fc7	-0.019172562
6	0x3e8af4d2	0.27139908
7	0x3ea6b141	0.3255711
8	0xbcdf17f7	-0.027233107
9	0x3e8d7381	0.27627185
10	0x3ed37656	0.4130122
11	0x3e95ffc8	0.29296708
12	0x3ead2cca	0.33823234
13	0x3e3522a1	0.17688991
14	0x3eb9b938	0.36274123
15	0x3e18cf6a	0.14922872

conv3.nn.4.weight f4 [16]
0	0x3f9b2565	1.2120787
1	0x3f506342	0.81401455
2	0x3f7e3bab	0.99309796
3	0x3fb143ce	1.3848817
4	0x3fb2ee77	1.3979024
5	0xbc2d4f54	-0.010577995
6	0x3f98c898	1.1936216
7	0x3f9702db	1.1797746
8	0x3f35cf7e	0.7101973
9	0x3f345d15	0.7045453
10	0x3faf349c	1.368793
11	0x3f467b4a	0.77531874
12	0x3fba50de	1.4555929
13	0x3f8161de	1.0107992
14	0x3f8dbf37	1.1073979
15	0x3fa4a479	1.2862693

conv3.nn.4.bias f4 [16]
0	0x3f01e125	0.5073417
1	0x3ec076a5	0.3759052
2	0x3ef15fba	0.47143346
3	0x3f15ab88	0.5846486
4	0x3edd9d21	0.43283942
5	0xbd8678fc	-0.06566045
6	0x3ed7c98e	0.42145962
7	0x3eb52802	0.35382086
8	0x3e9c074f	0.30474326
9	0x3e3dab43	0.18522362
10	0x3ef8812e	0.48536056
11	0x3ef654f5	0.48111692
12	0x3f18cc53	0.59686774
13	0x3e6e24f9	0.23256291
14	0x3eefc6a1	0.4683123
15	0x3ecf0b78	0.40438437

conv3.nn.4.running_mean f4 [16]
0	0x3e17c657	0.14821754
1	0x3e7106ac	0.23537701
2	0x3f646e43	0.89230746
3	0x3dde16ce	0.108441934
4	0x3ca0d09b	0.01963072
5	0x3f4dcd82	0.80391705
6	0x3e007ed0	0.12548375
7	0x3d249c87	0.04018834
8	0x3e587f48	0.21142304
9	0x3e3fb43b	0.18721096
10	0x3e1f279e	0.15542457
11	0x3f4fc362	0.81157506
12	0x3ea729a9	0.32648972
13	0x3d0180ad	0.031616855
14	0x3e871aa9	0.26387528
15	0x3d439212	0.047746725

conv3.nn.4.running_var f4 [16]
0	0x3d097a3e	0.033563845
1	0x3dbe29cd	0.092853166
2	0x40b85490	5.7603226
3	0x3d16a789	0.036780868
4	0x3b14120d	0.0022593767
5	0x414fcb07	12.987067
6	0x3d1331b4	0.035936072
7	0x3c7bdcba	0.0153724495
8	0x3e26b02f	0.16278146
9	0x3f350940	0.7071724
10	0x3daa1888	0.0830546
11	0x410c8545	8.7825365
12	0x3e537733	0.2065094
13	0x3b9d5f8e	0.004802651
14	0x3e3fa410	0.18714929
15	0x3c174ab2	0.009234117

lin.weight f4 [3, 16]
0	0xbf45859d	-0.77157
1	0xbe98e651	-0.29863217
2	0xbd05b7c9	-0.032645974
3	0xbf005416	-0.50128305
4	0x3ea5cd91	0.32383397
5	0xbd03da64	-0.032190695
6	0xbed40cc7	-0.41415998
7	0x3df7d4f5	0.12101165
8	0xbe83de11	-0.2575536
9	0x3def7d60	0.11693835
10	0x3f019ded	0.506316
11	0x3e2031e4	0.15644032
12	0xbf01768e	-0.50571525
13	0xbebe078c	-0.37115133
14	0xbf165706	-0.5872654
15	0xbf19f1d4	-0.60134625
16	0x3e8f537e	0.27993387
17	0x3eef0191	0.46680883
18	0xbedf0927	-0.4356167
19	0xbe54bc8e	-0.20775053
20	0xbeeb1de4	-0.45921242
21	0xbd0ccf30	-0.034377277
22	0x3f181d9d	0.59420186
23	0x3e9b427e	0.30324167
24	0x3ea7ace7	0.32749102
25	0xbe8f9e05	-0.28050247
26	0xbea9af06	-0.33141345
27	0xbeea3a24	-0.45747483
28	0xbf302b7c	-0.6881635
29	0x3eab0d4e	0.33408588
30	0x3f09fba5	0.53899604
31	0x3eb9005c	0.36133087
32	0x3d90ce7c	0.07070634
33	0xbdfb876d	-0.1228169
34	0x3edc8380	0.43069077
35	0x3f2edc29	0.6830469
36	0xbefd534d	-0.49477616
37	0xbdc29af9	-0.09502215
38	0xbeb04416	-0.34426945
39	0xbf1952b2	-0.5989181
40	0x3de41a08	0.111377776
41	0xbddfac09	-0.10921485
42	0xbea595c0	-0.32340813
43	0x3e6c8e03	0.23101048
44	0x3f36837c	0.7129438
45	0xbe51d0f5	-0.20489867
46	0xbe9b6710	-0.30352068
47	0xbeea33be	-0.457426

lin.bias f4 [3]
0	0xbda1c159	-0.07898206
1	0xbea9f9c3	-0.33198366
2	0x3e6b2ce1	0.22966339
