models/SKY_Pretrained/pubmed_gat_model.pth (torch, 330690 bytes, 12 tensors)

conv1.att_src f4 [1, 8, 16]
000000 18 9f 39 bd be 8f 8a bb e0 03 1f bd 0c 75 26 3d
       -0.04531774 -0.004228561 -0.038822055 0.04063897
000010 f0 46 2c bd 9b 4d 6c 3d 2a 41 25 3d e6 3a e1 3b
       -0.04205984 0.057691198 0.04034535 0.0068734763
000020 0f 23 3a 3d b1 04 fd 3c 44 c6 a0 3b bd 11 69 bb
       0.04544359 0.030886026 0.0049064476 -0.0035563551
000030 7e ac b4 3b ad 3b 1c bd 98 17 d4 bb 10 42 6d bb
       0.0055137267 -0.03814285 -0.006472539 -0.0036202706
000040 93 9b f7 bc 25 ac e9 3c 70 74 2b 3d d8 4f 0a 3d
       -0.03022555 0.028524468 0.04185909 0.03376755
000050 6e 0c 9c bb 4e c4 c0 38 83 16 cd bc 41 2e 19 bc
       -0.004762224 9.191838e-05 -0.025035148 -0.009349407
000060 08 e1 0b bd 48 80 8e 3a f2 c7 14 bd 7a a4 c9 ba
       -0.034150153 0.0010871971 -0.036323495 -0.0015384101
000070 ee f9 00 3c 67 15 39 bb 3e 15 7e bd 6d 57 07 3c
       0.007872088 -0.0028241517 -0.062031977 0.00826059
000080 f9 cc 84 3d a0 59 ff 3b 80 3a dd 3b 86 83 1b bd
       0.06484408 0.0077926666 0.0067513585 -0.037967227
000090 2a 68 dc 3c b8 71 6e bb e6 80 4f 3d d4 e4 3e ba
       0.026905138 -0.00363837 0.050660037 -0.0007282023
0000a0 94 aa 8f bd a8 63 20 bc a6 a9 6e 3c b0 35 4d 39
       -0.07014957 -0.009789385 0.0145668145 0.00019570324
0000b0 e0 91 64 bd de c9 c1 bc 50 6d ec b8 e8 b6 26 bc
       -0.05580318 -0.023655828 -0.00011273718 -0.010175444
0000c0 4b a5 9b 3c 8e 42 d0 3c 29 38 fa bc 30 45 8c 3c
       0.018999716 0.02542236 -0.030544357 0.017122835
0000d0 87 a3 12 bd 7a c7 b7 3b ba b9 2a bc 7c e9 5c bc
       -0.035800483 0.0056084963 -0.010420257 -0.013483401
0000e0 1a b4 24 ba b9 8b 29 3d 8d da 92 bb 03 44 01 3d
       -0.0006282941 0.041393016 -0.0044816197 0.031559
0000f0 98 7a 37 3c 3b 6e 26 3d c4 84 50 3c 64 1d 37 bd
       0.011198662 0.040632468 0.012726966 -0.044705763
000100 72 42 bd 3b 2f 8d 19 3d 4b ab 08 3d 64 19 28 bd
       0.005775743 0.03748816 0.033366483 -0.04103984
000110 9c 4a 2b bb 38 40 38 bc 3a 57 92 bd 07 96 30 bd
       -0.0026137 -0.01124578 -0.071455434 -0.043111827
000120 cc bf 31 bc a8 a1 12 bd 52 2c 11 3d c0 56 55 bd
       -0.010848951 -0.0357987 0.035442658 -0.052084684
000130 79 60 f8 3b 41 eb 3f bd e3 34 1a bc 8e 20 8a bb
       0.00757986 -0.046855215 -0.009412023 -0.0042153066
000140 15 16 7a bd 93 d0 89 bd d2 67 7f 3d 22 12 13 bd
       -0.061056215 -0.067292355 0.06235487 -0.035905965
000150 68 0a 8e bd b1 08 de 3c cf 08 b3 3c f3 77 14 3b
       -0.069355786 0.027103754 0.021854786 0.0022654503
000160 48 15 5a bd 80 a7 29 bb 42 02 19 3b 99 ff 23 bd
       -0.05324295 -0.0025887191 0.0023347293 -0.04003868
000170 0f 09 19 bd 0e 7d 24 3d b1 55 02 bb d9 d3 47 bc
       -0.037362155 0.040158324 -0.0019887502 -0.0121965045
000180 8b bc 00 3b f0 a8 17 bc be aa 47 3d 5a 1d 51 3c
       0.001964363 -0.009256586 0.048746817 0.012763346
000190 4c b9 6a bc 11 57 ef 3c 98 d2 25 3b 7e 79 49 3c
       -0.014326405 0.029216321 0.0025302526 0.012297032
0001a0 ca 16 31 3d 70 02 59 3c 18 8a cf 3c d1 18 04 bd
       0.043234624 0.01324521 0.025334403 -0.03225023
0001b0 76 05 2d 3d cb 0c 74 bd e4 3f 54 3d 69 2e 1c 39
       0.042241536 -0.059582513 0.051818743 0.00014894608
0001c0 f8 ff 9d 3b 1c 72 3c ba b1 79 a0 3a df f7 72 3d
       0.0048217736 -0.00071886345 0.0012243298 0.05931842
0001d0 66 c7 ac bc 87 6b 03 bd 1d ba 1f bd 5a 07 44 bd
       -0.021091174 -0.032084968 -0.03899585 -0.047858573
0001e0 15 c4 67 3d 12 39 15 bd f8 cf da bb 21 b2 17 3d
       0.056583483 -0.03643138 -0.006677624 0.03703511
0001f0 c0 41 f0 bc 07 2b c0 3c 8f 0b 08 3d 2c f3 ea 3b
       -0.029328227 0.023458017 0.033214148 0.0071701016

conv1.att_dst f4 [1, 8, 16]
000000 4b 4e ab bc 4c 7b 69 bb 81 65 9e bc 7a 00 84 3c
       -0.020911356 -0.003562647 -0.01933551 0.016113508
000010 1e 84 85 bc 62 a6 d3 3c e1 5d 8f 3c b1 d8 8a 3b
       -0.01629835 0.025836173 0.01750082 0.0042372574
000020 fc 06 92 3c 4c 37 43 3c 8a bf 47 b9 34 46 9d b9
       0.017825596 0.011915039 -0.00019049473 -0.0002999768
000030 58 e9 91 ba 6e b7 96 bc 06 7a ac ba fa 60 d7 ba
       -0.0011132164 -0.018398013 -0.0013158924 -0.00164321
000040 1a ee 4f bc 80 45 09 3c 11 95 8b 3c 64 5a 92 3c
       -0.012691045 0.0083783865 0.017038854 0.017865367
000050 39 67 bd bb f4 4c b2 38 2d 0c 15 bc fc 68 7d bb
       -0.0057801274 8.502035e-05 -0.009097141 -0.0038667312
000060 05 ba 59 bc 0c 3e 07 b8 0d 82 63 bc 6e db 85 ba
       -0.013288979 -3.2244294e-05 -0.013885987 -0.001021249
000070 ee 26 ad 3a a0 49 4b 3b 24 ac cc bc f8 21 32 3a
       0.0013210454 0.0031019226 -0.024984427 0.0006795223
000080 ec ea de 3c e1 29 e1 3b 9f 12 43 bc 2f d1 83 bc
       0.027211629 0.0068714474 -0.011906295 -0.016090957
000090 4c cd 1c 3c 49 77 a6 bb 37 d1 eb 3c ff 89 78 b9
       0.009570431 -0.005080138 0.028786285 -0.0002370253
0000a0 cf 96 71 bc 50 78 d4 bb f7 a5 01 3c 79 21 c1 39
       -0.014745428 -0.006484069 0.007913104 0.00036836768
0000b0 f8 92 c3 bc 4c 0f 7e b9 85 50 c5 3b 67 20 43 bb
       -0.023873791 -0.00024229026 0.0060215616 -0.0029773952
0000c0 d3 04 b5 3b 15 01 34 3c 9e 5a 23 bc cb 30 52 3c
       0.0055242567 0.010986586 -0.009970335 0.012829016
0000d0 a8 1f 81 bc 85 ea a1 3b 4f d5 97 bb 00 34 13 bc
       -0.015762165 0.004941287 -0.0046335827 -0.008984566
0000e0 0a 80 53 b9 13 43 a7 3c 98 c1 97 bb d0 4e 81 3c
       -0.00020170226 0.020417726 -0.0046312325 0.015784651
0000f0 e8 18 30 3b 7c 58 b2 3c 85 cd 96 3b 9a 62 d3 bc
       0.0026870314 0.021770708 0.0046021366 -0.025803853
000100 a2 16 0e 3c cd 85 43 3c aa 97 82 3c e3 7c 82 bc
       0.008672388 0.011933756 0.01594146 -0.015928691
000110 9a 24 8a bb 5b c8 1c bb 4f c5 fd bc d7 b4 83 bc
       -0.004215789 -0.0023923132 -0.030977873 -0.016077442
000120 e6 d4 d0 bb ba 07 a4 bc 3b 72 65 3c d4 3e cd bc
       -0.0063730357 -0.020023216 0.014004285 -0.025054373
000130 c4 bb 85 3a e0 a4 c6 bc 40 33 72 ba eb a0 78 3b
       0.0010203053 -0.02424854 -0.0009239204 0.0037937711
000140 97 82 04 bd d9 72 02 bd 4b 36 b8 3c 5e 97 92 bc
       -0.032351103 -0.03184781 0.022486826 -0.017894443
000150 ce cc b1 bc a1 9d e0 3b 61 d9 03 3c 57 8b 78 b9
       -0.021704104 0.0068547283 0.008047433 -0.00023703031
000160 f1 da a1 bc 6a 61 5c bb 19 79 15 3b f2 76 94 bc
       -0.01975772 -0.00336274 0.0022807776 -0.018123124
000170 e0 8d e7 bb 69 2c ae 3c 50 b4 18 ba 1b c9 d4 bb
       -0.0070664734 0.02126141 -0.00058252085 -0.0064937
000180 a0 a7 11 bb d9 72 1c bb dd 05 56 3c 75 23 ee 3b
       -0.0022225156 -0.0023872165 0.013062921 0.0072674104
000190 6e 41 08 bc be c8 4d 3c fe dc 09 3b ca cc e7 3b
       -0.008316381 0.012560068 0.0021036263 0.0070739733
0001a0 58 71 93 3c 13 94 53 3b 4f 07 6c 3c ce e0 58 bc
       0.017998382 0.0032284304 0.014406039 -0.013237191
0001b0 bb 21 a4 3c 4c 9e 04 bd 3c 58 e3 3c e0 69 ca b8
       0.020035615 -0.032377526 0.027752034 -9.651831e-05
0001c0 9d db 1a bb 96 72 11 38 9d 7d 94 3b 90 a0 ef 3c
       -0.0023629435 3.467741e-05 0.004531576 0.029251367
0001d0 8c 88 65 bc d6 cb 3e bc e9 89 99 bc 3f 28 b2 bc
       -0.014009606 -0.011645278 -0.018742518 -0.021747706
0001e0 48 06 9f 3c 3c 7a 8a bc 7a 5c d0 ba 25 d1 78 3c
       0.019412175 -0.016903989 -0.0015896701 0.015186583
0001f0 ed 30 f8 bb 6e d7 35 3c be 8f 50 3c e4 0b ce 39
       -0.007574192 0.011098726 0.012729583 0.0003930024

conv1.bias f4 [128]
000000 a4 2f d9 b9 ed 82 9f 3b 16 dd c8 3b 94 7b 9c bb
       -0.0004142496 0.0048679025 0.006129871 -0.004775474
000010 b7 50 0a 3c 7b f6 8e 3b c6 78 5b bb f3 01 41 bb
       0.0084420955 0.004362879 -0.0033488735 -0.0029450625
000020 1a 3f 48 bb 17 ef 58 bb 0e b2 1e 3a d9 cf 9f bb
       -0.003055519 -0.0033101493 0.0006053754 -0.0048770723
000030 44 ab 4f bb 7f 73 c2 bb db 6b 98 3b ee a8 4d 3b
       -0.0031687776 -0.0059341784 0.0046515292 0.0031381208
000040 bb c4 7a 3b a9 3a f5 3a 4b 7d 37 bb 60 c7 0c 3b
       0.0038264233 0.0018709499 -0.0027998264 0.0021481141
000050 bf 9e f1 3b 8a e4 13 37 16 9f 64 3b 22 be 92 3b
       0.0073736603 8.815094e-06 0.0034884862 0.004478232
000060 77 9d 28 3b ec d7 99 38 d2 7d 1f bb 64 10 2a 3b
       0.0025728622 7.335827e-05 -0.002433647 0.002594971
000070 90 f6 8f bb a9 a7 61 3b 1e cb f0 39 a0 45 01 ba
       -0.004393406 0.0034432209 0.000459277 -0.00049313344
000080 ce 6d fe 3b 02 94 58 3b 5e 60 77 3a 14 18 26 bb
       0.0077645546 0.0033047204 0.0009436662 -0.0025343942
000090 d8 eb 97 3a af 57 5a 3c 11 e4 82 ba 0f 96 fc 39
       0.0011590673 0.013326569 -0.0009986182 0.00048176988
0000a0 05 42 1e 3b e0 cd 15 3c a1 90 85 ba ea 1c 15 b9
       0.0024148237 0.009143323 -0.0010190197 -0.00014220519
0000b0 b6 02 88 3a 1c 98 38 3b a3 42 ca ba 7b 12 61 3b
       0.0010376784 0.0028166836 -0.0015431236 0.003434329
0000c0 c2 84 3d bb ee 8f 49 ba aa d8 d3 3b 30 29 26 3a
       -0.002891824 -0.00076889887 0.0064650374 0.0006338535
0000d0 42 e3 9b 3b 5e ac 17 bb eb a6 a2 3a f4 b8 90 3a
       0.004757316 -0.002314351 0.0012409365 0.0011041448
0000e0 8f f4 4c ba 1a 0f 99 3b 17 22 c6 3a e0 97 f8 3a
       -0.00078184245 0.0046709897 0.0015116361 0.0018966161
0000f0 b1 75 cf bb b6 4c 4d ba b9 f3 8c 3b fa 3a 6a 3b
       -0.0063311686 -0.000783156 0.004301515 0.003574072
000100 da 50 b7 3b 80 a1 7c 38 2e f7 d7 3a bc 12 58 3b
       0.005594355 6.023189e-05 0.0016476864 0.003297015
000110 58 2b c9 3a 25 fb da 3a 73 00 b2 ba 69 7f 90 bb
       0.0015348 0.0016706927 -0.0013580456 -0.0044097197
000120 fe 81 ee ba 7a 8b cb ba 4c 4c 76 3b e2 b4 02 3b
       -0.00181967 -0.0015529238 0.0037582098 0.001994424
000130 75 d6 22 ba d1 29 01 3b 68 c0 be ba 29 bd e5 3b
       -0.0006211766 0.0019708762 -0.0014553191 0.007011075
000140 63 64 71 3a 3e 30 92 3b 6e d3 ae 3b fa 8f 5d 3b
       0.0009208379 0.0044613173 0.005335263 0.003380774
000150 28 95 ce b9 34 87 c0 bb 03 a0 5a 3a 8e 77 b3 3a
       -0.00039402512 -0.0058754925 0.00083398836 0.0013692246
000160 fe e4 b5 ba d4 56 05 3c 05 f0 bc 3b 80 3b a6 b6
       -0.0013877449 0.008138377 0.0057659172 -4.9541122e-06
000170 14 f4 be 3a cc bc a0 3b 3f f3 d5 ba a0 c4 70 bb
       0.001456859 0.004905319 -0.0016323103 -0.0036738291
000180 a4 0d b2 3a 38 87 9d 3b e3 6f d1 ba 09 53 58 ba
       0.0013584387 0.004807379 -0.0015978779 -0.00082521193
000190 c7 f3 20 ba 68 27 92 3a 9b 75 8d bb 00 f7 8b b7
       -0.0006139841 0.001115066 -0.004316998 -1.668511e-05
0001a0 20 a2 b1 bb 86 3b a4 3a ae 2e 1b bb 4a e3 6e bb
       -0.005420938 0.0012529946 -0.0023678946 -0.0036451393
0001b0 2e 03 74 ba fd 5c 67 ba 80 cc 18 ba 99 a7 34 ba
       -0.0009308335 -0.0008825807 -0.0005828813 -0.0006891429
0001c0 9a ed 78 bb c2 a8 95 39 f6 be 65 bb 80 76 aa 36
       -0.0037983418 0.0002854523 -0.0035056449 5.08019e-06
0001d0 d4 9c ac 3b 3f 00 af 3b 08 a6 88 3b d5 9d 79 bb
       0.005267719 0.0053406055 0.004170183 -0.003808846
0001e0 cf 73 15 3c 44 9e 54 3b 0c 36 30 3b 60 07 15 bb
       0.009121849 0.0032442966 0.0026887683 -0.0022739992
0001f0 5b 22 98 bb 5b 4f 34 3b 59 86 7c bb 15 ad 1a bb
       -0.0046427674 0.002751312 -0.0038532226 -0.00236017

conv1.lin.weight f4 [128, 500]
000000 4e 36 ba bc 67 1b 95 3d f2 00 60 3c 10 75 1b 3d
       -0.022730973 0.07280617 0.0136721 0.037953436
000010 2e 62 06 3c f8 ee db b9 6b 88 64 bd 50 27 7d bc
       0.008202119 -0.0004194898 -0.05579416 -0.015451267
000020 a0 5a aa bd 5c e1 07 3b 4d 26 94 3c 18 d2 d8 bc
       -0.083180666 0.002073369 0.01808467 -0.026467368
000030 7e 26 de 3c b9 ee 4f bd c5 bf 89 bb 46 fb 87 bc
       0.027117964 -0.050764773 -0.004203769 -0.016599309
000040 c7 94 16 3e 79 8b 08 bc 65 59 94 3a b1 c4 30 bd
       0.14705192 -0.008334034 0.0011318146 -0.04315633
000050 5b 9f 2a bb c2 2f 0a bd 50 24 db bc 56 bb 98 bd
       -0.0026034925 -0.03373695 -0.026750714 -0.074576065
000060 73 be 2f bd 8e 19 f1 bc 47 de 01 3d 04 03 13 3c
       -0.042906236 -0.02943113 0.03170612 0.008972887
000070 3d 3b b7 3c 82 bb b8 3c e1 ab 14 3d 84 ee d6 3c
       0.022367114 0.022550348 0.03629673 0.02623678
000080 43 25 0f bc e6 8c 53 3c fe 32 1d 3c 10 0a bc ba
       -0.008736911 0.012912011 0.009594677 -0.001434626
000090 3f 86 cd bb 4b 65 0d bd cf 76 66 bd 6d ff bd bc
       -0.006272107 -0.03452043 -0.05626565 -0.023193086
0000a0 5c ea 82 bc 80 f8 0c 3c e3 cd 8a bc c5 43 2b bd
       -0.015980892 0.008604169 -0.016943878 -0.041812677
0000b0 1a bc 0e 3d 04 5b 64 3c 17 a5 07 3d e9 2c c4 3c
       0.034847356 0.013937715 0.033116426 0.023947196
0000c0 a1 75 b9 bc 10 ca a2 3c ad e6 02 bd 85 4c 64 3c
       -0.022639098 0.019871742 -0.03195827 0.013934259
0000d0 e0 b5 8a bc 3a c6 87 bd 03 6c 07 bc 0a 25 65 bd
       -0.016932428 -0.066296056 -0.008265498 -0.055943526
0000e0 2d fd 27 bd e3 e5 39 3d 01 dd 83 bc 0e d6 e2 bc
       -0.04101293 0.045385253 -0.016096594 -0.02768996
0000f0 d2 5d 9a bc 51 75 f8 bc 1b ee 6c bb 10 3e c9 bc
       -0.018843565 -0.030329378 -0.0036152664 -0.024565727
000100 70 d9 bc 3c a3 76 94 3c ef b6 70 bc f7 f6 03 3d
       0.023052901 0.018122977 -0.014692052 0.032217946
000110 a4 3a ee 3c a6 e4 ac 3d 1e 19 98 3d 5d a9 3c 3c
       0.029080696 0.08442049 0.07426666 0.011514989
000120 b7 60 17 bc 5f a8 6f 3d b3 97 5a bc 76 82 2b bd
       -0.009239367 0.05851018 -0.013341832 -0.041872464
000130 f7 61 1a bd c5 5d a2 3b 7a 39 f4 bc b6 03 f7 bb
       -0.037691083 0.004955026 -0.029812563 -0.007538284
000140 ed e9 92 bc 5e 99 f3 3c aa 03 97 bd 82 0c 0c bd
       -0.01793381 0.029736217 -0.07373746 -0.034191616
000150 f6 14 ba bc 2e b6 a0 3c 9a ea 7d bb 6e 86 98 3d
       -0.022715073 0.01961812 -0.003874457 0.074475154
000160 05 b4 6b 3d 11 06 d6 3d 78 24 1f 3d d4 e2 5a bc
       0.057544727 0.10450376 0.03885314 -0.013359744
000170 bf 51 57 bd aa 94 ac 3b a0 df 20 bc 42 25 c4 3c
       -0.052568194 0.0052667456 -0.009818941 0.023943547
000180 5e 10 00 3d a8 ce 1e ba 3e 1c 1f 3c c3 e9 ec 3c
       0.03126561 -0.0006058016 0.009711323 0.02892006
000190 2e 4a 8f 3b 40 df 96 3c 1c 21 a7 3b 67 3c ab 3c
       0.0043728566 0.018417 0.0051003825 0.020902826
0001a0 cc 92 c0 3b 75 96 ad 3c 14 9a 92 bc c8 40 3d 3d
       0.0058768746 0.021189908 -0.017895736 0.04620436
0001b0 19 67 b5 bc ce a3 74 bc 60 bd a7 bc 2c 3a 56 bc
       -0.022143887 -0.014931632 -0.020476043 -0.013075393
0001c0 12 70 8e 3b 6b 09 a1 bb 92 f3 dc 3c b2 62 2c 3c
       0.004346856 -0.004914453 0.026971612 0.010521578
0001d0 ef 83 f3 bc 46 ca 0b bc d6 aa 61 3c 7a 95 47 3b
       -0.029725997 -0.008532112 0.013773641 0.0030454085
0001e0 68 d9 f2 3c 69 1a 96 3c a1 58 f7 3c 31 b7 05 3d
       0.029644683 0.01832314 0.030193629 0.032645408
0001f0 c4 2d 10 3d e6 57 ac bc 64 a3 ed bc d0 8c fc bc
       0.035199896 -0.021038007 -0.029008575 -0.030828863
000200 92 91 c7 3c b2 36 b0 3a 1a b9 03 3d 1e 1d a3 bc
       0.024361406 0.0013444035 0.03215895 -0.019911345
000210 f3 0a f2 3b 9a 08 a0 3c 4e b4 7f 3c 3f 2a c7 bc
       0.007386559 0.019535352 0.015606953 -0.024312137
000220 e5 0d 95 bc 24 17 37 3d e0 d2 e6 3a fe e6 c8 bd
       -0.018195102 0.044699803 0.0017610453 -0.09809683
000230 f2 96 bc bc 0f 00 60 bd 41 12 0c bc d3 ce 72 3d
       -0.023021195 -0.054687556 -0.008549274 0.059279274
000240 55 f5 9d 3c 57 e3 7b 3c 42 88 16 bd 5d 4c 89 bb
       0.019282022 0.015374026 -0.03675104 -0.0041900114
000250 16 41 3c 3d 15 cb 61 bc 6c ad 10 bd 04 24 a8 3c
       0.04596051 -0.013781329 -0.035321638 0.020524986
000260 aa b0 99 3c c5 f9 06 bd d5 ee 4a bd f9 8f 8b bc
       0.018760998 -0.032953043 -0.049544174 -0.017036425
000270 0d 42 ae bc ff 40 91 3c be 2e c0 3c ae ce 22 bd
       -0.02127173 0.017731188 0.023459788 -0.039747886
000280 fb 55 33 3d 45 55 3b 3c 0f f4 bc bc 6a b5 fc 3b
       0.04378317 0.011433904 -0.023065595 0.007712056
000290 b6 8c 73 bd a5 2d 1c 3b 03 76 e5 bc 06 8f 43 3c
       -0.059460364 0.0023830917 -0.028010374 0.011935955
0002a0 54 f6 59 bd 88 fd 30 bd bf f0 44 3c d4 db 4a 3c
       -0.053213432 -0.043210536 0.012020289 0.012381513
0002b0 39 50 0f bd 50 e5 1c 3c 58 37 63 ba 16 42 09 3d
       -0.034988616 0.009576157 -0.00086676097 0.03351029
0002c0 65 bc e7 bb 7b d1 9f bc 2a 44 00 bd cb 55 39 bc
       -0.007072019 -0.019509068 -0.031315006 -0.011311959
0002d0 ab be d2 3c 78 39 a4 39 8d aa 91 bc 58 fd 1a bd
       0.025725683 0.00031323335 -0.01778152 -0.037839264
0002e0 5f b7 50 be 61 f3 52 bd a9 ae b9 3c 3b c3 33 3c
       -0.2038245 -0.051501635 0.022666292 0.01097184
0002f0 9c c2 fa 3c 1c 6f fc ba 39 cf a9 bc fc 7e 1c bd
       0.030610375 -0.0019259187 -0.020728694 -0.03820704
000300 ad 2d 87 bc ed 46 96 bc 2a 47 b1 3c 44 c5 2f 3c
       -0.016501272 -0.018344367 0.021640379 0.010728184
000310 8e 39 1e 3c e7 d8 72 3c a7 d1 89 bc b3 98 b0 bc
       0.009657277 0.014822221 -0.016823603 -0.021557188
000320 fb 56 ac bd 16 45 31 3c dc e8 ac 3c 83 87 1f bc
       -0.08415028 0.010819694 0.02110713 -0.009736898
000330 28 e5 39 bd df 2f ab bc c0 d3 94 3d 2e 52 3c 3d
       -0.045384556 -0.02089685 0.072669506 0.04597681
000340 8c c0 bb bb 99 01 ca bc d1 af 53 3d 4c cd fe 3c
       -0.0057297405 -0.024658965 0.051681343 0.031103753
000350 27 2b 36 3d 54 9f ad 3d a6 8a f8 bc ed 37 e3 3b
       0.044474747 0.08477655 -0.03033955 0.006934157
000360 c3 bb 84 bc e8 08 14 3d 2e ca 8c 3c ae 4e 6e 3d
       -0.016202813 0.036141306 0.01718625 0.058180504
000370 20 9d 1f bc 4b 37 c6 3c c4 d1 45 3c 8d 18 a7 bc
       -0.009742051 0.024196288 0.012073938 -0.020397449
000380 cd cc eb 3c 0b bf 82 3c 25 bc 0a 3c 76 8c 45 bc
       0.02878418 0.015960237 0.008467709 -0.012057414
000390 d1 e5 b5 bb 14 63 6c bc 3f f3 87 3c c6 b8 b7 3a
       -0.005551078 -0.014427919 0.016595481 0.0014016859
0003a0 cf b2 ec 3c c7 f6 a4 bb d8 f6 1f 3d 49 fc d9 3d
       0.028893856 -0.005034301 0.039053768 0.10643823
0003b0 88 76 94 3b 76 d1 20 3d 5d 3e 25 3d 1b c6 21 3e
       0.0045307316 0.039262258 0.040342677 0.15798227
0003c0 ba 09 1e 3b 75 fd 3b 3c f3 70 89 3c d4 1d 0c 3d
       0.0024114684 0.011474003 0.016777491 0.034208134
0003d0 cc 36 05 3d e5 1e 40 3d 7f 05 03 3d 65 cb a9 3c
       0.03252296 0.046904463 0.031987663 0.020726869
0003e0 a3 6e b1 bc 14 2c ac bc eb 0c b9 bc 03 e9 fd 3d
       -0.021659201 -0.021017112 -0.022589168 0.12397959
0003f0 74 b9 18 bd c5 d1 8f 3d e3 19 d1 3c 0c 8d a5 3c
       -0.037286237 0.07022432 0.025525039 0.020208858

conv2.att_src f4 [1, 8, 16]
000000 70 81 6a 3b 0f 00 21 bc 6d 35 ba 3a 97 bc a9 bb
       0.0035782717 -0.009826674 0.0014206596 -0.0051799524
000010 62 49 fe 3b db 7d 8f 3b c9 2a 0b 3c 67 e0 3c 3b
       0.0077602128 0.004379017 0.0084940875 0.0028820278
000020 c4 7e b6 3a 6a 0f 34 bc 00 e4 18 3c 4e 5e 42 bb
       0.0013923277 -0.010990003 0.009331703 -0.002965826
000030 d6 ea 54 bc 1e 41 b5 bb 36 7f a0 bb b1 ca 9b ba
       -0.012995442 -0.005531444 -0.004897977 -0.0011885968
000040 7e 9c 69 bb 74 70 5d bb 9a cc 01 bc 5e f0 1e bc
       -0.0035646255 -0.003378895 -0.007922316 -0.009700863
000050 31 8d 48 3b 7d 0e 92 bb 3a 3b 99 bb e7 35 94 3b
       0.0030601735 -0.0044572935 -0.00467625 0.004523027
000060 af c7 1e 3b 45 74 b9 ba 84 79 e9 ba 49 3c e8 3a
       0.0024227907 -0.0014149031 -0.0017812704 0.0017718162
000070 38 41 9c bb 56 3b 95 3a 39 00 0f bc 4b 73 84 bb
       -0.004768517 0.0011385481 -0.00872808 -0.0040420643
000080 e5 9e 42 bc 80 47 1c bb de 91 3c 3c a4 0e 7e 3b
       -0.011878704 -0.0023846328 0.011509387 0.003876605
000090 c2 4b c7 39 ef 8f 31 bc a9 32 59 bc 19 6e 13 3c
       0.00038012682 -0.010837539 -0.013256707 0.008998417
0000a0 4e 0b 15 3b 51 43 3d bc 70 bc 51 3a ee 81 9a ba
       0.0022742334 -0.011551694 0.00080007967 -0.001178799
0000b0 a1 fb 16 bc 55 5b 54 3c a0 14 a5 3a b0 4d 33 bc
       -0.009215266 0.012961228 0.0012594648 -0.010943815
0000c0 1e 0e 43 bc 3e 27 3e bb 76 73 9e ba 5c d2 5c 3b
       -0.011905221 -0.002901509 -0.0012088853 0.003369472
0000d0 6f 82 2d bc 56 c2 4c 3c ff 2f c0 bb f8 b7 5c bc
       -0.01059018 0.012497505 -0.0058650966 -0.013471596
0000e0 3e b9 4e 3b 93 9e 0f bc e4 be c5 ba 26 b5 18 3a
       0.0031543518 -0.008765834 -0.0015086797 0.0005825333
0000f0 2b ad 6d 3c cb 91 00 3b 44 ce 0b bb 24 06 80 3c
       0.0145066185 0.001961815 -0.002133266 0.015627928
000100 25 7e b9 bb 97 2f 45 bc 50 3e 46 bb ca 97 52 bc
       -0.0056607896 -0.012035272 -0.0030249543 -0.012853572
000110 1a 61 43 3c 07 31 1d bb 66 6f d2 3b 0e e8 5d 3c
       0.011925006 -0.0023985521 0.006421971 0.013544096
000120 c0 48 20 3b 01 20 4e bc 73 7d 47 3c 05 1a c4 3b
       0.0024457425 -0.0125808725 0.0121759055 0.005984547
000130 a0 fb 12 3b df b4 1e bc 1e 04 21 bb 73 9d 4c 3c
       0.0022427812 -0.009686678 -0.0024569104 0.012488711
000140 10 a1 40 3b 46 35 d2 3a dc 5e 07 bc ac 4f 80 3b
       0.0029392876 0.0016037605 -0.008262362 0.0039157476
000150 70 a9 ef ba 3a 84 12 3c 1d 4d 0c bc 68 2a f7 3b
       -0.0018284749 0.008942658 -0.008563307 0.007542897
000160 41 c5 10 bb c0 a8 78 b9 d0 01 4a 3c a4 72 f2 3b
       -0.0022090229 -0.00023713987 0.012329534 0.00739892
000170 c1 19 a8 3a e9 00 01 bc fe 43 e6 3a 08 40 6f bb
       0.0012825058 -0.007873752 0.0017567871 -0.0036506671
000180 17 f8 fc ba 7e a3 8c ba 83 71 22 3b f6 ff bb ba
       -0.0019300011 -0.0010729877 0.0024786897 -0.001434325
000190 44 7d aa 3a 30 78 60 b8 58 22 d0 b9 6a a9 6a 3a
       0.0013007303 -5.3517695e-05 -0.0003969844 0.0008951636
0001a0 56 51 9f ba 16 11 9c ba 16 b5 db b9 fc dc f1 b8
       -0.0012154977 -0.0011906947 -0.00041905855 -0.00011532937
0001b0 ea 35 55 b9 c1 61 3c bb ac e1 54 b8 3c 3b 9a ba
       -0.00020333347 -0.002874479 -5.0754912e-05 -0.0011766921
0001c0 64 fd 0b bb 54 c9 af 3b 83 4d ab 3a 9c 4c b1 3b
       -0.002136075 0.0053645764 0.0013069365 0.005410744
0001d0 5c 61 aa 3b 2b 6d ea 3a 32 4f ad 3b 7f 66 bc 3b
       0.0051995944 0.0017885318 0.005288982 0.005749523
0001e0 1b e4 2b bb d7 ca c3 3a e7 43 2c bb 94 e6 a4 3a
       -0.002622849 0.001493777 -0.002628559 0.0012580925
0001f0 c8 f0 32 bb 4f 37 83 bb ba 19 fe ba ec ac dc ba
       -0.0027304161 -0.004004396 -0.0019386329 -0.0016836203

conv2.att_dst f4 [1, 8, 16]
000000 80 88 39 3c 22 3b 1e bc d8 46 dd 3b e5 fc ca ba
       0.011324048 -0.009657653 0.00675283 -0.0015486745
000010 6b f8 81 bb 79 9e 63 3c ab d0 17 3c 70 4d ab bb
       -0.0039663813 0.013892763 0.009266059 -0.005227737
000020 da d9 0f bc fa c6 13 bc 79 60 08 3c 61 9c 8a 3a
       -0.008779967 -0.009019608 0.008323782 0.0010575169
000030 37 44 35 bc d5 0c 4c bc de f4 72 ba 9c f0 3c bc
       -0.011063627 -0.012454231 -0.00092680554 -0.011531975
000040 1c 44 58 3c 26 ed 7b 3c 3e 43 09 3c 5c c8 74 3c
       0.013199832 0.015376365 0.008377848 0.0149403475
000050 cb 3c 06 3c b2 2a 92 3c 88 65 6f 3c 08 1d 59 bc
       0.008193205 0.017842624 0.014611609 -0.0132515505
000060 31 26 29 3c 23 3e 1d bc 3a 3f 99 bc 5a 13 d1 3c
       0.010324047 -0.009597334 -0.018706907 0.025521923
000070 d2 cf 54 3c 28 2a 59 3c 82 81 4c ba 41 90 3d 3c
       0.012989001 0.01325468 -0.00078012806 0.011570037
000080 ac 55 b1 39 95 7a 76 bc d5 2a 2d bc 80 d6 80 3c
       0.000338239 -0.015043874 -0.010569294 0.015727282
000090 75 40 ca 3c 25 27 23 3c 7d 12 0e bb 98 08 69 bc
       0.024688939 0.009958063 -0.00216785 -0.01422324
0000a0 54 ef 97 3c e7 25 50 3b dc b7 6e 3c 9f a2 9b bc
       0.018546738 0.0031760873 0.014570203 -0.018998442
0000b0 11 70 f5 3b 6c 20 cf ba 75 56 9d 3c a8 ed 88 3b
       0.007490166 -0.0015802509 0.019206265 0.0041787215
0000c0 a7 c2 d4 3b cc 61 73 bc 02 d0 65 3c 42 3a 5d 3c
       0.006492931 -0.01485486 0.014026644 0.013502659
0000d0 1f cb 22 ba 31 bb 49 bc 48 eb 3c 3c 03 ce 0a 3c
       -0.0006210077 -0.012312696 0.011530705 0.008471969
0000e0 46 60 0a 3c 1e 65 d4 bb 6f 3c 65 bc ea 83 95 3c
       0.008445805 -0.0064817807 -0.013991459 0.018251378
0000f0 c2 35 3d bc a7 3a a1 3c 78 bf 51 bc c7 69 2c bc
       -0.011548461 0.019681288 -0.012801997 -0.010523266
000100 02 9b 06 bc 7b 20 af 3b ef e9 66 bc db 2d 19 3c
       -0.008215668 0.005344448 -0.01409386 0.009349312
000110 19 65 9a bb 57 d2 66 bc e4 e5 81 3c 93 4a 21 bc
       -0.004711759 -0.014088235 0.01585669 -0.00984444
000120 5e 1a 4f 3c 38 19 dc 3b cc 85 11 bb 79 31 07 bc
       0.012640564 0.0067168735 -0.0022204993 -0.008251541
000130 3b b2 5a 3c ba f4 12 ba 10 f7 6a bc 47 26 d3 3b
       0.0133481575 -0.0005605925 -0.014341131 0.006443772
000140 ec 70 89 bc b5 50 1d 3c 9e d6 54 3b 96 72 31 bc
       -0.016777478 0.009601762 0.0032476555 -0.010830542
000150 70 39 66 bc f5 04 28 bb 8c e4 59 3b 34 85 87 bb
       -0.01405178 -0.002563772 0.0033247797 -0.004135752
000160 d2 4c 8a 3c 1c 2f 89 3c 95 3b a5 bb f4 92 b2 3b
       0.016882334 0.016746096 -0.005042503 0.005449647
000170 d9 65 81 bc 42 ce 31 ba 7f 2f 4a 3c c9 c1 89 3c
       -0.015795635 -0.0006782749 0.0123404255 0.016816037
000180 38 d4 b1 3a fc 62 6c 3b 97 3a e9 3b f7 85 1d bc
       0.0013567274 0.0036069741 0.00711758 -0.009614459
000190 0c c6 c0 bb 3c 81 a0 b9 98 25 0b bc e2 07 fe ba
       -0.005882984 -0.00030613865 -0.00849285 -0.0019381011
0001a0 93 7e fd 3b 6c eb 14 bc c6 63 24 3c 30 47 a9 bb
       0.007736036 -0.009089332 0.0100335535 -0.005165957
0001b0 51 6a 22 bb 41 29 ad bb cd 93 2b bb 4d 85 fa bb
       -0.0024782608 -0.005284459 -0.0026180625 -0.007645285
0001c0 b4 cd 5c 3c ce a2 28 bc 7c b4 36 bc 3a 23 ca bb
       0.013476778 -0.010292722 -0.011151429 -0.00616875
0001d0 15 e5 a7 bb a7 d6 35 bc c1 0e d4 bb f8 07 a4 bb
       -0.0051237443 -0.01109854 -0.0064714854 -0.0050058328
0001e0 a2 40 5e 3c 0c cf 8f 39 05 37 62 3c 7d b0 fa 3b
       0.013565214 0.00027429347 0.013807063 0.0076504336
0001f0 88 2f 67 3c 7f 01 8b 3b 96 aa 78 3c c7 75 5c 3c
       0.014110453 0.0042421217 0.01517739 0.013455815

conv2.bias f4 [128]
000000 7a 21 aa 3c 02 24 b2 bb 4b 1c 14 bc 32 67 2d bd
       0.020767916 -0.0054364214 -0.009039949 -0.042334743
000010 d8 02 c9 3c 89 39 fd 3c 57 ac 92 bb 3a 52 fe 3c
       0.024537489 0.030911224 -0.004476111 0.031045068
000020 1a 66 d7 bb 86 9e 17 3c 87 3c 6f bc a5 60 49 bc
       -0.0065734508 0.0092541035 -0.014601833 -0.012291108
000030 b9 ac b8 3c da d1 38 bc b7 30 fd bc 1c 4c 6f bb
       0.022543298 -0.011280501 -0.030907018 -0.003651387
000040 6a e7 bb bb 2e 6c ea bc aa 95 ed 3c bd 66 19 bb
       -0.005734374 -0.028616037 0.02900203 -0.0023407184
000050 fb dd 5d bc 25 a0 c4 3b ce 05 b9 bc 52 73 09 3b
       -0.013541694 0.006000536 -0.022585776 0.0020973277
000060 8d 20 98 3c 70 ba 0e 3b c4 3f 4b 3c d8 64 ad bb
       0.018570209 0.0021778606 0.01240534 -0.0052915625
000070 57 b2 53 3b e2 b3 4e 3c c4 d9 26 3d 40 2e 74 bc
       0.0032302344 0.01261613 0.04073502 -0.014903605
000080 8b 85 74 3c 6b 91 90 3b c7 08 82 3b 18 79 a8 bb
       0.014924417 0.0044118664 0.0039683315 -0.0051413886
000090 5f 97 2e 3c c6 a5 83 bc 7a 90 02 3d 88 eb bb 3c
       0.010656207 -0.016070258 0.031876065 0.022939458
0000a0 f8 c6 a1 3c 27 ad 25 3c e8 4b a3 3c 4f d8 85 bb
       0.019748196 0.0101120835 0.019933656 -0.004084624
0000b0 f1 a0 08 bc 9d 21 0f bd fc ad 76 3c 74 d6 b2 3b
       -0.008339153 -0.034944165 0.01505613 0.0054576937
0000c0 f1 e2 83 bb f0 1b 1a 3c bf 8d 82 3b c4 b3 19 bc
       -0.0040248563 0.009406075 0.0039841826 -0.009381238
0000d0 93 dc f1 3c 1a ae e9 3b 1a 97 73 bb f0 53 e8 ba
       0.029524123 0.00713135 -0.003716892 -0.0017725211
0000e0 39 64 23 bc ff 50 28 3d ec 11 cb ba 42 2a eb 3b
       -0.009972625 0.04109287 -0.0015493012 0.0071766684
0000f0 55 f7 57 3c 73 92 91 bb 90 64 68 bb 64 66 af 3b
       0.013181527 -0.004442507 -0.003546033 0.005352782
000100 79 40 55 bb 8a f9 71 3c 57 ce 3b 3b 5b 0b a9 bb
       -0.003253965 0.014768967 0.0028656924 -0.0051588244
000110 81 59 9f 3c c8 9d b8 bb e9 a3 73 3c a3 a0 d6 3b
       0.019451858 -0.0056340434 0.014870622 0.006549911
000120 b2 1f 74 3c fc 06 3b 3c af 88 69 3b 0f d5 a5 3c
       0.014900135 0.011415239 0.0035634448 0.020243196
000130 a9 f6 ae bb ec b6 92 bb cf 3c 2d bc 0c 7f 0a bd
       -0.005339463 -0.0044773724 -0.01057358 -0.033812568
000140 5a 2c 92 3b ce 50 d2 bc b7 08 1a 3c 85 15 07 3c
       0.0044608535 -0.025673296 0.009401492 0.008244877
000150 5a ec 0b bb cb ca 83 3c 4d 46 70 bc 4b ae 13 bb
       -0.0021350593 0.01608791 -0.0146651985 -0.0022534307
000160 d4 d9 b9 3c e9 40 d3 3b e5 80 90 3c 14 2f 84 bc
       0.022686876 0.006446947 0.017639587 -0.01613573
000170 a6 a1 08 bc a7 3c 7a 3c 6b 95 7c bc 82 04 15 3c
       -0.008339321 0.01527325 -0.015416483 0.009095313
000180 81 9e 84 3c 7e 8d 83 3c 28 41 97 3c 3a cf 81 3c
       0.016188862 0.01605868 0.018463686 0.015845884
000190 0e 79 aa bc 68 1d 07 3c e5 3f 3f 3c f8 83 ae 38
       -0.020809676 0.008246757 0.0116729485 8.321548e-05
0001a0 57 aa 86 3b 11 51 3a bc cc b5 f0 3c bc fc f9 3b
       0.0041096616 -0.011371867 0.029383563 0.0076290052
0001b0 80 bf a3 3c 88 f7 7f 3c f0 19 20 3c 07 2f 99 3c
       0.019988775 0.015622981 0.009771809 0.018699182
0001c0 0f 43 63 bc d8 28 7a 3c 1f a5 2e 3c 12 44 e7 3b
       -0.0138709685 0.015268527 0.010659485 0.007057675
0001d0 d6 d8 a2 b9 31 49 64 bb 72 70 37 3c 63 9b 30 3c
       -0.00031060603 -0.0034833665 0.011196243 0.010779235
0001e0 08 ae 31 3c 4f a6 95 bc 28 ce e4 bb f7 42 16 bd
       0.010844715 -0.018267779 -0.0069825836 -0.036684956
0001f0 1c a2 10 bb 5f 95 c5 3c 82 84 31 3c 98 3d 22 3a
       -0.002206928 0.024119077 0.010834815 0.0006188988

conv2.lin.weight f4 [128, 128]
000000 9e 03 b7 bd 0c 26 f8 bc d3 ea 5c bd a8 f2 4b 3d
       -0.08936237 -0.03029158 -0.053934883 0.049791962
000010 64 a6 b3 bc 6a cf e2 3d 93 8e 74 3d 22 e8 15 3c
       -0.021929927 0.11074717 0.059706282 0.009149583
000020 39 19 9f 3d fe 18 6c 3d 00 65 7e 3a a0 24 b9 3c
       0.07768483 0.057641022 0.0009704381 0.022600472
000030 41 51 8e 3b 09 62 7a bd 22 65 92 bc ff a6 ce bc
       0.0043431823 -0.06112865 -0.01787049 -0.025226114
000040 b1 ad 01 bd 65 3b 10 3d c3 32 24 3d 9f e0 ee 3c
       -0.031659786 0.035212893 0.040087473 0.029159842
000050 64 43 cf bc 1f 30 c2 b9 23 81 c0 bb 5c 13 81 bb
       -0.025300689 -0.00037038416 -0.0058747693 -0.0039390754
000060 d2 57 58 bd 69 cb ad 3a a8 41 4c bd 5f ba f1 3c
       -0.052818127 0.0013259473 -0.049867302 0.029507814
000070 52 ce 67 3b 23 e6 3e bc ad 82 d6 bd 7e 9b a2 bb
       0.003537078 -0.011651549 -0.10474143 -0.004962384
000080 3e a4 9e 3d 35 d1 b5 3c e8 36 51 bc 26 35 73 bd
       0.077461705 0.022194484 -0.012769438 -0.05937686
000090 56 1e 81 3d a9 d2 1a bc b9 bc 94 3d d4 0a 84 3b
       0.06304614 -0.009449639 0.072625585 0.004029611
0000a0 e2 fa ae bd 0f 1b 83 bd 9a cf 01 3d 20 00 17 3b
       -0.08543946 -0.064016454 0.031692125 0.0023040846
0000b0 ba d4 df bd 9b 58 ef bc 9f 94 bf 3c d2 f9 05 bc
       -0.10929246 -0.029217055 0.023386298 -0.008177238
0000c0 99 13 ec 3c 58 ee 12 3d 52 c4 4a bc 02 c7 34 3d
       0.028817939 0.035871834 -0.012375908 0.0441351
0000d0 2d 99 0a bd ad 2e 53 bc c2 75 2d bc 4a 3b 36 3b
       -0.033837486 -0.012889546 -0.010587158 0.0027806335
0000e0 20 36 e9 36 92 04 a5 3d bc 3b ee bb 04 92 82 3d
       6.950242e-06 0.08057512 -0.0072703045 0.063755065
0000f0 9d 51 8b bb d3 4a 7a 3d 3e 73 de 3c 80 70 69 bd
       -0.0042516724 0.061106514 0.027154561 -0.056992054
000100 d5 22 b4 bc b5 13 11 3d 8d 47 1b 3d 0b 0c 75 bc
       -0.021989265 0.035419185 0.037910033 -0.014956485
000110 51 53 b4 3b c4 aa 35 bd b8 76 bc bd 45 25 5a bd
       0.005503096 -0.044352308 -0.09202331 -0.0532582
000120 40 1f 04 3c dc d3 43 bd 59 4f 15 3d 88 50 ac bd
       0.008064091 -0.047809467 0.036452625 -0.084137976
000130 59 52 bf bb 5a a5 a8 bd 4c 06 13 ba 34 54 f5 bb
       -0.005838674 -0.08234663 -0.0005608543 -0.0074868444
000140 8f 1d 63 bd 33 44 c6 bd 55 58 97 3d 4d 92 7a bd
       -0.05544811 -0.09680977 0.07389895 -0.06117468
000150 d9 aa 84 bd 95 8e 9e 3c 90 4e 92 3c ae 16 4a 3b
       -0.06477899 0.019355098 0.017859727 0.0030836272
000160 3a 82 a2 bc 59 03 b9 bc ee 30 ee bb 0c 74 0b bd
       -0.019837487 -0.022584604 -0.0072690165 -0.034046218
000170 cf d9 15 bd 87 5d 8b 3d ab 34 d1 3c 75 82 c9 bc
       -0.03658467 0.06804948 0.02553781 -0.02459834
000180 62 e2 05 3c 6d b6 a8 bc d3 49 81 3d ae 3c b1 ba
       0.00817165 -0.0205948 0.06312909 -0.0013522112
000190 26 93 04 bd 82 5c be 3d 49 54 28 3d 79 01 24 bc
       -0.032366894 0.09294988 0.041096006 -0.010010117
0001a0 ec cd a1 3d 1d 34 96 3c fb 7d 87 3c c4 cc 82 bd
       0.079006046 0.018335396 0.016539564 -0.06386712
0001b0 f3 d4 8f 3d 86 8d a2 bd cc d8 89 3d bf 62 0a 3a
       0.07023039 -0.0793715 0.06730804 0.00052789965
0001c0 c9 9f ff 3c dc c5 27 3a 84 9b 63 3c 78 b7 e7 3d
       0.031204121 0.0006400028 0.013892058 0.11314291
0001d0 8a 23 9e bb f6 2e 92 bc f0 7d 86 bd da 5f 88 bd
       -0.004826014 -0.017844658 -0.065669894 -0.06658907
0001e0 2b 37 a3 3d 3b 05 74 bd 7c 61 98 bc 52 6f f6 3c
       0.07969507 -0.0595753 -0.018601172 0.030082379
0001f0 ed 55 23 bd 2b e6 87 3c 9a b7 ce 3b 92 7c 35 bb
       -0.039876867 0.016589245 0.006308508 -0.0027692658
000200 b6 3c 21 3d e1 9d 7f 3c c7 cb 03 3d fc 74 02 bd
       0.03936454 0.015601606 0.03217676 -0.031849846
000210 f6 54 b7 bb a3 2a 55 bd ac 4f 81 bb 51 3c 57 bd
       -0.005594845 -0.052042615 -0.003946265 -0.052547757
000220 4d fa 32 bd 3c 08 5b bd 41 8d 9f bc e0 40 51 bd
       -0.043695737 -0.05347465 -0.019476535 -0.05108726
000230 0f 3b c0 bc e9 2c 21 3d ee 57 7a 3c d1 ae 4a 3d
       -0.023465661 0.03934947 0.015279753 0.049483124
000240 bf 57 6d ba a4 c9 dc bc 5c 7c 07 3c 5c 59 12 bd
       -0.00090539077 -0.026951618 0.008269396 -0.03572975
000250 d1 65 f9 3c 14 e4 ee 38 8d a8 8e 3a 33 e3 74 3d
       0.030444058 0.00011391207 0.0010883972 0.059786987
000260 63 21 04 3d 30 3a 19 39 86 1d 03 3d c2 72 fe 3c
       0.032258403 0.00014612894 0.032010578 0.03106058
000270 8b 12 bb bc 2c 7a 42 3d 92 e3 51 3d f9 66 2a bb
       -0.02283599 0.047479793 0.05124242 -0.0026001318
000280 c7 55 30 bc 3c b4 42 bd 25 a9 24 3d 3a 6c 4a 3d
       -0.010762638 -0.047535166 0.04020037 0.04941962
000290 57 50 dd bc 9c 2f 99 3c c7 4d 41 bd 66 93 fb ba
       -0.027015848 0.01869946 -0.047193315 -0.0019193708
0002a0 7f b1 64 3d 7c 21 9a 3d 18 b4 8d bd b4 0e 06 bb
       0.055833336 0.07525918 -0.06919116 -0.002045554
0002b0 6e 84 2a 3d 1e 9c 62 bc 8e 8b 6f bd 54 03 86 3c
       0.0416302 -0.013831167 -0.0584827 0.016359009
0002c0 b6 62 2a bd 76 6e 1e bd 06 a4 2a 3d 25 2a 48 bc
       -0.041598044 -0.038679563 0.04166033 -0.012217079
0002d0 d2 a9 04 3d f6 c3 15 bd 8d a6 36 bd 18 8d b4 bc
       0.032388516 -0.036563836 -0.04459243 -0.022039935
0002e0 7c ca c5 39 68 b1 6c bd e4 f5 32 3c e4 1c 0d bd
       0.0003772563 -0.057786375 0.010922883 -0.03445138
0002f0 55 94 46 bd f8 a9 84 bd fe 23 19 3c 36 31 28 3d
       -0.048481304 -0.064777315 0.00934696 0.041062556
000300 c7 a3 d2 3b 49 0e 80 bd 60 c1 92 b8 68 86 a8 bc
       0.006428215 -0.06252725 -6.9978414e-05 -0.020571902
000310 66 2a 8d bc 87 ed cd 3c f7 06 97 3d 16 78 20 3d
       -0.017232131 0.025137676 0.07374375 0.039177023
000320 9e 91 16 bd 52 12 eb 3c f1 4e d8 bc 68 2c 3d 3d
       -0.036759965 0.02869526 -0.02640483 0.046184927
000330 49 1a bf 3a 3d dc 3e 3d 4a 61 5b 3c 13 01 e8 3c
       0.0014579977 0.046596754 0.013389895 0.028320825
000340 43 67 f0 3c cc 83 23 3d 4b 26 44 bd 74 01 61 3d
       0.029346114 0.039920613 -0.04788808 0.054933026
000350 55 b2 46 3d c8 dc fd bb ee 4c 5a 3c 34 85 cd 3a
       0.048509914 -0.0077472664 0.0133240055 0.0015679956
000360 ed 7c 10 3c ad 81 91 3d f7 b0 8a 3d 18 0c ce 3c
       0.008818847 0.07104812 0.067720346 0.025152251
000370 93 48 88 3c b5 63 48 bd fe 66 e7 bc 97 37 5a 3d
       0.016636169 -0.048923213 -0.028247353 0.05327567
000380 59 b4 77 bd f8 50 bc 3d f6 b4 38 bd 69 37 3c 3d
       -0.060474727 0.09195131 -0.045094453 0.04595128
000390 00 8b 62 bc e2 73 db 3b 55 17 8b bd 0c 9c 33 3d
       -0.0138270855 0.006697164 -0.067915596 0.04384999
0003a0 58 88 aa bc 1b 5a 5c bd ea be 7c 3c b6 2a 96 3d
       -0.020816967 -0.05379687 0.015426377 0.07332365
0003b0 6a ca 87 bd b0 bf 23 3d 08 03 2b bd 94 bf 29 ba
       -0.06630404 0.03997773 -0.041750938 -0.0006475386
0003c0 ec 30 d1 3c eb b6 04 3b c2 e2 e7 bb 83 19 07 bd
       0.025536023 0.002025063 -0.007076592 -0.032983314
0003d0 9a 09 bc bc 2f e0 a9 bc ba af 16 3d f8 68 5f 3d
       -0.022953797 -0.020736782 0.03678868 0.054543465
0003e0 03 f9 0d bd e5 dc 80 3d a0 09 4f 3d 4e bc 2c bd
       -0.034661304 0.06292132 0.05054629 -0.04217177
0003f0 28 92 2e 3c 1a 11 ee 3c a1 c1 93 ba d7 82 c4 bb
       0.010654964 0.029060889 -0.0011272916 -0.0059970426

conv3.att_src f4 [1, 1, 3]
000000 7e 0b d5 be 5a cf 8a be bb ff 76 be
       -0.4161033 -0.27111322 -0.24120991

conv3.att_dst f4 [1, 1, 3]
000000 ca f5 32 be 21 eb 79 3e 37 6b 92 3e
       -0.17476574 0.24406101 0.28597423

conv3.bias f4 [3]
000000 e1 83 39 be af 78 3f 3e 52 d7 a5 3d
       -0.18116714 0.18698381 0.0809771

conv3.lin.weight f4 [3, 128]
000000 2c 05 34 3e b6 71 3e be f5 e6 8e 3d d0 86 0e be
       0.17580098 -0.18598065 0.06977645 -0.13918614
000010 06 ee c5 3d 75 4f 47 3e 1c fa 84 3e bb 34 d0 3d
       0.0966454 0.19463904 0.25972068 0.101663075
000020 39 69 d3 bd 75 10 95 be 96 20 9d 3e 69 c3 f0 bd
       -0.10322804 -0.29114118 0.30688924 -0.117560215
000030 54 1c 9b be a1 ab 37 be 51 ed 8b bc b6 cf 90 bd
       -0.3029505 -0.17936565 -0.017080935 -0.07070868
000040 ce 24 2f be 73 6e 32 be 0c 5d b4 3c ee 29 90 bd
       -0.17103884 -0.17424946 0.022017024 -0.070392475
000050 71 41 53 be 7f 32 08 be d2 9a f7 bd b9 52 3f 3e
       -0.20630433 -0.13300513 -0.120900765 0.186839
000060 87 d6 8f be 1b 68 92 3e b8 0d 8b 3e 96 31 94 be
       -0.2809336 0.2859505 0.27158904 -0.2894408
000070 bc 95 b1 bd 40 ed 89 be a6 e9 1e 3e 50 cd 3a be
       -0.08671138 -0.2693882 0.15518817 -0.18242383
000080 8c ff f0 3a 63 07 84 3e db cc f9 3d f6 97 89 be
       0.0018386706 0.25786886 0.12197276 -0.2687375
000090 fe a0 59 be b1 0b ef bd f7 b4 a3 3d ff 8a 01 3e
       -0.2125282 -0.11672152 0.07993501 0.12650679
0000a0 21 cf 79 be 68 21 45 bd 20 f2 49 be 42 4a 84 3e
       -0.2439542 -0.04812756 -0.1972127 0.25837904
0000b0 13 1f fe bd e2 a0 2b bd 85 db 90 be 0f b6 90 bd
       -0.12408271 -0.041901477 -0.2829248 -0.07065975
0000c0 94 41 16 be f7 7c 82 3e 48 e6 80 be 07 bb 1c be
       -0.14673454 0.25485966 -0.2517569 -0.1530572
0000d0 03 59 a9 3d b7 e5 22 3e b0 db 63 be 90 72 0c be
       0.08268931 0.15907942 -0.22251773 -0.13715577
0000e0 57 55 77 be b5 69 e9 3d bb fa 5f 3e 4d 1b 68 be
       -0.24153648 0.11397115 0.2187299 -0.22666664
0000f0 33 6f 2d 3e 7d 27 88 be 5b 0d 8f 3e 3e a0 15 3e
       0.1693695 -0.26592627 0.27939877 0.14611909
000100 9a 2e 6a 3e d8 58 43 bd a7 88 5e 3e 9a 43 e9 bd
       0.2286934 -0.04769215 0.21731816 -0.11389847
000110 e4 f2 b3 3d 7b 0a 64 3e 18 ee 76 be 40 fb 1e 3e
       0.08786562 0.22269623 -0.24114263 0.15525532
000120 32 72 8c be 26 a2 05 bb 7d c9 dc 3d b2 00 72 3e
       -0.27430874 -0.0020390837 0.10780618 0.23633078
000130 96 54 7e be 3c f4 9d bd ad 73 65 3e 73 53 3c be
       -0.24836954 -0.077126 0.22407408 -0.18391208
000140 8d e4 7e 3e 06 8d 37 be 71 e0 31 bc 83 54 4b 3e
       0.24891873 -0.1792489 -0.010856734 0.19856457
000150 21 7b 44 3e 57 5c 21 3e c6 2c d0 bd f1 64 d5 3c
       0.19187595 0.15757881 -0.1016479 0.02604911
000160 47 58 71 be a0 88 67 be 5d d1 57 3e c6 8f a4 3d
       -0.23568831 -0.22610712 0.2107596 0.08035235
000170 81 24 86 3e 5f 9e c7 bd 50 24 63 be fa 8c 72 be
       0.26199725 -0.09747004 -0.22181821 -0.23686591
000180 dc a8 74 3e f1 4a 64 3e ac cb f5 ba cf fd 1d 3e
       0.2389254 0.22294213 -0.0018752716 0.15428852
000190 86 e0 36 bd 02 7e 72 3e 00 b8 1a 3e a1 6c 93 be
       -0.044647716 0.2368088 0.15109253 -0.28793815
0001a0 9a fc c0 bd 41 b2 f8 3d cc 56 d2 3d 6b bb 71 be
       -0.0942318 0.12143374 0.102704614 -0.2360665
0001b0 98 90 76 be 3f 73 3c 3e 36 eb 8e be 94 87 2f 3e
       -0.24078596 0.18403338 -0.27913827 0.17141563
0001c0 0e ea 80 be d3 8e 0f 3e 51 fe 5a 3e 5b e1 4c 3e
       -0.2517857 0.14019327 0.21386077 0.20007841
0001d0 88 ce 11 3e da cc 5d 3e db 60 20 3e 6f 76 e9 3d
       0.14238942 0.21660176 0.15661947 0.113995425
0001e0 7b 19 73 be f9 35 36 bd 09 a5 78 be be 87 2d be
       -0.23740189 -0.044485066 -0.24281706 -0.16946313
0001f0 44 4b 56 be 56 cc 22 3c d5 af 80 be a3 16 6c be
       -0.20927149 0.009936413 -0.2513415 -0.2305551
000200 e2 2b b8 be 69 82 bd 3e 52 27 7b be 98 7d d4 bd
       -0.3597098 0.37013558 -0.24526718 -0.103755176
000210 12 b0 2d 3e 41 a9 e8 be 8e 2e 95 be 5d 0a 6c 3e
       0.16961697 -0.4544163 -0.2913708 0.23050828
000220 7e 20 74 3e 16 b7 0c 3e 4a 09 82 be e2 65 e5 bd
       0.2384052 0.13741717 -0.25397712 -0.11201073
000230 38 78 92 3e 1d 4e 85 3e 47 28 10 be 7a 16 c2 3e
       0.28607345 0.26036158 -0.14077865 0.37907773
000240 c4 75 9a 3e 3a 15 8d 3e af 6d b1 3e aa f2 e1 3e
       0.30167973 0.27555257 0.34653994 0.4413045
000250 ee 6b b0 3d 3f 7c ca 3e d5 2f c2 3e ce 08 95 be
       0.08614336 0.39547917 0.37927118 -0.2910828
000260 f4 fb 23 3e 14 57 1c be ff be 1a be 0a 1d 20 3e
       0.16014081 -0.15267593 -0.15111922 0.15636078
000270 7c 8b c2 3e 57 16 72 3e c9 e3 05 3e cc 6a 8a 3e
       0.37997043 0.23641334 0.13075174 0.27034605
000280 cd be 53 3e 3a 1f 3c be 1e c2 c1 be 76 37 49 3e
       0.20678253 -0.18371287 -0.37843412 0.19650063
000290 29 9e 88 3e 16 83 b9 3e 46 dc 7b 3e 27 f6 d1 be
       0.26683167 0.36232823 0.24595746 -0.41008112
0002a0 63 3a 8a 3e 25 3a 91 3e ed 3f 9c 3e a4 ee 53 be
       0.2699767 0.28364673 0.30517522 -0.20696503
0002b0 ef e8 c9 3e fa 3e 4f be e2 01 8c 3e 4b 91 b0 3e
       0.39435527 -0.20238867 0.27345186 0.3448585
0002c0 c3 1f 98 3e 08 13 22 be 6a 79 28 3e 39 49 91 3e
       0.29711732 -0.15827572 0.16452566 0.28376177
0002d0 d9 e7 88 3e 65 2a c5 be 11 37 7f 3e 90 f4 b6 3e
       0.26739386 -0.38508907 0.2492335 0.3573346
0002e0 11 99 18 3e 05 17 01 3e 80 ee 1e be 0d b9 7e 3e
       0.1490214 0.12606438 -0.15520668 0.24875279
0002f0 48 7a d1 be f3 2c 7a 3e 6c 9e 1a be 9a 49 c5 be
       -0.40913606 0.2443121 -0.15099496 -0.38532716
000300 21 d5 6f be 43 fd 8c 3e 7b b5 78 be 10 3a bd 3e
       -0.23421146 0.27536973 -0.2428798 0.3695836
000310 a1 c3 f7 be 56 94 8b be 7d f5 6b 3e 09 89 dc be
       -0.4839144 -0.2726161 0.23042865 -0.430733
000320 a3 56 24 3e 72 34 9b 3e ba ca a4 be c0 ab 7b be
       0.16048674 0.3031345 -0.32185918 -0.24577236
000330 fe 56 68 3e 40 ce 70 3e b3 de 9c be 3c ce 39 bd
       0.22689435 0.23516178 -0.30638656 -0.045362696
000340 cb 41 8d be 7e 4d 4d 3d ce 6d be 3e 27 3f 9e be
       -0.2758926 0.05012273 0.3719315 -0.30907556
000350 34 14 61 be e7 14 d6 be f8 81 b1 3e 9a 94 9c be
       -0.21980363 -0.41812822 0.3466947 -0.30582124
000360 19 8c 84 3e 56 90 40 3e e6 2b d7 be a1 fe 84 be
       0.25888136 0.1880506 -0.4202568 -0.25975516
000370 86 f3 47 be 5d db 87 3e 5c 6f 9b 3d a5 a0 8f 3e
       -0.1952649 0.26534548 0.075895995 0.2805225
000380 a8 d7 cd bd fb 37 9f bd 87 ac 2c 3e 26 ab d7 be
       -0.10050899 -0.07774349 0.16862689 -0.42122763
000390 6e 1c 3d be a9 5e 96 be 37 74 d0 be 98 8d 57 3e
       -0.18467876 -0.29369095 -0.40713665 0.21050107
0003a0 a4 a1 c9 3e 5d 39 bb be de 55 40 3e dd e7 8e 3e
       0.39381135 -0.36567202 0.18782756 0.27911273
0003b0 07 13 95 3e 7f 5b a8 be da ba 6c 3e 7d 49 b5 be
       0.2911608 -0.32882306 0.23118153 -0.3540763
0003c0 8c b9 86 3e ed 6e d7 be ba ee 3f be d8 13 ba be
       0.26313436 -0.42076817 -0.1874341 -0.36343265
0003d0 d5 84 b9 be 0c bc 7b be ee 76 c3 be 0f b9 b2 be
       -0.36234155 -0.24583453 -0.38176674 -0.34906814
0003e0 66 ea 89 3e 6d a6 1e be 4d 67 4c 3e f9 08 b9 3d
       0.26936644 -0.15493174 0.19961281 0.090349145
0003f0 61 c5 88 3e 51 31 a2 3e 53 f5 84 3e 0c ed 79 3e
       0.26713088 0.3167825 0.25968418 0.24406832
